Experiment/benchmark/cnn_medium/onnx/simple_cnn_5x7_7x9.onnx (onnx, 721686 bytes, 8 tensors)

conv1.weight f4 [5, 1, 7, 7]
00000000: 915f 5bbe 0ac8 67be 3e75 2dbe 42cd 183c
00000010: 5ee2 f43d dfa2 c23d 3255 3e3e c449 49be
00000020: 1b19 d23c baad 8b3c 8820 923d eabd fd3b
00000030: 9297 533e 4dab ad3d 73d5 a3bd 496f 60bd
00000040: 782a 023e 0a1c 603e e2e3 693e 1834 9e3c
00000050: 48ed d3bd 423d 4abd 4823 fcbc 44f4 163e
00000060: 1b96 ef3d c40b 47bc 4ae7 6abd f1dd f5bd
00000070: 0d86 eb3c 400f 9fbc 74d6 9b3a 4fa7 d93d
00000080: f427 ae39 85e7 5bbd 8396 1fbe c79c 29bd
00000090: a18c 0b3e 23df 0e3e 7626 293d 40e4 86bd
000000a0: 3a69 9dbd 59c5 f7bd 5c2d 003e 00f8 91bc
000000b0: 7195 9bbd 3e50 7b3d 2ea5 8fbc 651d d0bb
000000c0: e5ab 14bd c89e aa3d d6b6 313d ac98 163e
000000d0: 3499 243d 4028 f7bd 4c1b 913d c1e9 d3bd
000000e0: 2fc3 cdbd f874 04be 41e5 56be 6b0c 4abe
000000f0: 1f5b 28be 6a83 1bbe 08b0 ecbd 4dcb 2ebe
00000100: 3839 52be 9843 62be 1440 333d d052 c3bc
00000110: a453 ab3d 3e78 913d b17e 843c 5772 063c
00000120: 9218 12bc 6eb1 913d 612a a9bd d39d 77bd
00000130: 73ec 073e 61df 523d 66f0 663e dd1e 653e
00000140: 35f3 523a a382 593d d8d8 153e e84e c43d
00000150: 9d5e 363e 1575 ae3c 46d6 1d3e 6f15 f3bb
00000160: 2b32 0e3e b538 253d 5075 043e 7400 ad3d
00000170: 2b88 9ebc e837 7bbd 454d 523c fdbd d6bd
00000180: dac3 f9b9 e00c b93d 539f 2b3e 6c7e d73d
00000190: 8eca 98bd b73e d13d 7d4b d4bd da6d 99bd
000001a0: 4f9a 7e3d 2906 ea3d e6be bcbd 6b24 c63d
000001b0: 4176 8f3d 4545 863c c41c 063e 80e7 853d
000001c0: ab63 1b3e bee1 3d3c 555c 3abd 5d45 af3c
000001d0: b8f6 c43d e139 1f3e 6c6a 2f3e 971f 333e
000001e0: d8ea 623d e423 eb3d 932f 023e f753 aebd
000001f0: e6e9 063d 1c79 323e f4ce 843d 9c8e 21bd
00000200: 4235 25bd 27b1 253e 3b09 9d3d 3767 b7bd
00000210: f2d6 e2bc 512c 98bd 9adc 37bd c719 fc3d
00000220: 08ee ad3d 1a69 ff3d 3bf3 883c 180f 9a3d
00000230: 3257 97bd 8d56 db3d a74d 0c3d 0163 90bd
00000240: 1078 d13d 96a4 4eba 09fc 97bc afaa 9c3d
00000250: 7d60 4c3d c7e3 963a 48d8 023e e5b4 033e
00000260: a1b6 313e 355d 1b3e 3151 e73d 1c85 c63d
00000270: bbf5 bdbc 9f2e 783d 68b3 343e 75d2 873c
00000280: 6b12 ee3d ab7d 9a3d c300 7bbd 5888 dfbc
00000290: 5bb1 abbd 24be a1bc 355d 85bd 05b5 a93d
000002a0: 7bd6 883d 933c c3bd 4840 98bd 08aa 283d
000002b0: 53ee 1cbe 27bb 4d3d 60a7 7fbd f824 db3b
000002c0: 57e4 84bd 03e6 22be 7f8e 40be a2b8 46be
000002d0: 6818 5ebe 0a72 fabd 7538 8ebd 9e7b 3f3d
000002e0: 51f0 3e3d c511 0b3c 36ac afbd 20f3 df3c
000002f0: 1260 fcbc c571 073e 6ec1 95bd e32d 593d
00000300: 709b b6bd 5ced 4cbc 69f8 9c3c 94d8 e93c
00000310: c6b2 b13c 37ac 09be 20cf 96bc 0602 223d
00000320: 8d08 343e 19ff 42bb ab61 23be 0d6f c1bd
00000330: 02e1 18be f759 24bc 3de5 093e 8080 363e
00000340: d5a4 f73d 6943 28be 69c6 03be cad0 22be
00000350: 354e 47bd 671f 413e 437a 7dbc 5f2e acbd
00000360: 4b5e dcbd 6fd4 1bbd 0f5a 9cbd f662 ee3c
00000370: 4295 113e 0b37 193e 35a6 4a3d 2c21 da3c
00000380: 4491 013d 32bf 20be 67dc 99bc 6284 033e
00000390: 75ee 743d 0fbb 283d 6002 093d b410 bcbd
000003a0: 7a66 17be 52d7 bd3d 0f1b 99bb 00a1 58bd
000003b0: e2d6 65bb 2c21 7dbd 2900 2abe d794 9fbd
000003c0: ee87 bc3c f1c2 09bd f77d ae3d 51c0 d33d
000003d0: 1547 cfbc
-0.21423174 -0.22634903 -0.16939256 0.009326281 0.119572386 0.095037214 0.18587187 -0.19657046
0.025646737 0.017050613 0.07135111 0.007743587 0.20663288 0.08479939 -0.079996966 -0.05479363
0.12711513 0.21885696 0.22840837 0.01931195 -0.10347992 -0.049374826 -0.030778542 0.14741617
0.11698552 -0.012148801 -0.05734948 -0.120052226 0.028750444 -0.019416451 0.0011889474 0.10627615
0.00033217634 -0.05368759 -0.1558476 -0.04140928 0.13627864 0.13952307 0.041296445 -0.06586504
-0.07686086 -0.12098188 0.12517303 -0.01781845 -0.07596863 0.06135582 -0.017534819 -0.0063511604
-0.036296744 0.08331066 0.043387257 0.14706677 0.04018517 -0.12068224 0.070852846 -0.103473194
-0.10046994 -0.12935245 -0.20985891 -0.197313 -0.1644101 -0.15186849 -0.11557013 -0.1706974
-0.2052964 -0.22096097 0.04376228 -0.023843199 0.083655626 0.071030125 0.016173692 0.008205972
-0.008916991 0.0711392 -0.08260036 -0.060453247 0.13273792 0.051482562 0.22552642 0.22375055
0.0008047105 0.0531031 0.146335 0.09585363 0.1780953 0.021296063 0.1541377 -0.0074183266
0.13886325 0.040337283 0.12935376 0.08447352 -0.01935204 -0.061332613 0.012835805 -0.10485456
-0.00047638902 0.09035659 0.16759996 0.1052216 -0.07460509 0.1021704 -0.10365961 -0.07491656
0.06215888 0.11426956 -0.092160985 0.09674915 0.07004977 0.016390452 0.1309691 0.06538296
0.15174739 0.011589466 -0.04549821 0.02139538 0.0961737 0.15549423 0.1713044 0.1749252
0.055399746 0.11481455 0.1271346 -0.08512109 0.032937907 0.17429012 0.06484786 -0.039442644
-0.040333994 0.1618086 0.07667776 -0.089552335 -0.027690385 -0.07430328 -0.044888116 0.12309604
0.084926665 0.124712184 0.016717544 0.0752241 -0.07389678 0.107098676 0.034253743 -0.070501335
0.10227978 -0.00078828016 -0.018552797 0.07649743 0.049896706 0.0011511975 0.12777817 0.12861975
0.17354824 0.15172274 0.11294783 0.09693357 -0.023188462 0.060591336 0.17646563 0.016579846
0.11624607 0.075435005 -0.061280023 -0.027286693 -0.08383437 -0.019743986 -0.065119185 0.0828648
0.06681534 -0.09533038 -0.07434136 0.04117778 -0.15325288 0.05022731 -0.06241548 0.0066877566
-0.06488865 -0.15908055 -0.18804358 -0.1940637 -0.21688998 -0.122287825 -0.06944362 0.04674875
0.046615902 0.008488123 -0.085777685 0.02733761 -0.030807529 0.13226993 -0.073122844 0.053022277
-0.08916366 -0.012507763 0.01916142 0.028545655 0.021691691 -0.13444601 -0.018409312 0.03955271
0.17581387 -0.00297541 -0.15955226 -0.094450094 -0.14929584 -0.010031215 0.13466354 0.17822456
0.12091986 -0.16431965 -0.12868656 -0.15899959 -0.04865857 0.18859635 -0.015471044 -0.08407282
-0.107601725 -0.03804439 -0.07634365 0.029099923 0.14217094 0.14962403 0.049474914 0.026627146
0.031632677 -0.15697935 -0.018781854 0.12843469 0.059797723 0.041194018 0.03344953 -0.09182873
-0.14785185 0.09269585 -0.004672415 -0.052887917 -0.0035070707 -0.061799213 -0.16601624 -0.07792061
0.023014035 -0.033633176 0.0852012 0.10339416 -0.02530245

conv1.bias f4 [5]
00000000: fd85 06be fd2b e63d 5a5d 7cbd e304 923b
00000010: a65f 93bd
-0.1313705 0.11238859 -0.061612464 0.004456149 -0.07195978

conv2.weight f4 [7, 5, 9, 9]
00000000: b497 dc3c 9433 d33c 21c4 f33c 7645 c83d
00000010: af17 113d 0831 1d3d 16e2 7d3d 7179 b93d
00000020: 0d14 6b3d 828c 09bc 3124 5e3d ac0d 91ba
00000030: 8b69 8f3d b5e8 bcbc 3f14 933c 429a 383d
00000040: 0a7c f4bb 3dba 043d 10da 0cbd fefd 233c
00000050: 728f 05bd 8b8a cabc e1c7 1d3c fff2 8dbc
00000060: c0b4 44bd 266e 4abd 95ff d83a df13 4fbd
00000070: c1e0 8ebd 927a 87bd 8c58 ccbc 257a 07bd
00000080: 5a1f 97bd 1774 00bd 761c 4bbd 9f09 7ebd
00000090: ec11 aebd 87b2 1abd a04a 89bc ba99 9fbc
000000a0: 2847 cebd ea23 49bd 070f aebd 2167 abbd
000000b0: a4bd 9cbd 9b82 aabd a62f bcbd 50c8 9cbd
000000c0: 59c7 8cbd 4c60 d8bd 4c67 cebd 22c7 edbd
000000d0: 67c6 8cbd 8d99 56bd a4cb c2bd fe55 57bd
000000e0: ce47 f8bd f8d7 9dbd a9e6 9bbd f49d 04bd
000000f0: 3a15 7dbd 00d5 a6bd 596d fcbc 44b1 c6bd
00000100: 9548 7dbd 5d1f 95bd 00cc 58bd 5601 c9bd
00000110: f776 38bd 1881 98bd eb3a 01bd 4732 4dbd
00000120: 6952 59bd 5215 833c bb60 16bd 3d3e 58bd
00000130: 3874 84bd 953f f93a d859 a33b efe6 85bc
00000140: 0e85 3abd 01e7 ab3d acd6 84bb 86d0 42bc
00000150: a203 383d eb12 3fbc 6dff 923d 38db a93d
00000160: cd4a a43d f58f 5f3d 4891 57bc 9275 7a3d
00000170: fca5 943d cf58 353c 6fc2 70bb c17b 6a3d
00000180: b224 653c b1eb 133c 21c9 8f3d 096b ba3b
00000190: 8b4c 843c 7e73 37bc a60d d73c 839b 603c
000001a0: 8746 01bc 8f31 0fbc 2285 85bb 08fb 933d
000001b0: d353 ab3c 2a71 f5bc 9a6b 08bb 9154 673d
000001c0: 5df8 433d d0fa 673d 7e31 3a3d 0a89 573c
000001d0: db2b 31bb 4b7d c8bc 1312 33bc fb77 fcbc
000001e0: b534 27bd c554 c83c 980b 1d3c 844c 603d
000001f0: 5290 f13c 3af7 d43c c57e 67bd 1f5c c9bc
00000200: 18d7 21bb 3fd9 023c 64c5 08bc dd92 403d
00000210: a4e8 9f3d eb41 4ebc 9ee7 283d 8647 b7bc
00000220: 0729 e73c a81d 7fbc 7089 9abc 6786 b5bc
00000230: 8d3b 0dbd e582 0c3d d2eb e1bc 63d6 7cbc
00000240: 9efc 803b 7ef4 0a3d bafb c1bc 9875 8ebc
00000250: 2e2f 06bd 813b 57bd 4ba4 ec3c 5b15 4e3d
00000260: ab3a 39bb 7bcc be3a 2106 8d3c 401b 85bc
00000270: 05a0 6cbd a591 8fbd d563 553b 259e 5cbd
00000280: bcdb 00bc fc06 c5bc 0f3b cabb bb5d 6a3d
00000290: ba82 c53c 2cab 37bb fcc4 de3c 1af9 16bd
000002a0: 8928 463d 9822 8d3c f455 1e3d a0c3 0c3d
000002b0: e974 243d cfef aebb 7533 143c bc2f 36bc
000002c0: f5a7 753d e1c0 313d d01d 023b ce00 2a3d
000002d0: 90d2 933d de84 a03c 435d 653b 951d fa3c
000002e0: bf3f c9bc 4479 d7bc 6901 71bc 2422 9bbc
000002f0: 25ca 143d 2c50 92bc f18c 80ba 6fb5 7a3d
00000300: 5de5 c0bc c0c6 293d c1f3 bc3c c5bb 833c
00000310: 14f1 193d 22dc 0c3d bb66 383d 1d5c 3a3d
00000320: b743 91bb 8da1 2e3d 3b36 573d 48bc 7f3d
00000330: 1da2 483d 0360 893d a21c 293d f2d7 363c
00000340: 104b 803d 9b8c e13c 2811 d93c df75 8c3d
00000350: 0ff4 703d 4fbd 3d3d a3fe 463d 6df0 2e3c
00000360: df2b 043d 16f7 833d 708a 41bc cee0 c4bc
00000370: 46df 8c3d 05ee 833b 67e2 d83c e405 b33b
00000380: 658c 5d3c 3784 943c 8902 ed3c efa0 753d
00000390: c9fa 4a3d 76d8 c43b d31d 1c3d fe22 4e3c
000003a0: e853 123d 56ef d3bc 1d28 fbbc 4f77 cf3c
000003b0: b347 dfba 3225 2e3d a181 01bc 52b0 153d
000003c0: 410d 02bd fa71 fa3b de4f 7c3b 9ba2 6ebd
000003d0: dcab 79bd dec5 62bd ca05 48ba 955b 47bc
000003e0: 07f2 993b 85d9 30bd 8310 143b 28a4 34bd
000003f0: d657 25bd 9278 91bd aef6 8d3c 80af 30bd
0.026927806 0.02578143 0.029756607 0.097788736 0.035422977 0.038376838 0.06198319 0.09056366
0.05739217 -0.008395316 0.054233734 -0.0011066697 0.070025526 -0.023060182 0.01795399 0.045068987
-0.0074610757 0.032404173 -0.034387648 0.010009287 -0.032607503 -0.024724266 0.009630174 -0.017327784
-0.04802394 -0.049421452 0.0016555662 -0.05055606 -0.06976462 -0.06615175 -0.024944566 -0.03307547
-0.07379027 -0.031360712 -0.04958769 -0.062020894 -0.08499512 -0.037767913 -0.016759217 -0.019482482
-0.10072166 -0.049106516 -0.0849896 -0.0836928 -0.076533586 -0.08325692 -0.09188776 -0.07655394
-0.0687396 -0.10565242 -0.10078296 -0.11610247 -0.0687378 -0.05239253 -0.095114976 -0.052572243
-0.12123071 -0.077072084 -0.07612354 -0.0323772 -0.06178782 -0.08146095 -0.03081386 -0.097017795
-0.061836798 -0.07281373 -0.052928925 -0.09814708 -0.04503533 -0.07446498 -0.03155033 -0.050096776
-0.053057108 0.016001377 -0.036713343 -0.05279373 -0.064674795 0.0019016141 0.0049850754 -0.01634547
-0.045537047 0.0839367 -0.004053911 -0.011890536 0.04492534 -0.011662225 0.07177625 0.08293766
0.080220796 0.054580647 -0.013157196 0.06114728 0.072582215 0.011068537 -0.0036736985 0.057246927
0.0139858 0.009028361 0.07020784 0.005689029 0.01614978 -0.011196969 0.026251625 0.013708952
-0.00789035 -0.008739843 -0.0040747086 0.07225615 0.020913994 -0.029961187 -0.0020816089 0.056477133
0.04784428 0.056635678 0.045457356 0.013155231 -0.0027034197 -0.024473807 -0.010929602 -0.03081893
-0.04082175 0.024454484 0.009585284 0.05476047 0.029487763 0.025996793 -0.05651738 -0.02458006
-0.0024694856 0.007986366 -0.008347843 0.04701506 0.078080446 -0.012588958 0.041236512 -0.022372972
0.028217806 -0.015571035 -0.018864363 -0.022158815 -0.03448062 0.03430452 -0.027578268 -0.015431973
0.0039363643 0.033924572 -0.023679603 -0.017390057 -0.032759838 -0.05254698 0.028886935 0.050313335
-0.0028263729 0.001455679 0.017214837 -0.016248345 -0.057769794 -0.07010201 0.0032560725 -0.053861756
-0.007864889 -0.024051182 -0.006171591 0.057218295 0.024110187 -0.002802561 0.027193539 -0.036858656
0.0483785 0.01722841 0.03865619 0.03436625 0.040150557 -0.005338646 0.009045471 -0.011119779
0.05997463 0.043396834 0.0019854195 0.041504674 0.07217896 0.019594606 0.0034998215 0.030531684
-0.02456653 -0.026302941 -0.014709809 -0.018937178 0.036325593 -0.017860495 -0.0009807629 0.061208185
-0.023546869 0.04144931 0.02306545 0.016080746 0.037583426 0.034389623 0.045019846 0.045498002
-0.004433121 0.042634536 0.052541953 0.06243542 0.04898273 0.06707766 0.041287072 0.011159884
0.06264317 0.027532866 0.026497439 0.068584196 0.058826502 0.046323117 0.048582684 0.010677439
0.0322684 0.06443612 -0.011812791 -0.024032976 0.068785235 0.004026177 0.026475145 0.0054633487
0.013522242 0.018129451 0.028931873 0.05996793 0.049555574 0.0060072495 0.03811438 0.012581585
0.03572455 -0.02587096 -0.030658776 0.025325445 -0.0017034918 0.04251594 -0.007904441 0.036545105
-0.03175092 0.0076429816 0.0038499753 -0.05826054 -0.060954913 -0.055364482 -0.0007630257 -0.012167831
0.0046980414 -0.043176193 0.002259285 -0.044101864 -0.04036697 -0.07103075 0.01732954 -0.04313612

conv2.bias f4 [7]
00000000: 6352 f23c 9e3a 703d d194 a83c 9e28 a63c
00000010: 8eae ccbc b4d6 643d 9704 653d
0.0295803 0.05864965 0.020578774 0.02028304 -0.024985578 0.05586882 0.05591258

fc1.weight f4 [128, 1372]
00000000: 44f1 5b3c f898 e1bc 40fd 8cbc 5652 a13c
00000010: e93b fe3b a798 393d 8020 ce3b 8dcc cabb
00000020: ac7b 863b 7dcd 77bc 2370 74bc 4a31 f03b
00000030: a089 1fbd 70f8 f1bc a259 97bb 0416 f5bc
00000040: 3d59 3d3c 4f66 433c a4ef a6bb 378f e4bb
00000050: f798 9c3c ef37 8ebc a47d 363b c158 e1bc
00000060: 2330 8ebc 9294 bfbc 1160 2bbc 318c 13bd
00000070: 86d0 42bd 84d1 843a 3ede b1bc dba4 a9bc
00000080: eeec bc3c ac8c b63c 3957 ecbb 93e7 91bc
00000090: 7e6c 14bd 5e61 18bd d871 bd3b 04bc 12bd
000000a0: 6f49 b4bc 9958 16bd e541 41bc 4e27 37bc
000000b0: 757c ee3b 5193 443b eee6 f73c 00cc ee3a
000000c0: a187 28bc 0806 6cbc 8f26 29bd 5010 88bb
000000d0: 1fd6 813c 8458 fabc 1d8f f1bc cab1 e5bb
000000e0: 6cec 33bd cacf b0bb 64bc 8bbc 2833 293c
000000f0: f1be 8a3c 3774 203b fb02 9abc 57b4 433c
00000100: 14e7 0fbc 84a5 b8bc 265b 2cbc 7d2f c2ba
00000110: 3acf 0b3c 7047 933c fb86 e6bc bf7b 803c
00000120: 106f 65bc 5d46 8a3c a103 123d b6c6 b73c
00000130: a305 7bbb 5256 33b9 b338 80bc 0344 5839
00000140: 8bed babc d714 cbbc 2369 14bc 1684 a63b
00000150: 32e5 9ebc eb62 6a3b 0971 003d 67fa 10bb
00000160: 12ef ae3c 99cb a13b 3cbc a7bc 1b29 3dbc
00000170: 55b3 87bb a48c ffbc 3352 91bc 6821 7c3c
00000180: 2029 403b 5e38 803c ea6e 9fbc dc31 da3c
00000190: db1e b43c 0341 c5bb 5486 bb3c 54f8 3cbc
000001a0: ebc2 eebc cf25 18bd 0be1 71bc b0a4 cebb
000001b0: d972 c23c cb86 fe3a 7450 7839 ac77 68bc
000001c0: c420 81bb 5393 9c3c 6fdb ba39 c326 e33b
000001d0: 625e 09ba c891 23bd 7112 e8bc b08c 8fbc
000001e0: 4364 66bc 5e64 8c3c 0110 453c c697 f73c
000001f0: 51b7 82bb 1832 00bc 5d63 083d 9a4f 013c
00000200: 2be2 6f38 7072 e63c f63b 96bc 787d 37bc
00000210: c39a 10bd c909 28bb c4bb 58bc 9f9a 5fbc
00000220: 3bc7 103d 562e f63c 3326 2a3c b538 ca3b
00000230: 0615 713c 1c25 013d fabd e03c 877d 073d
00000240: ff97 293c 7a8d acbc 91e9 573c 7d74 073c
00000250: 5289 84bc 7d67 ffba c944 ddbb 8bba 803b
00000260: fef7 1a3d 4d22 b33c c77d f23c 2cff 173d
00000270: 5a4d 1c3d 064c 083c 5f91 103d f971 a53b
00000280: cad6 95ba 3ed6 ca3c 2688 383c 5966 27bb
00000290: ae9a 2b3c 85d1 14bb b1a1 183c 1753 113d
000002a0: 982a 633d 59c9 163d b196 783d 79ea 2a3d
000002b0: b9cf 103d 4b08 e83c 788d ef3c 245e 1c3d
000002c0: da17 bebb 72ec 5c3c 91a4 e73c b586 9a3c
000002d0: 4a0a 103c 65ab 193d a218 723d 1602 863d
000002e0: ebf5 4e3d d504 163c 7aad a63c a4dc 3e3d
000002f0: ce49 413d f825 87bb 5b71 f7bb 697b 1e3d
00000300: f0f4 573c f2aa 5d3d 262a 403d 29cf 6f3c
00000310: bb93 6e3c b746 9abc 92c4 473c 64c4 2e39
00000320: c3c0 50bb 58ef 343d b6ef a13c 49fc c23c
00000330: 3345 7dbb b699 d1bc 12d7 debc 798c 33bc
00000340: ad57 64bc 6d7f 40bd c56a b2bc 6b94 26bc
00000350: d127 99bc b561 2b3d bca7 263c d33b 883c
00000360: 6645 463c 8992 5e3c c40b d1bc 0287 15bd
00000370: 696f 86bc 9c27 53bd 3724 58bd bb48 a1b9
00000380: 1dca 1dbd 9c71 fc39 4850 0abd 0f6b fd3c
00000390: 4c22 ff3c 00d8 4d39 3f60 b43c 8d83 5b3c
000003a0: 68c3 aabc 00dc 10bd a040 14bd 3331 1dbd
000003b0: 1262 15bc a87c 3abd c84b c4bc f1d7 8ebc
000003c0: 8876 77bc eac3 76bc e085 eb3c a825 d93c
000003d0: 7f7f 87bc 606b 853c b109 22bc aa80 16bc
000003e0: 7b36 87bb bb82 c8bc 939f adbb 408a cebb
000003f0: 64bf bcbc e83b c5bc 904f f0bc 8d0f 273b
0.013424221 -0.027538761 -0.017210603 0.019692581 0.0077586067 0.045311596 0.0062904954 -0.006188935
0.0041040983 -0.015124676 -0.014919314 0.0073300945 -0.03894961 -0.02953741 -0.0046188394 -0.029917724
0.011556921 0.011926248 -0.0050944854 -0.0069750804 0.019115908 -0.017360656 0.0027845884 -0.027508141
-0.017356938 -0.023386274 -0.010459916 -0.03602237 -0.047562145 0.0010133241 -0.021712419 -0.020708492
0.023062196 0.022283874 -0.007212546 -0.017810619 -0.03623628 -0.03720223 0.0057813935 -0.035823837
-0.022007672 -0.036705587 -0.011795496 -0.011178805 0.00727802 0.0029995034 0.030261483 0.0018218756
-0.010286243 -0.014405735 -0.041296538 -0.004152335 0.015849171 -0.030559786 -0.029487187 -0.0070097195
-0.04392664 -0.005395864 -0.017057605 0.010327138 0.016936751 0.0024483332 -0.01880025 0.011944852
-0.008783121 -0.022539862 -0.010519778 -0.0014815178 0.008533293 0.0179784 -0.028140536 0.015684007
-0.01400353 0.016879255 0.035647992 0.02243362 -0.003830292 -0.00017102927 -0.015652036 0.00020624702
-0.022818347 -0.02479021 -0.00905827 0.005081664 -0.019396398 0.0035764526 0.0313578 -0.0022121908
0.021354232 0.004937601 -0.0204755 -0.011545445 -0.004141251 -0.031194992 -0.017739391 0.015388824
0.0029321387 0.015651878 -0.019462068 0.026635103 0.02198737 -0.006019713 0.022891201 -0.011533815
-0.029145679 -0.037145432 -0.014763127 -0.0063062534 0.023736404 0.0019418834 0.00023681094 -0.014188688
-0.0039406735 0.019113218 0.00035640175 0.006932111 -0.00052401994 -0.03993395 -0.028329106 -0.01752314
-0.01406199 0.017137703 0.012027741 0.030223738 -0.003989138 -0.007824443 0.033297885 0.007892514
5.7192676e-05 0.02813074 -0.018339138 -0.011199348 -0.035303842 -0.0025640598 -0.013228361 -0.013647704
0.03534625 0.030051392 0.010385084 0.006171311 0.014714485 0.03152953 0.027434338 0.033078697
0.01035118 -0.021063555 0.013178245 0.008267519 -0.01617876 -0.0019485798 -0.0067525846 0.0039284877
0.03783416 0.021866942 0.029600991 0.037108585 0.038159706 0.008318907 0.035294887 0.005048987
-0.001143181 0.024760362 0.011262929 -0.0025543182 0.01047389 -0.0022707891 0.009315894 0.03547963
0.055460542 0.036813114 0.060690586 0.041727517 0.03535435 0.028324267 0.029242262 0.038175717
-0.005801183 0.013484107 0.028276714 0.018863061 0.008791516 0.03751697 0.059105523 0.065433666
0.050527494 0.0091564255 0.020346392 0.046597138 0.047189526 -0.0041243993 -0.007551355 0.03869191
0.013180956 0.054118104 0.046915196 0.014636793 0.014561589 -0.018832548 0.012192862 0.00016667094
-0.0031853176 0.04417357 0.019767623 0.02380194 -0.0038645982 -0.02558599 -0.027202163 -0.010958784
-0.013936919 -0.046996523 -0.021779427 -0.010167222 -0.018695744 0.041841228 0.010171827 0.016630089
0.012101507 0.013584741 -0.025518306 -0.036505707 -0.016410546 -0.051551446 -0.052768912 -0.000307625
-0.03852283 0.0004814983 -0.03376797 0.030934839 0.031144284 0.0001963079 0.02201855 0.013398063
-0.02084513 -0.03536606 -0.036194444 -0.038377 -0.00911762 -0.045529038 -0.023961917 -0.017436953
-0.015103944 -0.015061358 0.02875036 0.026507214 -0.016540287 0.016286552 -0.009890006 -0.009185949
-0.0041263676 -0.0244764 -0.0052985637 -0.006303102 -0.02304048 -0.024076417 -0.029334813 0.0025491447

fc1.bias f4 [128]
00000000: efc6 183c 7774 b43c f50c a03b e8b9 60bc
00000010: b795 eabc 420b 07ba 3206 ec3c 2529 113d
00000020: 9a9a aa3c b42a b6bb 5fdc ccbc 7bd9 19bc
00000030: 7b73 b9bc 0c95 6f3b 366b 4a3d 7a22 74bb
00000040: 2ecf 983c 3089 00bc 24f4 e53c ee45 5cbc
00000050: 66d8 0d3d a948 5fbb d456 fc3c 61ad 8e3c
00000060: 5406 a8bc 1b5b 643c d30e 363d f7b7 c53a
00000070: df70 2fbc 3ce1 8e3c 6aa8 933c 4a42 8dba
00000080: 1f47 a0bc f613 b7bc 235b f2bc 22b1 b6bb
00000090: 56e4 143d ef62 7abb c169 d23c bb42 05bb
000000a0: 031c 913b 8382 0abc 9393 8abb 088d 173d
000000b0: 818a f53c 20a3 053d 030d 6ab9 e1c7 243d
000000c0: bfa0 243d eca7 693c 8f9e a33c 0490 a2bb
000000d0: 8372 583b eb74 04bb 2e65 64bb 82b9 8fbb
000000e0: ebb8 163c 1fb4 733b a784 5f3c 713f 9c3b
000000f0: 1017 85bc 231a 043d 360f 053d 4edb 0f3d
00000100: 48c0 81bc 6dfc e0bc 717d 29bc a85f b23c
00000110: f0fa 40bc c40b b1bc 3750 45bb d2f4 c93c
00000120: eee8 ff3c 8fe9 a73c 081c f4bc 4825 cd3b
00000130: f783 bcbb 9467 82ba b462 78bb f136 20bc
00000140: 56eb 04bd 1606 de3c fa44 be3c c2d5 98bc
00000150: a94f 9abb 467e 1a3d 88c0 533d 05a8 22bd
00000160: 172f 1b3d a373 3f3c 3df1 bc3c bd14 7f3c
00000170: 63ad 553d 98b9 4d3b b0e5 693b 2be1 7f3c
00000180: f860 c93b 1231 903c 8514 c63b 4a33 1c3d
00000190: 23e5 593c 13db bb3c 30af 213c aa34 66ba
000001a0: 8196 e03b cdd2 c438 9e9c 9abc c91d fbbb
000001b0: 2036 1d3d c64a a9bc 3de4 dc3c 31d3 bdbc
000001c0: 5ea4 3e3c eb42 1b3d 3dce a83b 2ba9 e93c
000001d0: b290 a5bc 0440 e3bc d0c8 8abc a7f1 a1bc
000001e0: 3b1c 5a3b 8c7f d83c f4ba c6bc 48d7 233c
000001f0: 329c 1c3c 7840 073d d135 e23b 81f6 363d
0.009324773 0.022028191 0.004884357 -0.0137161985 -0.028635843 -0.0005151519 0.028811548 0.03543963
0.020825673 -0.00555929 -0.025007425 -0.00939023 -0.022638073 0.0036557345 0.04941865 -0.0037251995
0.018653478 -0.007845208 0.028070517 -0.013444407 0.0346302 -0.0034070408 0.030803122 0.017416658
-0.02051083 0.013937737 0.04444773 0.0015084733 -0.010708063 0.017441384 0.018024642 -0.0010777202
-0.019565163 -0.022348385 -0.029584473 -0.005575315 0.03635057 -0.0038205942 0.025685193 -0.0020333964
0.004428388 -0.008453968 -0.004229018 0.036999732 0.02997327 0.03262627 -0.00022320826 0.040229682
0.040192362 0.014261227 0.019973068 -0.0049610157 0.0033027239 -0.002021129 -0.0034850347 -0.004386128
0.009199361 0.0037186218 0.013642467 0.004768305 -0.016246349 0.03225149 0.03248521 0.035121255
-0.015838757 -0.027464116 -0.010344849 0.021774128 -0.011778578 -0.021612056 -0.0030107626 0.024652872
0.031239 0.020497112 -0.029798523 0.006260548 -0.005753036 -0.0009949082 -0.0037900629 -0.009778724
-0.032450996 0.027102511 0.02322625 -0.018656615 -0.0047092033 0.03771808 0.051697284 -0.039711017
0.037886705 0.011685285 0.02306425 0.015568909 0.052167308 0.003139114 0.0035689883 0.015617649
0.006145593 0.017601524 0.0060449266 0.03813485 0.013299259 0.022931611 0.009868428 -0.0008781651
0.006853879 9.385273e-05 -0.018873509 -0.007663463 0.038381696 -0.020665538 0.026964301 -0.023171993
0.011635868 0.037905615 0.0051515386 0.028523048 -0.020210598 -0.027740486 -0.016941458 -0.01976855
0.0033280987 0.026428007 -0.024259068 0.0100000575 0.009558724 0.033020467 0.006903388 0.04466868

fc2.weight f4 [10, 128]
00000000: d878 ccbc 5574 acbd 0768 2c3c 3425 bebd
00000010: c131 51bd e0cb 283d d193 80bd 041f ca3d
00000020: 5f5f 4dbd 5015 7abd 2e54 aebc e8a5 9b3c
00000030: c956 63bd 05f1 953d f3a1 dabc 5433 043d
00000040: c982 eb3b 6e44 25bd 10ed 23bc 72c7 50bd
00000050: 57a1 993c 2a0c 66bd b748 cdbd 489c 953c
00000060: 7c21 aabd 2f71 91bc b89b a03c 47d3 71bc
00000070: bb95 e3bd 59f0 ba3c ce35 42bb 4abc 713c
00000080: d758 e23c 7c38 18bd 7447 b13c ace8 7ebd
00000090: 8350 e7bd 198f e93c 9b04 f8bd 2e11 dc3d
000000a0: 4473 b43d 9837 0f3c bb97 0e3d e748 613d
000000b0: f0e6 45bd 3dca afbb 1b2e debc f3ac 7a3d
000000c0: 51ce 82bd 91c1 9ebd 6444 82bd ebbe 47bd
000000d0: 2306 d0bd a5a6 bebd 050f 7fbd f86e 37bc
000000e0: c9fb b13d 9acc 853b c822 b5bd d886 863d
000000f0: cff5 113d 7d2d 9bbd 4f71 a1bd ba87 f93d
00000100: fcdb 44bd 5c4b a6bc ff0a 7f3d ba49 bbbb
00000110: f009 d8bc 25e8 0abd aff1 5fbc a2e3 bc3d
00000120: 2948 18bd 35ed 31bd ad4a 77bd 7507 e8bd
00000130: 9548 6d3c ec87 913d 2ff0 80bc 096d 32bd
00000140: d305 84bd a632 bebd 95d9 833d 8892 e73d
00000150: 9bb0 b53d 2af0 adbd ba59 d53d edfc 9dbd
00000160: 5f26 b23d 62f1 103c 1d68 9b3d 7c7a c6bb
00000170: 533a c03d be27 433c dff5 bebd 253b 8a3c
00000180: ed6c fe3c 8a31 f2bd 8fea 863d 0596 013d
00000190: 49eb 54bb 0188 35bd 5d07 c73d b3cb 8b3d
000001a0: b745 0f3d fa2e 97bd 95fc c1bc a501 a5bd
000001b0: 2024 e43c 09c2 c8bd bed7 e6bd 4f0a c3bc
000001c0: 7d61 e23d 7d14 abbd 62d0 9b3c 4774 a33d
000001d0: 27b6 5ebd 7b92 743d f9ff e6bb 1647 b3bc
000001e0: df28 bf3d 9f6d 8ebd 0ff7 09bd caf8 eebd
000001f0: 825c 2e3c 5f19 98bd 7d68 f1ba 296b 683d
00000200: 9bcd 753d 743f df3d 0e98 08be 3abe ed3d
00000210: 7220 773d 1f78 933d bb29 b4bd 5939 5f3c
00000220: 1a3a d8bd db29 74bb e871 babc b757 95ba
00000230: 2c50 dd3b 3e57 8c3c 86a4 99bd 56b2 bdbd
00000240: ef26 003e ebf5 84bd 367c 723d ebe2 adbb
00000250: 70dc a1bb cfc4 93bd f446 c5bd 1325 59bd
00000260: bb27 10bd 6955 88bd 6e49 8abd e4a9 bb3b
00000270: 31eb ce3d 3210 563d 08b4 f8bc 22f4 6bbd
00000280: 748e 8f3d 8fb8 d3bb 7226 8b3c a575 683b
00000290: 3085 5a3d f128 2a3d b6ab d4bc afc9 85bd
000002a0: 0583 d83d c1f2 ddbc 44e4 84bd b627 e2bc
000002b0: 7ec3 df3d efb0 c13d 6623 8ebd b663 c9bd
000002c0: e03b c7bd 876d a7bd 9473 f3bd 15a0 52bd
000002d0: d9bf 833d 9c98 d03d 77bd 75bd 95a3 df3d
000002e0: f182 d93b 0300 563d ee80 a63d f9e0 bebc
000002f0: d4ea 24bd 8a8f a3bd 9e03 f23d 5e36 2dbd
00000300: d2bb 123d 3f5c 513b a3c0 173d 5514 8b3c
00000310: 2dca 2ebd 38c1 4c3d c254 e33c 7e17 e13d
00000320: 3115 d3bd 97b3 37bd 40ad c7bc d7a9 8f3d
00000330: ba4a 7f3d ab9b 38bd 7b4c 773d 2605 d2bd
00000340: 7bc7 07bd 14ce 78bd 1cfe d13d 5dcc de3c
00000350: 902f 42bd 11e9 9a3d 798e cebd 1f32 6e3c
00000360: ccfe 5b3d b576 e2bd 419b 963d e0db c73d
00000370: 017a c6bd df65 b5bd b0a5 cf3d 473b b9bd
00000380: 8c25 1cbd d831 8e3d 6ee0 85bd 2cc4 ccbc
00000390: 2f52 a5bd 8ca5 433d aa20 1a3d 9c8c adbd
000003a0: 497a bf3d e9fb f8bd 5e1b bdbd 2d2c f93d
000003b0: ea5d d83d c291 423b 74da e83c 206e fcbc
000003c0: 9b29 eb3c 1315 523d eb99 7c3b 313f 7f3c
000003d0: 61c2 fcbc 7bc8 debb f2fa 8c3d 3d20 d73c
000003e0: bcf7 7e3d af45 7cbd 079c 85bd 2fe5 853c
000003f0: fa86 113d 868f 553d 8b6b 133d a114 92bd
-0.024959967 -0.08420626 0.010522849 -0.0928444 -0.05107284 0.041210055 -0.06278194 0.09869197
-0.05013978 -0.06105548 -0.021280374 0.019000009 -0.055502687 0.073213615 -0.026688552 0.032275513
0.0071872217 -0.040348463 -0.010005251 -0.050971456 0.01875369 -0.056163944 -0.10023635 0.018262997
-0.08307168 -0.017754165 0.019605502 -0.014759845 -0.11112543 0.022819685 -0.002963412 0.014754364
0.027630253 -0.037163243 0.021640517 -0.062233612 -0.11294653 0.028510617 -0.121102534 0.10745464
0.08811048 0.008741282 0.03481267 0.055001166 -0.048315942 -0.005364685 -0.027121594 0.061200093
-0.06387008 -0.077517636 -0.06360701 -0.048766058 -0.101574205 -0.09309129 -0.062270183 -0.011195891
0.08690602 0.0040832283 -0.088445246 0.06568688 0.035634812 -0.075770356 -0.0788294 0.12184091
-0.048061356 -0.020299606 0.062266346 -0.005715576 -0.026371926 -0.033912797 -0.013668462 0.09223105
-0.037178192 -0.04343911 -0.06037395 -0.11329547 0.014482637 0.07106003 -0.015739528 -0.043561015
-0.064464234 -0.09287004 0.06437985 0.113072455 0.088715754 -0.08493073 0.104175046 -0.077142574
0.08698725 0.008846613 0.075882174 -0.0060570817 0.093861245 0.011911331 -0.0932424 0.016873905
0.0310578 -0.11825855 0.06587707 0.03163721 -0.0032488874 -0.044319157 0.09718201 0.06825962
0.034978595 -0.07382007 -0.02368001 -0.08056954 0.027849257 -0.09802634 -0.11271618 -0.023808626
0.11053751 -0.08353517 0.019020263 0.079811625 -0.054372933 0.059710007 -0.0070495573 -0.021884482
0.093339674 -0.06954502 -0.03368288 -0.116685465 0.010642173 -0.07426714 -0.0018417981 0.05674282
0.060010534 0.109007746 -0.13339254 0.116085485 0.060333677 0.07200646 -0.08797022 0.013624513
-0.10557957 -0.0037256393 -0.022759393 -0.0011393939 0.006753942 0.017131444 -0.075020835 -0.092625305
0.12514852 -0.06492218 0.059200488 -0.0053065917 -0.0049396083 -0.07215273 -0.09632674 -0.053013872
-0.03519414 -0.06656916 -0.06752287 0.0057270397 0.10103453 0.05226154 -0.030359283 -0.05760587
0.07009593 -0.00646121 0.016986106 0.0035470512 0.053349674 0.04154295 -0.025960784 -0.06532609
0.10571865 -0.027093293 -0.06488851 -0.027606826 0.10925959 0.094575755 -0.069403455 -0.098334715
-0.09728217 -0.081751876 -0.11887279 -0.051422197 0.064330764 0.10185358 -0.05999514 0.10919873
0.006637924 0.052246105 0.0813006 -0.023300635 -0.040263012 -0.07986362 0.11817096 -0.042288177
0.03582365 0.0031945852 0.037048947 0.016977469 -0.04267328 0.049988955 0.027750377 0.10990809
-0.10306776 -0.044849005 -0.024374604 0.07014816 0.062327124 -0.04507033 0.06037567 -0.10254888
-0.033149224 -0.060743406 0.10253546 0.027197057 -0.04740864 0.07563985 -0.10085768 0.014538317
0.05370979 -0.11057798 0.07353831 0.09758735 -0.09691239 -0.08857321 0.10139024 -0.090445094
-0.038121745 0.06943101 -0.06536947 -0.024995886 -0.08072316 0.0477653 0.037628807 -0.08474085
0.09349496 -0.12157423 -0.092337355 0.12166629 0.10564788 0.002968893 0.028424479 -0.03081423
0.028706362 0.05128963 0.003854389 0.015579031 -0.030854406 -0.0067988015 0.068838015 0.02626049
0.062247977 -0.061589893 -0.065239005 0.016344635 0.035529114 0.052138828 0.035991233 -0.07132841

fc2.bias f4 [10]
00000000: 0b39 433d bba7 0f3d e874 acbd 7201 eabc
00000010: 7786 983d d073 42bd 6c58 033d 16bf f5bc
00000020: 0cf3 79bd 8e14 ac3c
0.047661822 0.03507207 -0.084207356 -0.028565142 0.07447522 -0.04747373 0.032066748 -0.029998343
-0.061022803 0.021005895
