Experiment/benchmark/cnn_medium/onnx/simple_cnn_3x9_5x11.onnx (onnx, 271118 bytes, 8 tensors)

conv1.weight f4 [3, 1, 9, 9]
0	0x3cac5486	0.021036398
1	0x3d66f244	0.056383386
2	0x3bd3ba76	0.006461437
3	0x3d50b206	0.050951026
4	0x3d147f21	0.036254052
5	0xbd82a359	-0.06378812
6	0x3d1e0764	0.038581267
7	0xba13024d	-0.0005607948
8	0x3d8eccab	0.06972631
9	0xbbb85aaa	-0.0056260424
10	0x3db872b5	0.09006254
11	0xbd4e9b81	-0.05044127
12	0xbcccf433	-0.025018787
13	0x3c472139	0.012153917
14	0xbd94278f	-0.07234108
15	0xbd9a2339	-0.075262494
16	0x3d364b83	0.044505607
17	0xbd9c7ee4	-0.0764139
18	0xbc8b7412	-0.01702312
19	0xbd3c973c	-0.046042666
20	0xbd7c11db	-0.061540466
21	0x3dd6ad53	0.10482278
22	0x3da5c6be	0.08094548
23	0x3de8cef8	0.11367601
24	0xbce53d8f	-0.027983455
25	0xbcd8129d	-0.026376063
26	0x3d2db0aa	0.042404808
27	0x3c7d2535	0.015450765
28	0x3c820324	0.015870638
29	0x3d0bc20b	0.0341206
30	0x3e136f1d	0.14397855
31	0x3cd67bfc	0.026182167
32	0xbc5374e2	-0.012906285
33	0x3d13ec04	0.036113754
34	0x3e2915a1	0.16512157
35	0x3e115143	0.14191155
36	0x3e28c6ec	0.16482133
37	0x3dff5a15	0.12468354
38	0x3dc16183	0.09442427
39	0x3e0fe835	0.14053424
40	0x3d49e942	0.049294718
41	0x3dc3fcc9	0.09569699
42	0x3e15deb6	0.14635739
43	0x3df23260	0.118260145
44	0x3e2f18fc	0.17099375
45	0x3de14663	0.10999753
46	0x39b40f5d	0.00034343722
47	0x3dce6678	0.10078138
48	0xba1c931a	-0.00059728476
49	0x3de6563c	0.11246917
50	0x3e28b082	0.16473582
51	0xbc190d5d	-0.009341565
52	0x3dab9e18	0.08379763
53	0x3cc07872	0.023494933
54	0xbc7d0e21	-0.015445263
55	0x3e223592	0.15840748
56	0x3dbefd9a	0.093257144
57	0x3d8cc56d	0.068735935
58	0x3e23e333	0.16004638
59	0x3dafa7a5	0.085768975
60	0x3cf6f942	0.030148152
61	0x3da6cee7	0.08144932
62	0xbceee73b	-0.029162994
63	0xbca255cd	-0.019816304
64	0xbcf48266	-0.029847335
65	0xbd65e7ce	-0.05612927
66	0x3e0b8759	0.1362585
67	0x3e07d178	0.132635
68	0xbca1ffc4	-0.019775279
69	0x3db50b79	0.08840079
70	0xbcd9b227	-0.026574207
71	0xbc90f8bb	-0.017696729
72	0xbc674080	-0.014114499
73	0x3bac5ff7	0.0052604633
74	0x3c56455b	0.013078059
75	0x3dd350f8	0.10318178
76	0x3d9c3be3	0.0762861
77	0x3d0ad641	0.033895735
78	0xbc2fc64b	-0.010728429
79	0xbbca27a2	-0.0061692754
80	0x3d7416fd	0.059592236
81	0xbd487af0	-0.048945367
82	0x3cc58255	0.024109999
83	0xbdbbfcca	-0.09179075
84	0xbd3c54e5	-0.0459794
85	0x3d9be303	0.076116584
86	0x3d686a0a	0.05674175
87	0x3c6934e9	0.014233806
88	0x3cbd9fc7	0.023147477
89	0x3d2f0567	0.04272976
90	0x3d14ef49	0.036361013
91	0x3da65ad6	0.08122794
92	0xbd022285	-0.0317712
93	0xbdfd583b	-0.12370344
94	0x3d14a9d5	0.036294777
95	0xbcc4c939	-0.024021732
96	0x3ba6cf65	0.0050906413
97	0xbc54efa3	-0.012996587
98	0xbdc79bf2	-0.09746541
99	0x3ddf1bd9	0.108939834
100	0xbdacceef	-0.08437907
101	0xbd09481e	-0.033516042
102	0xbdcde86f	-0.10054099
103	0xbe2db4d0	-0.16963506
104	0xbda612e8	-0.08109075
105	0xbe1006ff	-0.14065169
106	0xbd92f35c	-0.07175323
107	0xbd0dc3c5	-0.03461053
108	0xbc961a76	-0.018323164
109	0x3dfd7b7d	0.12377069
110	0xbdf36e84	-0.118863136
111	0xbde7d57c	-0.11320016
112	0xbcdff575	-0.027338723
113	0xbd7bb31c	-0.06145011
114	0x3b228e63	0.0024804107
115	0xbe2c6521	-0.16835453
116	0xbdad10cf	-0.084504716
117	0xbc5f4531	-0.013627336
118	0x3d2e2bc0	0.042522192
119	0x3d82a201	0.06378556
120	0xbdc2ef5b	-0.0951831
121	0xbe073414	-0.1320346
122	0xbd9be1a3	-0.07611396
123	0xbe1d38d6	-0.15353712
124	0xbd4cd892	-0.050011225
125	0xbd0a4dec	-0.03376572
126	0x3df41bb9	0.1191935
127	0x3bcc0d79	0.006227192
128	0xbda214bf	-0.07914113
129	0xbdd614ab	-0.10453161
130	0xbd01ab67	-0.031657603
131	0x3c282562	0.010262819
132	0x3be4725e	0.0069716414
133	0x3bd57352	0.0065139914
134	0xbcc92be1	-0.024557056
135	0x3e060319	0.13087119
136	0x3d38e56a	0.04514066
137	0x3d8d537e	0.069006905
138	0x3d1ed22a	0.038774647
139	0xbc10b19e	-0.00883141
140	0xbd0151ab	-0.031572025
141	0xbb118069	-0.0022201783
142	0x3e0f29a2	0.13980725
143	0x3c85bc8b	0.016325256
144	0x3e0ab398	0.13545072
145	0x3bc62fb9	0.0060481695
146	0xbcd65ed7	-0.02616827
147	0x3dfbbf48	0.122923434
148	0x3def6ba3	0.11690452
149	0x3dd22376	0.1026067
150	0x3dae9620	0.08524728
151	0x3d45d9a0	0.048303246
152	0x3e0cec9a	0.13762131
153	0x3dc6ce04	0.09707263
154	0x3de8f80a	0.11375435
155	0x3dbfceaf	0.09365594
156	0x3d41dcf6	0.047329865
157	0x3dfb8791	0.122817166
158	0x3d41ef4b	0.04734735
159	0xbc34c538	-0.011033349
160	0x3e1198ad	0.14218397
161	0x3d26a8b9	0.04068825
162	0x3cd3a8b7	0.025837285
163	0xbda8a52c	-0.08234629
164	0x3cefd6b4	0.029277183
165	0x3c98a789	0.018634574
166	0x3d4a4484	0.049381748
167	0xbdc9341a	-0.09824391
168	0xbdb04b81	-0.08608151
169	0xbe168821	-0.14700367
170	0xbc3938aa	-0.011305014
171	0x3d2e3449	0.04253033
172	0x3dcc3c1a	0.09972401
173	0xbd9dc5eb	-0.077037655
174	0x3d0146be	0.031561606
175	0xbd98c096	-0.07458608
176	0x3bfda738	0.0077408813
177	0xbc9d6f36	-0.019218069
178	0xbde100b3	-0.109864615
179	0xbe2d2d38	-0.16911781
180	0xbdd2f786	-0.103011176
181	0x3d9032dc	0.07040951
182	0x3dfa61bc	0.122256726
183	0x3d63fa2a	0.055658497
184	0x3a834f0e	0.0010018067
185	0x3e0fef0b	0.14056031
186	0x3d23a002	0.039947517
187	0xbc8ed870	-0.01743719
188	0x3dfe26c3	0.12409737
189	0xbdd4c112	-0.10388388
190	0x3c39dbaf	0.011343881
191	0x3d8d58a8	0.069016755
192	0x3d46ff48	0.0485833
193	0x3d0984be	0.03357386
194	0x3e15adf9	0.14617147
195	0x3c589461	0.01321897
196	0x3e5b7400	0.21430969
197	0x3e0b8ed6	0.13628706
198	0x3d140367	0.036136057
199	0x3da6c238	0.08142513
200	0x3cbf440d	0.023347879
201	0x3db9d9cd	0.09074745
202	0x3d0fdfc7	0.03512552
203	0x3e24ff6b	0.16113059
204	0x3e5609a2	0.20902112
205	0x3d596563	0.053075206
206	0x3e2acb35	0.1667908
207	0xbd274458	-0.040836662
208	0x3e0513d4	0.12995845
209	0x3e062888	0.13101399
210	0x3d845b0e	0.0646268
211	0x3b089829	0.0020842648
212	0x3df8e35e	0.12152742
213	0xbd7c6c5d	-0.06162678
214	0x3db47a27	0.08812361
215	0xbcc34279	-0.023835408
216	0xbd4cac56	-0.04996904
217	0x3d0c0bb2	0.03419084
218	0xbd2fde10	-0.042936385
219	0xbdfe1a20	-0.12407327
220	0xbe0b1af7	-0.13584505
221	0xbe4d0f86	-0.20025453
222	0xbe3859d7	-0.18003021
223	0xbd82b783	-0.06382658
224	0xbdce2e00	-0.100673676
225	0x3d9f47b7	0.077773504
226	0x3de6fa88	0.11278254
227	0x3cc0f843	0.02355588
228	0xbc46ceae	-0.012134237
229	0xbe6d1767	-0.23153459
230	0xbe0f7286	-0.14008531
231	0xbe2c7bee	-0.1684415
232	0x3c1f44a9	0.00972096
233	0xbdebb913	-0.115099095
234	0xbb7b0312	-0.003830139
235	0x3c9fda60	0.019513309
236	0xbdd9b750	-0.10630667
237	0xbcef66c6	-0.02922381
238	0x3d503d1f	0.05083954
239	0xbd4402c0	-0.047854185
240	0x3ca4407c	0.02005028
241	0x3d40998a	0.047021426
242	0x3d246795	0.040137846

conv1.bias f4 [3]
0	0x3b708e91	0.003670607
1	0x3e170379	0.14747418
2	0x3d72382b	0.059135597

conv2.weight f4 [5, 3, 11, 11]
0	0xbdcb8325	-0.09937123
1	0xbd7f4697	-0.06232318
2	0xbd454e0e	-0.048170142
3	0x3c31654a	0.010827372
4	0x3cd607ae	0.026126709
5	0xbd369dad	-0.044583965
6	0x3c634ee0	0.013873786
7	0xbd422bc0	-0.047405005
8	0xbd4cad6a	-0.049970068
9	0xbd0ad2d5	-0.03389247
10	0xbc29f65c	-0.010373678
11	0xbe09a3dc	-0.13441414
12	0xbda6cecf	-0.08144914
13	0xbd4acc29	-0.04951111
14	0xbcf979ef	-0.03045365
15	0xbd1b6c79	-0.037945244
16	0xbc426860	-0.011865705
17	0xbd75f249	-0.060045514
18	0xbc90ea83	-0.017689949
19	0xbc548fce	-0.012973739
20	0xbd2a3cd5	-0.04156192
21	0xbca795a7	-0.020457102
22	0xbdbf1d4f	-0.09331762
23	0xbcf50f21	-0.02991444
24	0xbd8b74bd	-0.068093754
25	0x3c0d7ae6	0.008635258
26	0x3c9eae9a	0.019370366
27	0xbd5f22f3	-0.05447669
28	0xbd840a8b	-0.064473234
29	0xbced922b	-0.029000362
30	0xbd9201c9	-0.07129247
31	0xbd70d9da	-0.05880151
32	0xbd9f7e24	-0.07787731
33	0x3c99dd1e	0.018782195
34	0x3c766c9d	0.015040544
35	0x3cca3eac	0.024688087
36	0x3d440fd1	0.047866646
37	0x3d126cce	0.035748295
38	0xbd352af9	-0.044230435
39	0xbd4bab82	-0.04972411
40	0x3cbbb97b	0.022915592
41	0x3c0830fc	0.00831246
42	0xbd5bf725	-0.053702492
43	0xbd3fd236	-0.046831332
44	0xbcaa4115	-0.020782987
45	0x3d7cadd1	0.0616892
46	0x3d241839	0.040062163
47	0x3d20d2e5	0.039263625
48	0x3b0bd083	0.0021334
49	0x3bf177b3	0.0073690056
50	0xbc914ec3	-0.017737752
51	0xbd8d3802	-0.06895448
52	0xbd71412a	-0.058900036
53	0xbb48e1c8	-0.0030652154
54	0x3c34eaa8	0.011042275
55	0xbb471acf	-0.003038097
56	0x3d6fbeef	0.058531698
57	0x3c2363f4	0.009972561
58	0x3d721c03	0.059108745
59	0x3aac3950	0.0013139639
60	0x3d58e20e	0.052949958
61	0x3c81f606	0.015864383
62	0xbc999c74	-0.01875136
63	0xbcf7011d	-0.030151898
64	0xbb96a568	-0.0045973547
65	0x3c83ed1b	0.016104272
66	0x3cb20bf2	0.021734212
67	0x3c32e5f3	0.010919082
68	0x3d016b9e	0.031596772
69	0x3d81015c	0.062990874
70	0x3c41acb0	0.011820957
71	0x3d644422	0.05572904
72	0x3d35c7c1	0.044379953
73	0xbd36c919	-0.044625375
74	0xbd35755d	-0.04430138
75	0xbd0fef45	-0.035140295
76	0x3c5e420c	0.0135655515
77	0x3d432071	0.04763836
78	0x3a3ef8e9	0.00072850153
79	0xbc922125	-0.01783807
80	0x3d283aab	0.041071575
81	0x3d82aa42	0.0638013
82	0x3b9a6fe4	0.0047130454
83	0xbcb34de2	-0.021887723
84	0xbc98de36	-0.018660646
85	0x3d5e89eb	0.054330748
86	0x3bbc2b5b	0.005742473
87	0x3d992ed5	0.074796356
88	0xbb998d2b	-0.004686018
89	0xbbc43802	-0.005988122
90	0x3c20103f	0.009769498
91	0x3bdd8401	0.006760121
92	0x3d5413f9	0.05177686
93	0x3db4c92b	0.08827432
94	0x3da103f0	0.07862079
95	0xbbc82cab	-0.0061088405
96	0x3d9c5fa2	0.07635428
97	0x3dafa1de	0.085757956
98	0x3da3f824	0.080063134
99	0x3bf1330a	0.0073608207
100	0x3d81a320	0.06329942
101	0xbcbd79ac	-0.023129307
102	0xbc844407	-0.01614572
103	0x3d6c30b8	0.05766365
104	0x3ce9fbbd	0.028562421
105	0x3d8d7d36	0.06908648
106	0x3ac52fd5	0.0015044162
107	0x3c8b5780	0.017009497
108	0x3cc8034f	0.02441564
109	0x3d46097a	0.04834888
110	0xbcd0752a	-0.025446493
111	0xbd280864	-0.041023627
112	0x3d5f41f9	0.054506276
113	0x3ca2756e	0.019831385
114	0xb9481f8a	-0.00019085236
115	0x3d3a5bfa	0.045497872
116	0x3d99195f	0.07475542
117	0x3d1cc60c	0.03827481
118	0x3dbc3f51	0.09191764
119	0x3dab8d7f	0.083765976
120	0x3daf9025	0.08572415
121	0x3ce4e838	0.027942762
122	0x3d485c55	0.04891618
123	0x3c881b9c	0.016614728
124	0x3cebca9c	0.028783135
125	0x3db38502	0.087656036
126	0x3d8def84	0.069304496
127	0x3d1bb258	0.03801188
128	0x3d9469d5	0.07246748
129	0x3d7e16ff	0.06203365
130	0x3c51fb59	0.012816274
131	0x39e4e256	0.00043656182
132	0x3da7b7e7	0.081893735
133	0x3dc19cfb	0.0945377
134	0x3ba8212d	0.005130908
135	0x3d868675	0.065686144
136	0x3b226d9b	0.0024784568
137	0x3d112fea	0.035446085
138	0x3d26a88a	0.040688075
139	0x3d5bcee7	0.053664114
140	0xbca8f444	-0.020624287
141	0x3a13e3b3	0.0005641535
142	0x3d24312b	0.040085953
143	0x3cf2179a	0.02955227
144	0x3db936fa	0.09043689
145	0x3d96628c	0.07343015
146	0x3c7799a2	0.0151123125
147	0x3d41bcbd	0.047299135
148	0xbcb06534	-0.021532632
149	0xbc8ce9e5	-0.017201373
150	0xbb749e73	-0.0037325888
151	0xbc453b39	-0.012038046
152	0x3d6eca4d	0.058298398
153	0x3d64cbe7	0.05585852
154	0x3d4ff504	0.050770774
155	0x3d76c71f	0.06024849
156	0x39c33295	0.00037230985
157	0xbaf0241a	-0.0018321306
158	0xbca750c7	-0.02042426
159	0xbd094377	-0.033511605
160	0xbd0689e4	-0.032846346
161	0x3d80139d	0.06253741
162	0x3d49d429	0.049274597
163	0x3c8783f3	0.01654241
164	0x3d13f1bd	0.03611921
165	0xbb3946c2	-0.0028270935
166	0xbc26ca4c	-0.010180067
167	0x3c78f570	0.015195236
168	0xbd253f28	-0.040343434
169	0x3d183ac7	0.03716543
170	0x3d227821	0.039665345
171	0x3d5a6a4e	0.053324036
172	0x3c7c207c	0.015388604
173	0x3d6091ca	0.054826535
174	0x3d98af08	0.074552596
175	0x3da16716	0.0788099
176	0x3c99c9b8	0.018772945
177	0xbb809f9c	-0.003925277
178	0xbd979cb5	-0.07402936
179	0xbcc174e8	-0.023615316
180	0x3d83abc5	0.06429247
181	0x3da05db0	0.078303695
182	0x3dc6e06a	0.09710772
183	0x3d648f41	0.05580068
184	0x3cdc3035	0.026878456
185	0x3d9d8688	0.076916754
186	0x3d818e9e	0.0632603
187	0x3b3c1e50	0.002870459
188	0xbc47ffa5	-0.0122069465
189	0xbd1b3592	-0.037892886
190	0xbbc68da5	-0.006059366
191	0x3ce295c6	0.027659308
192	0x3d9e3163	0.077242635
193	0x3dc18d3d	0.09450767
194	0x3d5d36b3	0.054007243
195	0x3dc633f0	0.09677875
196	0x3d8884dd	0.06665967
197	0x3d260e80	0.040541172
198	0xbd6d1768	-0.05788365
199	0xbd9765fe	-0.073925
200	0xbd3d7750	-0.046256363
201	0x3dd6354c	0.10459384
202	0x3e03b61d	0.1286244
203	0x3e04e0f0	0.12976432
204	0x3dad9fa3	0.08477714
205	0x3d014590	0.03156048
206	0x3da157c5	0.07878069
207	0x3cb98734	0.022647478
208	0x3ddfff96	0.10937421
209	0xbd8264c8	-0.06366879
210	0xbd2ae8c3	-0.041725885
211	0xbd6ba7a6	-0.05753293
212	0x3d96899e	0.07350467
213	0x3dee8ac3	0.116475604
214	0x3d39edd0	0.04539281
215	0x3de92da1	0.11385656
216	0x3dd47708	0.10374266
217	0x3d99e314	0.07514015
218	0x3dca8d81	0.09890271
219	0x3d38f5bf	0.045156237
220	0xbd948f81	-0.07253934
221	0xbca6c3f1	-0.020357104
222	0x3c301134	0.010746289
223	0x3c60c45f	0.0137186935
224	0xbc9183f7	-0.017763121
225	0x3db5f0fd	0.088838555
226	0x3d930f19	0.07180614
227	0x3cbf2f5f	0.023338018
228	0x3da30dcc	0.07961616
229	0xbc9629cb	-0.018330475
230	0xbc94503b	-0.018104663
231	0xbc6e7936	-0.014555266
232	0xbd85eccd	-0.06539307
233	0xbd523559	-0.051320408
234	0xbd2cb689	-0.042166267
235	0xbd9714b2	-0.07376994
236	0x3d137d68	0.03600827
237	0x3ad2a5e2	0.0016071165
238	0x3d2b2aaf	0.041788753
239	0xbd7a64f8	-0.061131448
240	0xbd236260	-0.03988874
241	0xbd4385a0	-0.047734857
242	0xbdc82e6f	-0.097744815
243	0xbd155fea	-0.036468424
244	0xbd822887	-0.06355386
245	0xbd6b5dea	-0.05746261
246	0xbd122599	-0.035680387
247	0xbc412b91	-0.011790172
248	0x3cb565e2	0.022143308
249	0xbc07d1b0	-0.0082897395
250	0xbd23daa0	-0.04000342
251	0x3c5f2ff0	0.013622269
252	0x3c8c5175	0.017128685
253	0xbdfc0baa	-0.12306912
254	0xbe06c8b8	-0.13162506
255	0xbd94f0a8	-0.07272464

conv2.bias f4 [5]
0	0x3d4e4a7f	0.050364014
1	0xbd5eb24b	-0.054369252
2	0x3d883332	0.0665039
3	0x3d401985	0.046899337
4	0x3d0ab756	0.03386625

fc1.weight f4 [128, 500]
0	0x3b5dde37	0.0033854374
1	0x3cb2215a	0.021744419
2	0xbd024c1c	-0.031810865
3	0x3a7597cb	0.0009368627
4	0xbd145a3b	-0.036218863
5	0xbca3c2c2	-0.019990329
6	0xbcc30dfa	-0.023810375
7	0xbd485f5d	-0.04891907
8	0xbcbf6eee	-0.023368325
9	0xbd32d6c0	-0.043661833
10	0x3c80d96d	0.015728677
11	0xbd3c95a5	-0.04604115
12	0xbd10505a	-0.03523288
13	0xbce6aeec	-0.028159581
14	0x3cc55c5a	0.024091888
15	0x3cef4b73	0.029210782
16	0xb9cc3dfd	-0.00038956097
17	0xbcbd439d	-0.02310353
18	0x3c351839	0.011053138
19	0x3b516993	0.0031953796
20	0xbd24c1f0	-0.040224016
21	0xbd0414fb	-0.03224657
22	0x3cdf9870	0.027294368
23	0xbc6b0fee	-0.01434706
24	0xbd242728	-0.040076405
25	0x3cfa9770	0.03058979
26	0x3c918029	0.017761307
27	0xbcdad94b	-0.026714941
28	0xbc766757	-0.015039287
29	0xbc92ef35	-0.017936328
30	0x3ce9da71	0.028546544
31	0xbd30b1d0	-0.043138325
32	0xbd32c7b4	-0.043647483
33	0xbc851c0c	-0.016248725
34	0xbc2ce111	-0.010551707
35	0x3c87ed95	0.01659278
36	0x3c1df825	0.009641682
37	0xbc2e546e	-0.010640247
38	0xbccae228	-0.024766043
39	0xbd0541f6	-0.03253361
40	0xbd176d85	-0.03696968
41	0x3ce28714	0.0276523
42	0x3d1187e9	0.035530005
43	0x3c4d2316	0.012520572
44	0xbd38599a	-0.045007326
45	0xbd39d092	-0.045364924
46	0x3cd1b9e8	0.025601342
47	0xbbd4b03b	-0.006490735
48	0xbc350901	-0.01104951
49	0x3c3675c6	0.011136478
50	0xbb78895d	-0.0037923672
51	0x3b320404	0.0027163038
52	0xbd1cdaef	-0.03829473
53	0xbcee45d7	-0.029086037
54	0xbbea5657	-0.007151406
55	0xbc6340e6	-0.013870453
56	0xbca4e664	-0.02012939
57	0xbc7a29ce	-0.015268756
58	0x3cc529bb	0.02406775
59	0xbb92dfcf	-0.0044822465
60	0xbd2b3f36	-0.04180833
61	0xbce89349	-0.028390544
62	0xbb9cc8c0	-0.0047846735
63	0x3d09754b	0.033559125
64	0x3cf90e05	0.030402193
65	0xbd13e458	-0.036106437
66	0x3c1dcfe7	0.009632087
67	0xbc636d21	-0.013880999
68	0xbc316c5b	-0.010829057
69	0xbd048a2f	-0.032358345
70	0x3b9d17ca	0.0047940956
71	0x3bb3dc65	0.0054889196
72	0xbca5d820	-0.020244658
73	0x3c187343	0.009304824
74	0xbc30e043	-0.010795656
75	0x3b128a36	0.0022360212
76	0xbd35b08a	-0.044357814
77	0x3b740ec7	0.0037240253
78	0xbc0c14e5	-0.0085499035
79	0x3c8948ea	0.016758401
80	0x3d144caf	0.036205944
81	0x3b64177b	0.0034804035
82	0x3c9ffd45	0.019529948
83	0x3cef9a59	0.029248403
84	0x3cdb36a8	0.02675946
85	0xbbc3d06f	-0.005975775
86	0xbd036ab3	-0.03208418
87	0x3c040d5b	0.008059825
88	0xbd47e99f	-0.048806783
89	0xbd0372eb	-0.032092016
90	0xbca22f97	-0.019798083
91	0xbd083a26	-0.03325858
92	0x3af89c7e	0.0018967537
93	0xbd367b07	-0.04455092
94	0x3c840f9e	0.016120728
95	0x3ca828c7	0.020527257
96	0xbcaf92e3	-0.021432346
97	0xbca62df9	-0.020285593
98	0x3cd5d4fe	0.02610254
99	0x3a891dcb	0.001046115
100	0xbd175ec5	-0.036955614
101	0xbd21e83a	-0.03952811
102	0x3d1c5fd5	0.03817733
103	0xbae9075b	-0.0017778681
104	0x3d2002a6	0.039065026
105	0x3a8806b6	0.0010377977
106	0x3d244e0e	0.0401135
107	0xbd03d230	-0.032182872
108	0x3d141e1d	0.03616153
109	0x3cfe9b0c	0.031079791
110	0x3a4d7ab1	0.0007838412
111	0x3c6ec562	0.014573427
112	0xbcb8b38a	-0.022546548
113	0xbd10a32c	-0.035311863
114	0x3cc214cb	0.023691555
115	0xbc9c26b9	-0.019061433
116	0xbc8382b3	-0.016053533
117	0x3cca1eb0	0.024672836
118	0xbc49648a	-0.012292037
119	0xbcd5586b	-0.026043138
120	0x3be958ee	0.007121197
121	0x3cc6946f	0.0242407
122	0x3c46d1f8	0.012135021
123	0xbbe2fcee	-0.006927124
124	0x3d0cc5ce	0.03436833
125	0xbd23c35f	-0.039981242
126	0x3d126548	0.03574112
127	0xbd2ac5b7	-0.04169246
128	0xbc3c46a9	-0.011491456
129	0x3caeb45c	0.021326236
130	0xbc0dcc8b	-0.008654724
131	0xbbe9a2ef	-0.007130019
132	0xbab17f91	-0.0013542046
133	0x3cdddf88	0.027084127
134	0xbd1dc587	-0.038518455
135	0xbd2b5ba4	-0.041835442
136	0x3cfb7553	0.030695593
137	0xbced1cfa	-0.028944481
138	0xbcb3e3cc	-0.021959208
139	0xbd04d55a	-0.03243003
140	0xbaeaa02c	-0.0017900518
141	0xbcbed4b0	-0.023294777
142	0x3d006394	0.031344965
143	0x3c625ca9	0.013816037
144	0x3d21b7de	0.03948199
145	0xbcfba7fb	-0.030719748
146	0x3b80198f	0.003909297
147	0xbce0d147	-0.027443541
148	0xbc2534b6	-0.010083368
149	0x3cdb94ef	0.026804416
150	0xbd13debb	-0.036101084
151	0x3d34c767	0.044135477
152	0x3d0103aa	0.031497635
153	0xbd0becab	-0.03416125
154	0x3d179f14	0.037016943
155	0x3cffded0	0.031234175
156	0xbc617286	-0.013760215
157	0x3bd3b9cf	0.006461359
158	0x3c961cfb	0.018324366
159	0xbd04260b	-0.032262843
160	0x3d1693f5	0.036762197
161	0xbd282134	-0.04104729
162	0xba84cdcb	-0.0010132132
163	0xbd16eb93	-0.036845755
164	0xbd21739a	-0.039416887
165	0x3d0dd97f	0.03463125
166	0xbd0d233e	-0.034457438
167	0x3cd29c4b	0.025709292
168	0x3c22bffe	0.00993347
169	0xbce9402a	-0.028472979
170	0x3cf73b39	0.030179607
171	0xbcae31e9	-0.021264033
172	0x3c4ce530	0.012505814
173	0x3c622058	0.013801657
174	0x3d01e425	0.031711716
175	0xbd423a03	-0.047418606
176	0x3bf3bd23	0.0074383183
177	0xba8e4884	-0.0010855352
178	0xbbf24a51	-0.007394113
179	0xbd207bc7	-0.039180543
180	0xbbcab8d6	-0.006186585
181	0x3d0f3951	0.03496677
182	0x3a2e22c5	0.00066427543
183	0xbd34376e	-0.043998174
184	0xbcbd568d	-0.02311256
185	0xbc8e169b	-0.017344764
186	0xbcf10a74	-0.02942393
187	0xbc6dd4ac	-0.014516037
188	0x3d16ef25	0.03684916
189	0x3d17e3b5	0.037082393
190	0xbc8cd5c2	-0.017191771
191	0xbcbf96cc	-0.023387335
192	0x3c9743cf	0.01846495
193	0x3cee3fd3	0.029083168
194	0x3c90d8b8	0.017681465
195	0xbc97e1f6	-0.018540364
196	0xbbd4a61e	-0.0064895293
197	0xbce1f2b3	-0.027581548
198	0x3b2494c4	0.0025113085
199	0xbce52aaf	-0.027974455
200	0xbcfb496f	-0.030674664
201	0xbc983df1	-0.018584223
202	0xbd1b5fda	-0.037933208
203	0xbc8ab94f	-0.016934065
204	0xbd1d28d4	-0.038369015
205	0xbca5d3b5	-0.020242551
206	0xbc89837c	-0.01678633
207	0x3ce9297b	0.028462162
208	0x3ca31186	0.019905817
209	0xbcae7b37	-0.021298988
210	0xbc475635	-0.012166549
211	0xbbc29f3a	-0.0059393914
212	0xbc30bd4e	-0.010787321
213	0xbc8cffd5	-0.017211834
214	0xbb72376d	-0.0036959306
215	0xbc427497	-0.0118686175
216	0x3cd883cb	0.026430031
217	0xbc479c81	-0.0121833095
218	0xbd49e30f	-0.049288806
219	0x3d1afa7b	0.037836533
220	0xbcc83042	-0.024437074
221	0x3c8b5a7a	0.017010916
222	0x3bee26d1	0.007267811
223	0x3ce330af	0.027733175
224	0xbce6f08d	-0.028190875
225	0x3c96eeee	0.018424477
226	0xbcdcf302	-0.026971344
227	0xbceeef34	-0.029166795
228	0xbd3437da	-0.043998577
229	0xbce4fb83	-0.027951961
230	0xbd35f6fb	-0.044424992
231	0xbd15a75f	-0.03653657
232	0xbbb466e9	-0.005505432
233	0x3d0c58e4	0.03426446
234	0x3aaaa022	0.0013017694
235	0x3c409450	0.01175411
236	0x3d16bb9e	0.03680002
237	0xbd150139	-0.03637812
238	0xbd304aef	-0.043040212
239	0xbaacdc8e	-0.0013188289
240	0xbcd70b9a	-0.02625065
241	0x3c86a9a5	0.016438315
242	0xbd492b29	-0.049113426
243	0x38b3b4ee	8.569086e-05
244	0x3c909cc8	0.017652884
245	0xbd42ba6f	-0.04754108
246	0xbd126f3b	-0.03575061
247	0x3c29a147	0.010353393
248	0xbc8c7b42	-0.017148618
249	0xbb63963b	-0.0034726996
250	0x3c5e57ce	0.013570739
251	0xbcaed25f	-0.021340547
252	0x3bd14a5e	0.006387039
253	0xbce49db6	-0.027907234
254	0xbcf9a3cb	-0.03047361
255	0xbc5c6cc3	-0.013453665

fc1.bias f4 [128]
0	0xbc1d99ba	-0.009619171
1	0x3c463826	0.012098348
2	0x3d068a7c	0.032846913
3	0xbce73775	-0.028224686
4	0xbc2547d5	-0.010087927
5	0x3c45d186	0.01207388
6	0xbc07911c	-0.008274343
7	0xbc9c5bfa	-0.019086827
8	0xbc7857eb	-0.01515768
9	0x3d50d78a	0.050986804
10	0x3d754421	0.059879426
11	0x3d1683aa	0.03674666
12	0x3c20dd1a	0.00981834
13	0x3d6806dc	0.056647167
14	0xbc4503ce	-0.012024833
15	0x3d1e598e	0.038659625
16	0x3cf4ce9c	0.029883675
17	0xbc08bf96	-0.008346459
18	0xbbb71e1b	-0.0055883056
19	0x3d0edaab	0.034876507
20	0x3c136f35	0.008998682
21	0xbd43c5eb	-0.04779617
22	0x3d14935f	0.036273357
23	0x3c41a22f	0.011818453
24	0x3a4f2341	0.00079016766
25	0x3d087edc	0.033324108
26	0x3cda6d56	0.026663464
27	0x3cafd3d0	0.021463305
28	0x3d19a20a	0.037508048
29	0x3d1410a1	0.03614867
30	0xbce42637	-0.027850254
31	0x3d49f348	0.049304277
32	0x3d16c06c	0.0368046
33	0xbc9fbe13	-0.019499814
34	0x3d0ef4d0	0.03490144
35	0xbba4f343	-0.005033882
36	0x3d002266	0.031282805
37	0xbd058398	-0.0325962
38	0xbd447eff	-0.047972675
39	0xb97f6c23	-0.00024358979
40	0x3d4c9e01	0.04995537
41	0xbc3ad502	-0.011403324
42	0xbd3e7d82	-0.046506412
43	0x3d2214ef	0.039570745
44	0xbbdb4542	-0.006691606
45	0x3b90b921	0.0044166003
46	0xbc0c3eec	-0.008559924
47	0x3bd6ef54	0.006559292
48	0x3da02578	0.078196466
49	0xbc92682a	-0.017871935
50	0xbd0170ea	-0.031601824
51	0x3d05fa2a	0.03270928
52	0xbd2b572c	-0.04183118
53	0x3c335399	0.010945224
54	0x3c9069b6	0.017628532
55	0xbb18609c	-0.0023250943
56	0xbc31c11d	-0.010849264
57	0xbd3478ef	-0.044060644
58	0xbd117da4	-0.03552021
59	0x3d65a029	0.056060944
60	0x3c4eb031	0.0126152495
61	0xbb5d0a20	-0.0033727959
62	0xbce613ec	-0.028085671
63	0xbb828bae	-0.0039839363
64	0xbc9d9851	-0.01923767
65	0xb9c13ac2	-0.00036855607
66	0xbbbf530f	-0.005838759
67	0x3d39ae20	0.045332074
68	0xbd38515c	-0.044999465
69	0x3c46b498	0.012128018
70	0x3b7cf612	0.0038598818
71	0x3ce7ac76	0.028280478
72	0x3cdbe8b5	0.026844362
73	0x3d28a22e	0.04117029
74	0x3be4e888	0.0069857277
75	0xbcc3d0b1	-0.023903223
76	0x3d481130	0.048844516
77	0x3d990fe0	0.07473731
78	0x3d090eee	0.033461504
79	0xbd42adad	-0.04752891
80	0xbc629f98	-0.013831995
81	0x3cd40f96	0.025886338
82	0x3d3df2e8	0.04637423
83	0xbca1fe06	-0.019774448
84	0x3d081f62	0.033233054
85	0xbcaeb0b0	-0.021324486
86	0xbd36d64c	-0.044637963
87	0xbc3b9cf5	-0.011450996
88	0x3d1e6eda	0.038679935
89	0x3d573087	0.052536514
90	0x3d3e7cad	0.04650562
91	0x3d62aeff	0.05534267
92	0x39736e0c	0.00023215282
93	0x3d30416b	0.043031137
94	0xbb1cecf7	-0.0023944953
95	0xb97e7e57	-0.00024270393
96	0xbc2ddcad	-0.010611695
97	0xbd190a27	-0.037363198
98	0x3af47a17	0.0018652108
99	0xbc4c6d7a	-0.012477273
100	0x3c2705f1	0.010194288
101	0xbd08ff89	-0.033446822
102	0xbd1a157b	-0.03761814
103	0x3cd90bd5	0.0264949
104	0x3c8a72c4	0.016900428
105	0x3bb05f92	0.0053824866
106	0x3c0b4db2	0.008502411
107	0xbce12c03	-0.027486807
108	0x3d20cf23	0.03926004
109	0xb9e40d8f	-0.0004349765
110	0x3bac5f78	0.005260404
111	0x3ca00002	0.019531254
112	0x3cf424d9	0.029802727
113	0x3c82462e	0.015902605
114	0xbbca7974	-0.006179029
115	0xbd57237a	-0.052524067
116	0xbc0eb4ee	-0.008710129
117	0x3bc598b1	0.006030165
118	0xbc8a1403	-0.016855245
119	0xbcc8be2b	-0.024504742
120	0xbcb5bb3e	-0.02218401
121	0xbbd3aba1	-0.0064596687
122	0xbd40378a	-0.046927966
123	0x3cb46f43	0.02202571
124	0x3cdc2b11	0.026876004
125	0xbd061752	-0.032737084
126	0xbce8d20c	-0.02842047
127	0xbd072034	-0.032989696

fc2.weight f4 [10, 128]
0	0xbc1638be	-0.009168802
1	0x39e6bbc1	0.00044008906
2	0xbd48021e	-0.048830144
3	0xbcdc4150	-0.026886612
4	0xbda23c8d	-0.079217054
5	0xbde59434	-0.11209908
6	0xbd61f8fe	-0.055169098
7	0xbdb3f9fc	-0.08787915
8	0xbdb439fa	-0.08800121
9	0xbb2092ea	-0.002450163
10	0xbd07bfd4	-0.033141926
11	0x3d8134c0	0.063088894
12	0xbd74a36e	-0.05972617
13	0x3da1ac54	0.07894197
14	0xbd40f742	-0.047110803
15	0x3da3b668	0.079937756
16	0x3af32b41	0.0018552319
17	0xbdb8161d	-0.08988593
18	0xbd4bda97	-0.04976901
19	0xbdccb86b	-0.099961124
20	0xbcc96a6c	-0.024586879
21	0xbc94b546	-0.018152844
22	0xbd8659b1	-0.06560076
23	0xbd8c5fe6	-0.06854229
24	0x3ce7c154	0.028290428
25	0xbd385813	-0.04500587
26	0xbdd91974	-0.10600558
27	0xbe0bb9fe	-0.13645169
28	0xbd097a7b	-0.033564072
29	0xbc1a93b7	-0.009434632
30	0x3d69857a	0.05701206
31	0xbd0f12b1	-0.034929935
32	0x3a89377f	0.001046881
33	0xbc22e93e	-0.009943305
34	0xbd6028d1	-0.054726426
35	0xbe1d1913	-0.15341596
36	0x3cbd1ff1	0.02308652
37	0x3d9a418e	0.07532035
38	0xbd813cb7	-0.063104086
39	0xbd9ec56e	-0.077525005
40	0x3de6616b	0.1124905
41	0x3d466d0f	0.04844385
42	0x3d5479de	0.051874034
43	0xbda73b1e	-0.081655726
44	0xbd5f137e	-0.05446195
45	0x3dbe1870	0.09282005
46	0x3d0d9ffc	0.0345764
47	0x3dea2fd4	0.11434904
48	0x3dbba208	0.091617644
49	0xbda5b2c3	-0.08090737
50	0x3d7a21b7	0.06106731
51	0x3d16d2f3	0.03682227
52	0xbd894bcb	-0.067039095
53	0x3c8316f6	0.01600216
54	0x3d745b1b	0.059657197
55	0xbdb0437a	-0.0860662
56	0x3dadb1be	0.08481167
57	0xbc3cdbed	-0.011527044
58	0xbd9d6ead	-0.07687125
59	0x3d88321c	0.066501826
60	0x3d456f78	0.048202008
61	0xbd2dc719	-0.042426202
62	0x3d35fe6b	0.044432085
63	0x3ce3ebb2	0.02782235
64	0xbd304423	-0.04303373
65	0x3d9a2908	0.07527357
66	0xbd93cc7a	-0.07216735
67	0x3c8cacfb	0.017172327
68	0x3d254945	0.04035308
69	0x3d9b17e5	0.07572917
70	0xbd540548	-0.05176285
71	0xbde8eab6	-0.113728926
72	0x3c8e9cd1	0.01740876
73	0xbcc827bb	-0.024433007
74	0xbb16fdba	-0.0023039416
75	0xbd43a808	-0.04776767
76	0x3daea2a9	0.08527119
77	0xbdc0efb8	-0.09420723
78	0x3d03a186	0.032136463
79	0xbcf4a897	-0.029865546
80	0x3d9b0339	0.07568974
81	0xbdb1c643	-0.086803935
82	0xbd82fe9d	-0.0639622
83	0xbe1907e8	-0.14944422
84	0x3d884345	0.06653456
85	0xbdc716a5	-0.09721116
86	0x3c9f1a1c	0.01942163
87	0x3d8b5a26	0.06804304
88	0x3d58e622	0.052953847
89	0xbe24bd55	-0.1608785
90	0x3e2a6ee9	0.16643871
91	0xbe06c079	-0.1315936
92	0x3cb3b2c4	0.021935828
93	0xbe15dac0	-0.14634228
94	0x3d628888	0.055305988
95	0x3d927a94	0.07152286
96	0xbdb0802d	-0.086181976
97	0x3ceeab40	0.029134393
98	0xbd43151c	-0.047627553
99	0xbb7e0f05	-0.0038766277
100	0x3d8be942	0.068316
101	0xbd25e999	-0.04050598
102	0x3db0d283	0.08633902
103	0x3d4a6f69	0.049422655
104	0xbda00514	-0.078134686
105	0xbd8a4d0a	-0.06752975
106	0xbce0d895	-0.027447024
107	0xbd54b555	-0.051930744
108	0x3d8aa361	0.06769443
109	0x3d57dd3f	0.05270123
110	0xbe1f571d	-0.15560575
111	0xbdaa2b72	-0.08309068
112	0x3da69544	0.08133939
113	0x3cfeff94	0.031127729
114	0x3b0720ae	0.0020618844
115	0x3cba4c85	0.022741565
116	0x3dd0d10c	0.101961225
117	0x3da379c9	0.07982213
118	0xbe1a84f2	-0.15089777
119	0xbcd7cbbc	-0.026342265
120	0x3d321f8a	0.04348711
121	0x3dcb472c	0.09925684
122	0x3d8cb074	0.06869593
123	0x3c32f7be	0.010923324
124	0x3d7d0204	0.0617695
125	0x3dc0814a	0.0939966
126	0xbd918dba	-0.0710711
127	0x3cd20dd8	0.025641367
128	0x3cf83c73	0.030302262
129	0xbdff4c76	-0.12465756
130	0x3db9cd08	0.0907231
131	0xbde116f5	-0.10990707
132	0x3d2d14a8	0.042256027
133	0x3d2e343b	0.04253028
134	0xbaa28aeb	-0.001240102
135	0x3bf63125	0.0075131827
136	0x3d7fd9f8	0.06246373
137	0x3bc9bd6a	0.006156613
138	0xbdca9423	-0.09891536
139	0x3a9890dc	0.0011639851
140	0x3da22170	0.07916534
141	0x3d8ecc8f	0.0697261
142	0x3dddbafb	0.10826679
143	0x3d9ed24a	0.07754953
144	0xbda1db18	-0.07903117
145	0x3d428e02	0.04749871
146	0xbd957d7e	-0.07299326
147	0xba1af997	-0.00059118256
148	0xbdea39be	-0.11436795
149	0xbd9f8ccb	-0.07790526
150	0x3d967c69	0.07347948
151	0xbd392c6d	-0.045208383
152	0xbdc11c54	-0.09429231
153	0xbd1b222d	-0.03787439
154	0x3db92f4c	0.09042224
155	0x3da8af0f	0.08236515
156	0xbd2a9d94	-0.041654184
157	0x3bb72b18	0.005589854
158	0xbc629011	-0.013828293
159	0xbe007f33	-0.12548523
160	0x3d9adfd4	0.07562223
161	0xbccd07d3	-0.025028145
162	0x3d14a85e	0.03629338
163	0xbae2cb86	-0.0017303086
164	0xbd08a155	-0.033356983
165	0xbdd07970	-0.10179412
166	0xbc5b6034	-0.013389636
167	0x3deb153d	0.1147866
168	0xbcbbec67	-0.022939874
169	0x3d991ddd	0.07476399
170	0x3d25aa4a	0.040445603
171	0x3d4abadb	0.049494606
172	0x3cfb6f22	0.03069264
173	0x3d84738b	0.064673506
174	0xbd96646f	-0.07343375
175	0xbdd4fa8c	-0.103993505
176	0xbcd1d2b1	-0.02561316
177	0xbd67879f	-0.056525823
178	0xbcf657f9	-0.030071246
179	0xbdd373ec	-0.10324845
180	0xbc9d6db2	-0.019217346
181	0x3cb3fe20	0.021971762
182	0xbdbe49c3	-0.09291413
183	0xbbb787fc	-0.0056009274
184	0x3c368cc3	0.011141959
185	0xbc1d1af1	-0.009588943
186	0x3d3980aa	0.04528872
187	0x3da6ba6b	0.08141025
188	0xbd804738	-0.06263584
189	0x3dbecabf	0.093160145
190	0xbd3d95da	-0.046285488
191	0xbde13f52	-0.109984055
192	0xbd8e3e32	-0.069454566
193	0xbdb74306	-0.089483306
194	0x3d6a6820	0.057228208
195	0x3d9b9ae1	0.075979
196	0x3c831a5a	0.016003776
197	0xbd10380a	-0.035209693
198	0xbd960b6d	-0.07326398
199	0xbc6bf5d8	-0.014401875
200	0xbd219d88	-0.039456874
201	0xbd77663f	-0.060400244
202	0xbd70dfea	-0.05880729
203	0xbe048de0	-0.12944746
204	0xbd8718d8	-0.065965354
205	0xbdc0a8e0	-0.0940721
206	0xbd963c72	-0.07335748
207	0x3d44008e	0.04785209
208	0xbd91846c	-0.071053356
209	0xbdb121a5	-0.08648995
210	0x3db804b6	0.089852735
211	0x3c288a19	0.010286831
212	0x3d1f2855	0.038856823
213	0xbbf781b0	-0.0075533018
214	0x3d6bcbdc	0.057567462
215	0xbd24cf0a	-0.04023651
216	0x3d241f2e	0.040068798
217	0xbd6ce84d	-0.057838727
218	0x3d1a9b34	0.03774567
219	0xbdba1f50	-0.09088004
220	0x3d00c082	0.03143359
221	0xbd87f8e1	-0.06639267
222	0xbd4352cb	-0.04768638
223	0x3d4f854c	0.05066423
224	0x3e104a2d	0.14090796
225	0xbcf5b1d5	-0.029992023
226	0x3cc2d90c	0.023785137
227	0x3dbdbb20	0.09264207
228	0x3db678c6	0.089097545
229	0x3caca78a	0.021075983
230	0xbbda1b88	-0.006656114
231	0xbd9e90ea	-0.07742484
232	0x3d058600	0.032598495
233	0xbdc58230	-0.09643972
234	0x3d944b91	0.07240976
235	0x3d7c186b	0.061546724
236	0xbd8d394c	-0.06895694
237	0x3d8d95ae	0.06913315
238	0x3d8bc628	0.06824905
239	0x3b666a82	0.0035158698
240	0xbda08dc2	-0.07839538
241	0x3de00aa1	0.10939527
242	0xbd85c8b2	-0.0653242
243	0xbd6c99c0	-0.057763815
244	0xbd80d750	-0.062910676
245	0xbdcf1420	-0.101112604
246	0xbd79f314	-0.061022833
247	0xbe0e7b38	-0.13914192
248	0xbd82e273	-0.06390848
249	0x3e076b72	0.13224581
250	0x3d86d4da	0.06583567
251	0xbdd442d5	-0.1036431
252	0xbdcc397c	-0.09971902
253	0xbca36b63	-0.019948667
254	0xbdad670c	-0.0846692
255	0xbd82f370	-0.06394088

fc2.bias f4 [10]
0	0xbcba1d36	-0.022719007
1	0xba5e8218	-0.00084880134
2	0xbd574a8d	-0.05256133
3	0x3b999f28	0.0046881624
4	0x3cf028f9	0.029316412
5	0xbd8775d0	-0.06614268
6	0xbd2db2db	-0.042406898
7	0xbd454891	-0.048164908
8	0x3d8a1610	0.06742489
9	0xbd31cd79	-0.043408845
