Experiment/benchmark/cnn_medium/onnx/simple_cnn_3x7_5x9.onnx (onnx, 514094 bytes, 8 tensors)

conv1.weight f4 [3, 1, 7, 7]
0	0xbdebcb9b	-0.11513444
1	0x3cba2481	0.022722485
2	0x3ddab5ea	0.106792286
3	0x3d83d150	0.064364076
4	0xbc4905c0	-0.012269437
5	0x3d21c149	0.03949097
6	0x3d43a2b7	0.0477626
7	0xbd5447b6	-0.0518262
8	0xbdf2ba93	-0.118519925
9	0x3d966e46	0.07345252
10	0xbcc81b1f	-0.024426995
11	0xbcb8b8d4	-0.02254907
12	0x3dc1badb	0.09459468
13	0x3e2df06c	0.16986245
14	0xbd7acc24	-0.06122984
15	0xbe67ad3a	-0.22624674
16	0xbdbb2006	-0.09136967
17	0x3d5d0da1	0.053968076
18	0x3cdba5e2	0.026812498
19	0xbc8cf6f4	-0.0172076
20	0x3c1e0be6	0.0096463915
21	0xbe380e44	-0.17974192
22	0xbca72c33	-0.020406818
23	0xbe098896	-0.1343101
24	0x3e1ed721	0.15511753
25	0x3e141b09	0.14463438
26	0x3e3ccc85	0.18437393
27	0x3de2e066	0.11077957
28	0xbe54b791	-0.2077315
29	0xbdad3269	-0.084568806
30	0x3c98c720	0.018649638
31	0x3e2ae786	0.16689882
32	0x3e3bafd7	0.18328796
33	0x3d0217f9	0.031761143
34	0x3dc5eb21	0.09663988
35	0xbda6b7ca	-0.08140524
36	0xbddadf93	-0.10687175
37	0xbc934ebd	-0.017981881
38	0x3e56f582	0.20992091
39	0x3dc4bf60	0.096068144
40	0xbd8a2895	-0.06746022
41	0xbdc33bdd	-0.095329024
42	0xbda24e33	-0.079250716
43	0xbd59a6d4	-0.053137615
44	0x3e5717cf	0.21005176
45	0x3d3e8e07	0.046522167
46	0x3e24b26e	0.1608369
47	0xbd8f0614	-0.06983581
48	0xbd973778	-0.07383627
49	0x3e4dea65	0.20108946
50	0x3e59f9ab	0.21286647
51	0x3d8826a8	0.06647998
52	0x3d4bb900	0.049736977
53	0x3e120d18	0.14262807
54	0xbd4111a5	-0.047135968
55	0x3c1d94c3	0.009617987
56	0x3e54af25	0.20769937
57	0x3e559984	0.20859343
58	0x3e0c02c7	0.13672934
59	0x3dfafc67	0.12255173
60	0x3e0da878	0.13833797
61	0xbda84734	-0.08216706
62	0xbd3c1271	-0.045916025
63	0xbd874885	-0.06605629
64	0x3c9fcf38	0.01950799
65	0x3d4f24eb	0.050572317
66	0x3e0a0886	0.13479814
67	0x3ca7e808	0.020496383
68	0x3c69437f	0.014237284
69	0xbe18bdb1	-0.14916112
70	0x3d793df6	0.060850106
71	0x3d9d28cf	0.07673799
72	0xbde24f01	-0.11050225
73	0x3d84e777	0.06489461
74	0x3dc499fe	0.09599684
75	0x3bb42ad4	0.0054982696
76	0x3d0b58b1	0.03402013
77	0x3d2def20	0.042464375
78	0xbe0150c7	-0.1262847
79	0xbdf4dcb8	-0.11956161
80	0xbd8f547d	-0.06998537
81	0x3cb5731e	0.022149619
82	0xbc7edf39	-0.01555615
83	0xbdf3f644	-0.11912206
84	0x3dc804bf	0.0976653
85	0x3d83bbf3	0.06432333
86	0x3e0e7e00	0.13915253
87	0xbb007854	-0.001960297
88	0x3d8dcc82	0.069237724
89	0xbc119e57	-0.008887849
90	0xbda0376a	-0.078230694
91	0xbd9bcac7	-0.07607036
92	0x3db3ffb0	0.08789003
93	0x3d927f1f	0.07153153
94	0xbdf0a4fe	-0.1175022
95	0x3dcdbf1e	0.10046218
96	0xbe0d2ed8	-0.137874
97	0xbc36442c	-0.011124652
98	0xbdbc87a7	-0.09205561
99	0xbda172e7	-0.07883244
100	0x3daf08a0	0.08546567
101	0x3da8a00e	0.08233653
102	0x3c6c8e68	0.014438249
103	0xbd97367b	-0.07383438
104	0x3dbc3fa4	0.09191826
105	0xbe36e694	-0.17861396
106	0x3cbb4fae	0.022865143
107	0x3c41aa89	0.011820444
108	0xbd2fe9b4	-0.042947486
109	0x3da23a4b	0.07921275
110	0x3c001783	0.007818106
111	0x3d437958	0.047723144
112	0xbdc8ec0d	-0.09810648
113	0xbdc87159	-0.09787244
114	0x3dabbd9d	0.08385775
115	0xbd7a47b1	-0.061103527
116	0x3e2457bb	0.16049092
117	0x3dc34009	0.09533698
118	0x3c6d59bb	0.014486725
119	0x3e329f98	0.17443693
120	0x3e1b70cc	0.15179747
121	0x3d121846	0.03566768
122	0x3dc4e574	0.09614077
123	0x3da2a7bf	0.07942151
124	0x3e05ba78	0.13059413
125	0x3d2df842	0.042473085
126	0x3da4ec1e	0.08052848
127	0x3e355b94	0.17710716
128	0x3e1f038d	0.15528698
129	0x3e331e22	0.17491964
130	0x3d6d3255	0.05790933
131	0x3d00d644	0.03145434
132	0x3debe8e3	0.11519029
133	0x3da55859	0.080734916
134	0x3d07489e	0.033028238
135	0x3da35d9c	0.07976839
136	0xbd2a6107	-0.04159644
137	0x3e3e7ad3	0.18601541
138	0x3dabec91	0.08394731
139	0xbd91a69e	-0.07111858
140	0xbd96fd1b	-0.07372495
141	0x3e054c18	0.13017309
142	0x3e037202	0.1283646
143	0x3c3b7095	0.011440416
144	0x3dffebf6	0.12496178
145	0x3d9d3a0a	0.07677086
146	0x3d47e6f8	0.048804253

conv1.bias f4 [3]
0	0xbd4d67b4	-0.050147727
1	0x3d617aea	0.05504886
2	0x39939260	0.00028147083

conv2.weight f4 [5, 3, 9, 9]
0	0xbd6f6faa	-0.0584561
1	0xbcd775f2	-0.026301358
2	0xbdc6ebb5	-0.09712926
3	0xbcd09c2c	-0.025465094
4	0xbd9e5ef0	-0.07732952
5	0xbd870223	-0.065922044
6	0xbd69388a	-0.056938685
7	0xbd84174d	-0.06449757
8	0x3c113e1f	0.0088649085
9	0xbe043b20	-0.1291318
10	0xbcac5cbc	-0.021040313
11	0xbdb08844	-0.086197406
12	0xbd18a1a2	-0.03726352
13	0xbd38307d	-0.044968117
14	0xbcf4974e	-0.029857304
15	0xbbe4d0a9	-0.006982882
16	0x3d996544	0.07490018
17	0x3db70ebc	0.08938357
18	0x3b9ad592	0.0047251666
19	0xbd32f628	-0.043691784
20	0xbd8a6362	-0.06757237
21	0xbd4722c8	-0.048617154
22	0x3d7efc9c	0.062252626
23	0x3d420145	0.047364492
24	0x3df6eccd	0.12056885
25	0x3d4a1f84	0.049346462
26	0x3c498c32	0.012301492
27	0xbd55f588	-0.05223611
28	0x3d04a789	0.032386336
29	0x3d0ef1f8	0.034898728
30	0x3d2e65e3	0.042577635
31	0x3d0eb28b	0.03483824
32	0x3dfabc31	0.12242926
33	0x3dc8633f	0.09784555
34	0x3ce01f55	0.02735869
35	0x3dd92235	0.106022276
36	0xbd246b2b	-0.040141266
37	0xbd80d212	-0.06290068
38	0xbd2f38cd	-0.04277878
39	0x3db45251	0.08804763
40	0x3dddbde0	0.108272314
41	0x3d489479	0.04896972
42	0x3d2eb73a	0.042655207
43	0x3d442278	0.047884434
44	0x3b8cf320	0.0043014437
45	0x3cae1428	0.021249846
46	0xbd2415ec	-0.04005997
47	0xbc44447b	-0.011979218
48	0xbcc73b2b	-0.024320206
49	0x3d43dec1	0.047819857
50	0x3af7bb93	0.0018900506
51	0x3da357fb	0.07975765
52	0x3d86c05f	0.065796606
53	0x3d2c4ffb	0.042068463
54	0x3a6a64b4	0.00089413975
55	0xbd3ec22a	-0.046571888
56	0xbd63c603	-0.05560876
57	0xbce86200	-0.028367043
58	0xbd77dce9	-0.06051341
59	0xbcb8baf2	-0.02255008
60	0x3d932111	0.07184041
61	0x3dea8f0f	0.114530675
62	0x3dbba1d3	0.09161725
63	0x3d4852c2	0.04890705
64	0xbd46e419	-0.048557375
65	0xbd646fc8	-0.055770665
66	0xbdda1754	-0.10648981
67	0xbd4d87ed	-0.050178457
68	0xbc84ce90	-0.016211778
69	0x3c9c65b8	0.019091472
70	0x3c85c71d	0.016330296
71	0xbc95e307	-0.018296732
72	0xbd70efe8	-0.058822542
73	0xbcb8b5a4	-0.02254755
74	0xbdf41267	-0.119175725
75	0xbd854dd1	-0.06508983
76	0x3c46e15a	0.012138689
77	0x3d10ac0d	0.03532033
78	0xbd1974be	-0.03746485
79	0x3a221786	0.0006183315
80	0x3d0649ed	0.032785345
81	0x3d515b0e	0.051112227
82	0x3d997992	0.07493891
83	0x3d565b33	0.052333068
84	0x3d6356cd	0.0555027
85	0x3e0f7d5b	0.14012663
86	0x3d9d437e	0.07678889
87	0x3dd5aea4	0.10433701
88	0x3ccbcff2	0.02487943
89	0x3ddd2f44	0.10800031
90	0x3dad0de0	0.08449912
91	0x3dd214b6	0.102578565
92	0x3ddd7394	0.108130604
93	0x3d4fe31d	0.0507537
94	0x3dfe1728	0.124067605
95	0x3db67cec	0.08910546
96	0x3de3de25	0.11126355
97	0x3df74fff	0.12075805
98	0x3db03941	0.0860467
99	0xbd651fe0	-0.0559386
100	0x3d02673b	0.03183673
101	0x3d4c5f55	0.049895603
102	0x3db5f2f1	0.08884228
103	0x3c427220	0.01186803
104	0x3d047f36	0.03234788
105	0x3da14de4	0.078761846
106	0x3c6f9722	0.014623435
107	0x3d643aaa	0.05572001
108	0xbd3338c0	-0.043755293
109	0xbdc295bf	-0.09501218
110	0xbdaf7d91	-0.08568872
111	0xbd4b7bf2	-0.04967875
112	0xbbcd20d9	-0.0062600193
113	0x3d779ed1	0.060454194
114	0xbcad84f9	-0.02118157
115	0xbd96a097	-0.07354849
116	0xbd85fd49	-0.06542451
117	0xbb8b2370	-0.004246168
118	0xbdf0c001	-0.11755372
119	0xbdbf20ec	-0.09332451
120	0xbd169f4c	-0.03677301
121	0xbd099e0e	-0.033598
122	0xbc6e1d6a	-0.01453338
123	0x3c8431d9	0.01613705
124	0x3d212d6f	0.03934997
125	0xbd09b478	-0.033619374
126	0xbdcce24d	-0.10004101
127	0x3b4111a9	0.002945999
128	0x3c0dc774	0.00865351
129	0xbd2bac64	-0.04191245
130	0xbd9f13a0	-0.07767415
131	0x3d357d1e	0.044308774
132	0x3d2e1ce7	0.042508032
133	0xbd316ed7	-0.043318596
134	0xbd83f3ca	-0.064429834
135	0xbd87d89f	-0.06633114
136	0xbd1f95fb	-0.038961392
137	0xbcb84872	-0.022495482
138	0x3b056140	0.0020352155
139	0xbc4ee264	-0.012627218
140	0x3d1dff8e	0.038573794
141	0x3da3827c	0.07983872
142	0x3d786ab5	0.06064864
143	0x3cda524b	0.026650568
144	0x3d742e1e	0.059614293
145	0xbd111342	-0.035418756
146	0xbcd99c17	-0.026563687
147	0x3d85c2b3	0.065312766
148	0x3dc4bfee	0.0960692
149	0xbc65ceb7	-0.014026335
150	0x3dc7d3bf	0.09757184
151	0x3c9b39e5	0.018948505
152	0x39ecf652	0.0004519695
153	0xbce25235	-0.02762709
154	0x3b709015	0.0036706973
155	0x3d2a3aff	0.04156017
156	0xbb446e31	-0.0029972906
157	0x3db80f56	0.089873
158	0x3d88af77	0.06674092
159	0x3cf3f285	0.029778728
160	0xbce0d50d	-0.02744534
161	0xbd6a591b	-0.057213884
162	0xbd8b1593	-0.06791224
163	0xbd0a324e	-0.03373938
164	0xbd176cf2	-0.036969133
165	0xbd70174c	-0.058615968
166	0xbd3797fd	-0.04482268
167	0xbdfeaf78	-0.12435812
168	0xbe0f731f	-0.14008759
169	0xbde0bb48	-0.10973221
170	0xbdcba9ed	-0.0994452
171	0x3c1ae0d1	0.0094530145
172	0x3c69b9bb	0.014265473
173	0xbc902d2f	-0.01759967
174	0xbdb61429	-0.08890564
175	0xbd72e43d	-0.059299696
176	0xbddfdfaf	-0.10931336
177	0xbdaae773	-0.08344927
178	0xbdaeca19	-0.08534641
179	0xbd900b85	-0.07033447
180	0x3c321c91	0.010871069
181	0x3cc8632c	0.024461351
182	0xbd18c079	-0.03729293
183	0x3cb515d3	0.022105133
184	0xbd3357cc	-0.0437849
185	0xbd75495f	-0.059884425
186	0x3c521a22	0.012823613
187	0x3c989332	0.018624876
188	0xbc086810	-0.008325592
189	0xbb9502ee	-0.0045474684
190	0xbd692dc5	-0.056928415
191	0xbc64ec14	-0.013972301
192	0xbc237c96	-0.009978434
193	0x3d5b926f	0.053606447
194	0xbcace0f9	-0.02110337
195	0xbcbe5ca0	-0.023237526
196	0x3d7cdbb4	0.061732963
197	0xbcbbc452	-0.022920761
198	0xbc9de8ff	-0.01927614
199	0x3d69ecaa	0.057110466
200	0x3cad03f4	0.021120049
201	0x3d091ee8	0.03347674
202	0x3d913386	0.070899054
203	0x3d303ab7	0.043024745
204	0x3d9ba3db	0.07599612
205	0x3c814e2c	0.015784346
206	0xbd5f8d8b	-0.054578345
207	0xbc089696	-0.008336684
208	0x3ca4eaf9	0.020131575
209	0x3c51d252	0.012806492
210	0x3db675d8	0.08909196
211	0x3dc500bc	0.09619281
212	0xbcd30eda	-0.025763918
213	0xbcbd908e	-0.023140218
214	0x3d44fa60	0.04809034
215	0x3ca48c34	0.020086385
216	0xbc9183f9	-0.017763125
217	0x3d94aa3d	0.07259033
218	0x3cefc2da	0.029267717
219	0xbad0d0b3	-0.0015931338
220	0x3da62c47	0.08113914
221	0x3d59bc83	0.053158294
222	0xbd52c048	-0.051452905
223	0xbc8fd059	-0.017555403
224	0x3bcdf1c4	0.006284924
225	0xbd143f91	-0.036193434
226	0x3d39619e	0.04525911
227	0x3d5eaed8	0.054365963
228	0xbd341691	-0.043966834
229	0xbd286213	-0.041109156
230	0x3d75f48b	0.060047667
231	0x3d195e1e	0.037443273
232	0xbca528b9	-0.02016102
233	0xbd79c5ee	-0.060979776
234	0x3ca834ea	0.020533044
235	0xbd01a573	-0.031651925
236	0xbd93f8f0	-0.072252154
237	0xbd57d094	-0.05268915
238	0xbad5a9f1	-0.0016301257
239	0x3d2e5e08	0.042570144
240	0x3d3361b0	0.043794334
241	0xbce09eff	-0.027419565
242	0x3cac3e15	0.021025697
243	0xbc680934	-0.01416235
244	0xbd8d819e	-0.06909488
245	0xbd9f46ed	-0.077772
246	0xbd3c5563	-0.04597987
247	0xbd2dbc32	-0.042415805
248	0xbdcbbff1	-0.09948719
249	0xbdbf55dd	-0.09342549
250	0xbbc77642	-0.0060870955
251	0xbd95f128	-0.073213875
252	0xbde7a111	-0.11310018
253	0xbd479dbc	-0.04873441
254	0xbe09a9e2	-0.13443711
255	0xbdabd748	-0.08390671

conv2.bias f4 [5]
0	0x3dcd334f	0.10019552
1	0x3cb93bd1	0.02261153
2	0xbcc6698c	-0.02422025
3	0x3ce595aa	0.028025467
4	0xbd4448e5	-0.04792108

fc1.weight f4 [128, 980]
0	0xbcfaec03	-0.030630117
1	0xbc65bf01	-0.01402259
2	0xbd1ccb3d	-0.03827976
3	0xbd015546	-0.031575464
4	0x3ce50035	0.0279542
5	0x3b277589	0.0025552234
6	0x3aa38b88	0.0012477497
7	0xb9d2df16	-0.00040220533
8	0x3d04b73a	0.0324013
9	0x3ce26ce5	0.027639816
10	0xbbdba1e7	-0.00670265
11	0x3cb3b3ef	0.021936385
12	0x3d82b329	0.06381828
13	0x3c758d37	0.0149872815
14	0x3b447977	0.0029979625
15	0xbd25887b	-0.04041336
16	0xbcc6fd66	-0.024290752
17	0xbb3a0aaa	-0.0028387704
18	0xbc62c576	-0.013841024
19	0x3b9006ef	0.004395358
20	0x3c26d4fc	0.010182615
21	0xbc581063	-0.013187501
22	0x3d37377c	0.04473065
23	0x3d0c30c0	0.03422618
24	0xbc2aa33d	-0.010414896
25	0x3c09ade4	0.008403275
26	0x3d10ebfb	0.0353813
27	0x3cb1983a	0.021679033
28	0x3c0bdc0b	0.008536349
29	0xbc989967	-0.018627835
30	0xbd5ca253	-0.053865742
31	0xbd694199	-0.056947324
32	0xbd1528ac	-0.03641574
33	0xbc6c966f	-0.014440163
34	0x3d02549e	0.03181898
35	0x3ca05baa	0.019574959
36	0x3d132c3c	0.035930857
37	0x3c072236	0.008247903
38	0xbcbd5fa4	-0.023116894
39	0xbca54d36	-0.020178419
40	0xbc932745	-0.017963061
41	0x3c2f2b95	0.010691543
42	0xbd0147d3	-0.031562638
43	0xbc12ced4	-0.0089604445
44	0x3b6af738	0.003585292
45	0xbc899596	-0.016794961
46	0x3cb95b5f	0.022626577
47	0x3d4e5f27	0.050383713
48	0x3b4fdec0	0.0031718463
49	0xbc8e1eef	-0.017348735
50	0x3c26a10b	0.010170232
51	0xbcf2b1ed	-0.029625857
52	0xbc85def4	-0.016341664
53	0x3c65611e	0.014000205
54	0xbc542f54	-0.012950737
55	0xbc2ac6a0	-0.010423332
56	0x3c1991b3	0.009373116
57	0x3b741681	0.0037244859
58	0x3cb8536a	0.022500712
59	0x3a905213	0.0011010788
60	0x3bd07025	0.006361025
61	0x3b6c9f91	0.0036105851
62	0xbd00029b	-0.031252485
63	0x3c723b7c	0.01478469
64	0xbc78752b	-0.015164654
65	0x3bd96c1c	0.006635202
66	0xbcd6fe47	-0.026244296
67	0xbb91c04f	-0.004447974
68	0xbd094991	-0.033517424
69	0xbafa9201	-0.0019116999
70	0x3b193148	0.0023375321
71	0x3cf6f213	0.030144727
72	0x3c685d09	0.014182338
73	0x3cdae4fc	0.026720516
74	0x3c15e84c	0.009149622
75	0x3d13294d	0.03592806
76	0x3d0fc348	0.035098344
77	0xbc450153	-0.0120242415
78	0x3cd061c2	0.02543724
79	0xbc1e2896	-0.009653231
80	0x3c29887c	0.010347482
81	0x3cfa502e	0.03055581
82	0x3ca36391	0.019944938
83	0xbb00c756	-0.0019650063
84	0x3bbe6062	0.0058098296
85	0xbbc4e6c1	-0.0060089533
86	0x3d1e642a	0.038669743
87	0x3aa69cff	0.0012711583
88	0x3cb269dc	0.021778993
89	0x3c2c72e0	0.010525435
90	0x3d4662ce	0.04843407
91	0x3cc8810b	0.024475595
92	0x3d17588d	0.036949683
93	0x3d001969	0.031274233
94	0x3ccd0f3b	0.025031677
95	0x3cc6ed21	0.024282994
96	0x3d1a122e	0.037614994
97	0x3d212f21	0.039351586
98	0x3b436574	0.002981511
99	0x3d02917d	0.03187703
100	0x3c376acb	0.011194895
101	0x3b5e542c	0.0033924682
102	0x3bf0f16f	0.007353
103	0x3c4ebcc4	0.012618247
104	0xbc0c8c3c	-0.008578356
105	0x3bfe2ba2	0.0077566663
106	0xbc8c4f0d	-0.017127538
107	0x3c80ef8f	0.01573923
108	0x3ce1e2db	0.027573993
109	0x3af81094	0.0018925839
110	0x3d01e80e	0.031715445
111	0x3d259ebb	0.04043458
112	0x3ca62e60	0.020285785
113	0x3b9614b9	0.004580107
114	0x3c26741c	0.010159519
115	0x3cb31b3f	0.021863578
116	0x3c93b135	0.018028835
117	0xbcf6fdd4	-0.030150332
118	0x38d42f09	0.00010117709
119	0xbd1056da	-0.035239078
120	0x3c1aefe4	0.009456608
121	0xbb9e33f1	-0.0048279692
122	0x3cfa52d5	0.030557076
123	0xbc19c431	-0.009385155
124	0x3d2ef7f2	0.042716928
125	0x3d281f1b	0.04104529
126	0xbca76072	-0.02043173
127	0x3b0004dc	0.0019534146
128	0xbc7e4cbb	-0.015521224
129	0x3b0c5d41	0.0021417888
130	0xbc60eacd	-0.013727856
131	0xbced8424	-0.028993674
132	0xbd3755ff	-0.044759747
133	0xbc1c515e	-0.009540884
134	0x3d3c80ed	0.04602139
135	0x3d1c402e	0.038147144
136	0x3d0c1f1b	0.034209352
137	0x3a6ed552	0.00091107667
138	0x3b625ce9	0.0034540242
139	0x39fc0bda	0.00048074016
140	0xbbea3811	-0.007147797
141	0xbcc300dd	-0.023804123
142	0x3bb10cbc	0.0054031294
143	0xbc6fdd64	-0.014640186
144	0xbbef7af3	-0.007308358
145	0xbcb612fc	-0.02222585
146	0xbc8e4aaa	-0.017369587
147	0x3cd86cd6	0.026419085
148	0x3d6e0117	0.058106508
149	0x3d1d2438	0.03836462
150	0x3c8f6051	0.017501982
151	0xbd22769e	-0.039663903
152	0xbc704dba	-0.014666969
153	0xbccba218	-0.024857566
154	0xbb832dc2	-0.0040032575
155	0x3b4f0e95	0.0031594385
156	0xbc864cce	-0.016394045
157	0x3c70cc89	0.0146972025
158	0x3c6fe6f7	0.014642469
159	0xbc2ae608	-0.01043082
160	0xbc295643	-0.010335508
161	0x3cb0bc04	0.021574028
162	0x3c8c1b50	0.017102867
163	0xbc524cc1	-0.012835682
164	0xbd2765b8	-0.04086849
165	0xbd5052ee	-0.050860338
166	0xbdb33593	-0.08750453
167	0xbd15de56	-0.03658899
168	0xbc89e59b	-0.016833117
169	0x3b63790e	0.0034709605
170	0x3cb50ade	0.022099908
171	0x3c2f93c0	0.010716379
172	0x3c509ace	0.012732221
173	0x3b881bf6	0.004153724
174	0x3b969259	0.0045950827
175	0xbc43bc42	-0.01194674
176	0x3cc104d0	0.023561865
177	0x3c1e2eb5	0.0096546905
178	0xbd94075a	-0.07227965
179	0xbcf65aac	-0.030072533
180	0xbd67e871	-0.056618158
181	0xbdbb7ff6	-0.09155266
182	0xb9d90b9a	-0.0004139811
183	0x3d14f1b5	0.036363322
184	0x3c90fe29	0.017699318
185	0xbbc14b94	-0.005898902
186	0xbcb24add	-0.021764213
187	0xbc7fa94f	-0.015604331
188	0xbbffb8a7	-0.0078039947
189	0x3bac6adb	0.0052617616
190	0xbcbd3744	-0.023097642
191	0xbc820792	-0.01587275
192	0xbd82e7b6	-0.063918516
193	0xbd0c1d67	-0.034207728
194	0xbdae420f	-0.085086934
195	0xbdb75cf8	-0.08953279
196	0x3c595893	0.013265747
197	0x3ccb5259	0.02481954
198	0xbce66ef2	-0.028129075
199	0x3d0c18b1	0.034203235
200	0x3c8b4646	0.017001282
201	0xbad95539	-0.0016581184
202	0x3ac86745	0.0015289566
203	0x3cb4edf9	0.02208613
204	0x3cbca12a	0.023026068
205	0x3ca1e438	0.019762143
206	0x3d3abd3e	0.04559063
207	0x3d94a643	0.072582744
208	0x3d7adb09	0.061244044
209	0x3c91668c	0.017749093
210	0x3c92ee6c	0.017935954
211	0x3ce88d35	0.028387645
212	0x3bfc0d01	0.00769198
213	0xbc24fa8d	-0.010069502
214	0x3bcf33c7	0.006323311
215	0x3b5bc7dd	0.0033535876
216	0x3ccf013a	0.02526914
217	0x3d46ab66	0.048503302
218	0x3d1e080d	0.038581897
219	0x3c10e440	0.008843482
220	0x3d84d12e	0.0648521
221	0x3d06e873	0.032936525
222	0x3c623925	0.01380757
223	0x3cf7fd74	0.030272223
224	0x3ce8594a	0.028362889
225	0x3cb97318	0.022637889
226	0x3b8c0eb7	0.004274215
227	0xbd06a566	-0.03287258
228	0xbcfc2320	-0.030778468
229	0xbc1322ec	-0.008980494
230	0x3d1fb57d	0.03899144
231	0x3c03264e	0.008004738
232	0xbae20652	-0.0017244315
233	0x3cdc2ae0	0.026875913
234	0x3d4a690a	0.04941658
235	0x3c7ba60f	0.015359416
236	0x3cd86925	0.026417324
237	0x3d42bc09	0.047542606
238	0x3d3c660d	0.04599576
239	0xbb578660	-0.003288649
240	0x3cb9e154	0.022690453
241	0xbb14fedb	-0.0022734914
242	0xbc0cf5d6	-0.008603534
243	0xbb7bb902	-0.0038409834
244	0xbbb1518a	-0.0054113315
245	0xbcd99077	-0.026558144
246	0xbc3b8d4f	-0.011447265
247	0xbbe46e5a	-0.0069711627
248	0x3ce6c638	0.02817069
249	0x3b6f7cbd	0.0036542856
250	0x3c14ce46	0.009082383
251	0x3ce07a14	0.027401961
252	0x3d2d175c	0.042258605
253	0x3cc0d342	0.023538236
254	0xbd0fb980	-0.035089016
255	0x3c804cc3	0.015661603

fc1.bias f4 [128]
0	0xbceb5fda	-0.028732229
1	0xbc8908b6	-0.016727787
2	0x3d0279e2	0.031854518
3	0xbc97c617	-0.018527074
4	0x397b95ad	0.00023992984
5	0x3cdb6867	0.026783181
6	0x3c8d1926	0.017223906
7	0xbc8cb614	-0.017176665
8	0xbcbe48ba	-0.023228038
9	0x3bbfc29b	0.005852056
10	0xbc90a625	-0.017657349
11	0xbcbd56e7	-0.023112727
12	0xbc77db5c	-0.015127983
13	0xbcc158e7	-0.023601962
14	0x3d837a32	0.06419791
15	0x3d2a7773	0.041617822
16	0x3d6c50cc	0.05769424
17	0x3d286783	0.04111434
18	0xbd061fc4	-0.032745138
19	0xbc142c35	-0.009043743
20	0xbc864ae2	-0.016393129
21	0x3ba1d8f9	0.0049391952
22	0x3d432110	0.047638953
23	0x3c5e7b46	0.013579195
24	0xbd128b84	-0.035777584
25	0x3cbe8005	0.023254404
26	0x3d80876c	0.0627583
27	0x3bd7f098	0.0065899603
28	0xbb167d90	-0.0022963025
29	0xbb6d4742	-0.0036205803
30	0x3d7d06c8	0.061774045
31	0x3c131995	0.008978267
32	0x3d0e337d	0.03471707
33	0xbc7c8a4d	-0.015413833
34	0x3c24e223	0.010063681
35	0xbc608ab8	-0.013704948
36	0xbcab71b6	-0.020928245
37	0x3d192c36	0.03739568
38	0x3c1f1a7a	0.009710902
39	0x3d0c7280	0.034288883
40	0xbc69a542	-0.014260592
41	0x3c67a475	0.014138331
42	0x3cfe745f	0.03106135
43	0x3ca8953d	0.020578975
44	0xbc23eabf	-0.010004698
45	0x3d068a97	0.032847013
46	0xbd0ec492	-0.034855433
47	0xbc3408eb	-0.010988454
48	0xbbce676b	-0.0062989495
49	0xbd1e9cdb	-0.038723808
50	0x3bae407d	0.005317746
51	0x3cbcb015	0.023033181
52	0x3d03d723	0.032187592
53	0x3c9d61d0	0.01921168
54	0x393143c4	0.0001690528
55	0x3c4ea052	0.0126114655
56	0x3c176ce7	0.009242273
57	0x3d38a832	0.04508228
58	0xbba209d4	-0.0049450193
59	0x3cb11d01	0.021620275
60	0xbc95f817	-0.018306775
61	0x3d1a2fe9	0.037643347
62	0xbc9f66a3	-0.01945812
63	0x3b73b9df	0.0037189645
64	0x3cb07fc6	0.021545302
65	0x3d45e37b	0.048312645
66	0xbd136813	-0.035987925
67	0x3cb5e80a	0.022205371
68	0x3d10fede	0.03539931
69	0x3d4fb382	0.0507083
70	0xbc7a16ee	-0.015264256
71	0x3c7dd30a	0.01549221
72	0xbcdec86b	-0.027195176
73	0xbc801472	-0.01563475
74	0xbcee399c	-0.029080205
75	0xbc9c9f54	-0.019118942
76	0xbca038ea	-0.019558389
77	0xbcd224a2	-0.025652234
78	0x3c229325	0.009922777
79	0xbaac8bb2	-0.0013164191
80	0xbcdf23b4	-0.027238704
81	0x3d377198	0.044786066
82	0x3d3a3a9d	0.045466054
83	0x3d346e5e	0.044050567
84	0x3c951b75	0.01820157
85	0x3c2a895f	0.010408728
86	0xbcc55012	-0.024086032
87	0xbca0ea8a	-0.019643087
88	0xbc0052b4	-0.007832218
89	0x3d1fbe56	0.038999878
90	0x3b95d7b0	0.004572831
91	0x3d5325ff	0.051549908
92	0x3d2d3c64	0.04229392
93	0xbcd5ec60	-0.026113689
94	0x3d09f9a5	0.033685345
95	0xbcb51e5e	-0.022109207
96	0x3c115c31	0.008872078
97	0x3bd66744	0.006543072
98	0xbc0ec829	-0.008714714
99	0x3cff8524	0.031191416
100	0xbc95507a	-0.01822685
101	0x3c9944ab	0.018709501
102	0xbcef6ba8	-0.02922614
103	0xbc8c40fb	-0.017120829
104	0x3d951d86	0.07281022
105	0x3c2f010f	0.010681405
106	0xbd21dddb	-0.03951822
107	0x3c41283f	0.011789381
108	0xbd087583	-0.033315193
109	0x3cd84247	0.026398791
110	0x3d14f618	0.036367506
111	0xbc87a69e	-0.016558941
112	0x3cb64798	0.022250935
113	0x3bf7e9bd	0.0075657056
114	0xbb1147b2	-0.0022167978
115	0x3ac0bb03	0.0014704171
116	0xbc17305b	-0.009227837
117	0xb9cb3cfb	-0.0003876461
118	0x3d14ad06	0.03629782
119	0xbbe029f2	-0.006840938
120	0x3bece622	0.0072295824
121	0xbcc21eb2	-0.023696277
122	0x3cebd8bf	0.028789876
123	0x3c2f8664	0.010713194
124	0xbc8a7679	-0.016902195
125	0x3ad519b9	0.0016258276
126	0x3c17556d	0.009236676
127	0x3b2c56e7	0.0026296915

fc2.weight f4 [10, 128]
0	0x3da660f5	0.08123962
1	0x3c1ccb26	0.009569919
2	0xbdc566ac	-0.09638724
3	0x3db23678	0.08701795
4	0xbdd5e3df	-0.104438536
5	0xbd937567	-0.07200127
6	0xbd8d5e89	-0.06902797
7	0xbdadff6b	-0.08495983
8	0x3d920c33	0.07131233
9	0x3d38bb33	0.045100402
10	0x3cb98231	0.022645088
11	0x3db09477	0.086220674
12	0xbda26720	-0.07929826
13	0xbce6620b	-0.028122922
14	0xbde8dc5e	-0.11370157
15	0x3d16023a	0.036623217
16	0x3d895bee	0.06706987
17	0xbd263ef4	-0.04058738
18	0xbd47f157	-0.048814144
19	0x3dc5136c	0.09622845
20	0xbda82786	-0.082106635
21	0x3da37779	0.07981772
22	0x3dacfd0e	0.08446704
23	0xbd63197b	-0.055444222
24	0xbd42fac5	-0.047602434
25	0xbdb9a76b	-0.090651356
26	0xbdae87f3	-0.08522024
27	0xbdc3f02a	-0.09567292
28	0xbc92b851	-0.017910155
29	0x3cde7731	0.027156444
30	0x3da73b6a	0.08165629
31	0xbcfa73bb	-0.030572763
32	0xbdbe17b3	-0.09281864
33	0x3d806070	0.06268394
34	0xbb119ecc	-0.0022219894
35	0xbcada64e	-0.021197464
36	0xbd87caa7	-0.0663045
37	0xbdd3e3fd	-0.1034622
38	0x3caadc0c	0.02085688
39	0x3d98ef18	0.074674785
40	0x3db1ec24	0.086876184
41	0x3d0b6b70	0.034038007
42	0xbdb51d05	-0.08843426
43	0xbddbd62b	-0.10734209
44	0xbbb5bd94	-0.005546281
45	0xbd672ea1	-0.056440953
46	0x3d725941	0.05916715
47	0x3d7d0083	0.061768066
48	0xbc592070	-0.013252363
49	0x3c650403	0.013978007
50	0xbd9b2873	-0.075760745
51	0xbcb9e8e9	-0.022694068
52	0x3d893f3d	0.06701515
53	0xbdb23bb2	-0.08702792
54	0x3d323063	0.043503176
55	0xbd6480fa	-0.055787064
56	0xbda7a3e5	-0.08185557
57	0xbda1d888	-0.07902628
58	0x3d94736e	0.07248579
59	0xbd0a9a1a	-0.03383837
60	0x3dbeb2c5	0.09311441
61	0xbb66b471	-0.0035202766
62	0x3dbadfb1	0.09124697
63	0x3d6c51e7	0.057695296
64	0x3d0f28b4	0.034950927
65	0xbd1fa842	-0.038978823
66	0xbc367ca0	-0.011138111
67	0xbd0f1268	-0.034929663
68	0xbcadf71f	-0.021236
69	0x3d8d062f	0.06885945
70	0x3cf0dfe6	0.029403638
71	0xbd1c7abd	-0.03820299
72	0x3d85e4d9	0.0653779
73	0xbd499a66	-0.04921951
74	0x3d9f913b	0.077913724
75	0x3d45c984	0.048287883
76	0x3d400205	0.046876926
77	0x3c0edcc8	0.008719631
78	0xbdb8f697	-0.09031408
79	0x3cb76f2e	0.022391882
80	0xbd0df7fe	-0.034660332
81	0x3d10d2ed	0.035357405
82	0xbd184fa5	-0.03718533
83	0xbd26cafd	-0.04072093
84	0xbc8d34f1	-0.017237158
85	0xbdb5435f	-0.08850741
86	0xbd968148	-0.07348877
87	0x3d325006	0.043533348
88	0xbda57b04	-0.08080104
89	0xbdb0d561	-0.08634449
90	0x3d3d9a31	0.046289627
91	0x3c710870	0.014711484
92	0xbdae6018	-0.08514422
93	0xbcc1e8db	-0.023670604
94	0xbd82fab3	-0.06395473
95	0xbd13d92a	-0.036095776
96	0xbd49aeb1	-0.049238864
97	0x3d03ca80	0.03217554
98	0x3d5f1257	0.05446085
99	0xbd74260d	-0.0596066
100	0x3ca36a39	0.019948112
101	0xbd2cbd97	-0.042172994
102	0xbd44ca80	-0.04804468
103	0xbd8ea044	-0.06964162
104	0xbc7511d5	-0.014957865
105	0xbb1187df	-0.002220623
106	0xbc956232	-0.0182353
107	0xbadca523	-0.0016833883
108	0x3d8fccfb	0.07021519
109	0xbdb41084	-0.087922126
110	0x3ca9c2a1	0.02072269
111	0x3d8cea62	0.068806425
112	0x3ced60d1	0.02897683
113	0x3dc4bbe0	0.09606147
114	0x3d9b9f5c	0.07598755
115	0xbd8313a7	-0.06400233
116	0xbe028ca8	-0.12748969
117	0x3d053df6	0.032529794
118	0x3b30ce29	0.002697835
119	0xbb5bf196	-0.0033560744
120	0xbc7da5c7	-0.015481419
121	0x3db733e5	0.08945445
122	0xbd93b319	-0.072118945
123	0xbd1a790a	-0.037713088
124	0xbcd8e5a8	-0.026476696
125	0x3d56e2ae	0.052462272
126	0xbc8f7c00	-0.017515182
127	0x3dc4f9ad	0.096179344
128	0xbb977771	-0.004622393
129	0x3d82996f	0.063769214
130	0x3dad1eff	0.08453178
131	0xbd2c1ff8	-0.042022675
132	0xbc72b0c9	-0.014812657
133	0xbd195631	-0.037435714
134	0xbdc91215	-0.09817902
135	0xbdc32f74	-0.09530535
136	0xbd8e9bca	-0.06963308
137	0x3d20c676	0.039251767
138	0xbd9e2186	-0.07721238
139	0x3cb76d93	0.022391116
140	0x3db6cbdd	0.089256026
141	0x3d15420a	0.036439933
142	0x3db808ac	0.08986029
143	0x3d83f39f	0.064429514
144	0xbcc66203	-0.024216658
145	0xbcc6c63e	-0.024264451
146	0xbdabbd85	-0.08385757
147	0x3ca35720	0.019939005
148	0x3e11b762	0.14230111
149	0xbd872a5d	-0.06599877
150	0xbd7c8563	-0.061650645
151	0x3b9bc44b	0.0047536246
152	0x3d2d01f2	0.042238183
153	0xbb92c177	-0.004478629
154	0x3d0e20db	0.034699302
155	0x3d8866b1	0.06660212
156	0xbda43cc1	-0.080194004
157	0xbd747e62	-0.05969084
158	0xbd81fc3d	-0.06346939
159	0x3da0dabc	0.0785422
160	0xbdbbd2c1	-0.091710575
161	0xbc675faa	-0.014121929
162	0xbda2e172	-0.079531565
163	0x3dc2cade	0.0951135
164	0x3d853db9	0.06505913
165	0xbd0c155a	-0.03420005
166	0x3d150be1	0.03638828
167	0xbdb9ec12	-0.0907823
168	0x3d107411	0.03526694
169	0xbe04d2e7	-0.12971078
170	0xbddd043f	-0.107918255
171	0xbd66ce39	-0.056349013
172	0xbdec67e1	-0.11543251
173	0x3d2268de	0.03965079
174	0x3d9ba124	0.075990945
175	0xbc79e4da	-0.015252316
176	0x3d952622	0.07282664
177	0x3cf5f6b7	0.03002487
178	0x3dbf5822	0.09342982
179	0x3d4efea8	0.050535828
180	0xbd501117	-0.05079755
181	0x3d136644	0.0359862
182	0x3cc5ed66	0.024161052
183	0x3a1bfa8e	0.00059501163
184	0x3da72b76	0.081625864
185	0xbd4386e1	-0.047736052
186	0xbd28437b	-0.04107998
187	0x3c354ddf	0.011065929
188	0x3d83b20c	0.06430444
189	0xbdba89a8	-0.09108287
190	0x3d326017	0.04354867
191	0x3d0bdf0a	0.034148254
192	0x3db7b777	0.0897054
193	0x3d209b91	0.03921086
194	0xbda9f28b	-0.082982145
195	0xbd18ab6f	-0.037272867
196	0x3c7b48ac	0.015337151
197	0xbdbbb0bb	-0.09164568
198	0xbd33756e	-0.04381316
199	0x3c9fe01b	0.019516042
200	0x3dadba95	0.08482853
201	0x3ba53db5	0.0050427564
202	0x3d9c1a15	0.07622162
203	0x3cf84e8a	0.030310888
204	0xbc279fb5	-0.010230948
205	0x3d4e653f	0.050389525
206	0xbdd2e6ad	-0.10297904
207	0x3d08d597	0.03340682
208	0x3caa279a	0.020770837
209	0x3dfa26ee	0.122144565
210	0xbc39ef9f	-0.011348634
211	0xbde70c1c	-0.112816066
212	0xbdbe5f8f	-0.0929557
213	0xbb8bb0af	-0.0042630057
214	0x3d997a89	0.07494075
215	0x3c433464	0.011914346
216	0x3de74ef2	0.112943545
217	0x3d9b838c	0.0759345
218	0x3ca13af8	0.019681439
219	0xbd8cdb3f	-0.068777554
220	0xbd7eecc3	-0.062237512
221	0xbd53b4e8	-0.051686198
222	0xbc5e4d7b	-0.0135682775
223	0x3d7be3d5	0.061496574
224	0x3d90e37c	0.07074639
225	0xbdd5ab59	-0.104330726
226	0xbd30265b	-0.04300533
227	0x3ddfa19a	0.10919495
228	0x3c415775	0.011800637
229	0x3dcd2a76	0.100178644
230	0xbd8edb91	-0.06975473
231	0x3ba4789d	0.005019261
232	0x3d3e1b7b	0.046412926
233	0xbda8d71b	-0.08244153
234	0xbd0b04a3	-0.03393997
235	0xbcf29def	-0.029616324
236	0xbd8eaa1a	-0.06966038
237	0x3d35fb04	0.04442884
238	0x3cc3390c	0.023830913
239	0xbd8e5d10	-0.06951344
240	0x3db260ef	0.08709895
241	0xbda513d8	-0.080604255
242	0x3c5f9f90	0.0136488825
243	0x3d274a05	0.040842075
244	0x3c168ff8	0.009189598
245	0xbdb0d2d3	-0.086339615
246	0x3dd1b7aa	0.10240109
247	0xbd41c338	-0.047305316
248	0xbd4b9161	-0.04969919
249	0xbc53dccc	-0.01293106
250	0xbd851f88	-0.06500155
251	0xb76d11f8	-1.41304845e-05
252	0x3dc2b47e	0.095070824
253	0xbde5f979	-0.11229224
254	0x3c707517	0.014676354
255	0xbd994c18	-0.07485217

fc2.bias f4 [10]
0	0xbb48c42a	-0.00306345
1	0x3d0fa5c3	0.035070192
2	0x3d818c0f	0.06325542
3	0xbc3f3be1	-0.011671991
4	0xbc5988a4	-0.013277207
5	0x3dfd5e7a	0.123715356
6	0xbd643027	-0.055709984
7	0x3d2687b7	0.04065677
8	0x3ccd420e	0.025055911
9	0x3d4b18e0	0.04958427
