Experiment/benchmark/cnn_medium/onnx/simple_cnn_5x9_7x11.onnx (onnx, 383864 bytes, 8 tensors)

conv1.weight f4 [5, 1, 9, 9]
0	0xbde9e768	-0.1142109
1	0xbdadc5a0	-0.084849596
2	0xbd8623b1	-0.06549776
3	0xbe024ca7	-0.12724553
4	0xbc2eefd3	-0.010677296
5	0xbd8a736e	-0.06760298
6	0x3d103061	0.035202388
7	0x3d4a1658	0.049337715
8	0xbc2d50d6	-0.010578355
9	0x3daab5cc	0.08335456
10	0xbd35b3d6	-0.044360958
11	0x3dbf8535	0.09351579
12	0x3c812a70	0.015767306
13	0xbd10d64d	-0.035360623
14	0xbe1b7bc8	-0.15183938
15	0xbe07a269	-0.13245548
16	0xbe0f221d	-0.13977857
17	0x3a518ce6	0.0007993713
18	0x3e0989d6	0.13431486
19	0x3dafdb96	0.085868046
20	0xbcb9eac4	-0.022694953
21	0x3d2492b4	0.04017897
22	0x39d44b5b	0.00040491935
23	0x3c9af891	0.018917354
24	0xbdec9ce1	-0.1155336
25	0x3da378b3	0.07982006
26	0xbd60d7c4	-0.05489327
27	0x3e057524	0.13032967
28	0x3da4a78d	0.0803977
29	0x3df8d98f	0.12150871
30	0x3e10c530	0.14137721
31	0x3d25d4f9	0.04048631
32	0x3d8e4895	0.06947438
33	0x3d3a6dc3	0.045514833
34	0xbda090b5	-0.07840101
35	0x3c91a90c	0.017780803
36	0xbd68bc62	-0.05682028
37	0x3dcaef49	0.09908921
38	0x3e0b171b	0.13583033
39	0xbaa18a0d	-0.0012324468
40	0x3d780ccc	0.06055908
41	0xbd3be4fe	-0.04587268
42	0xbc00fd86	-0.007872945
43	0x3d8de155	0.06927744
44	0xbdadd2bf	-0.08487462
45	0x3cf42f12	0.029807601
46	0xbd8c12b9	-0.068395086
47	0x3dea13d6	0.11429565
48	0x3dbbf643	0.0917783
49	0xbb9e68bb	-0.004834262
50	0x3d32fb6d	0.04369681
51	0x3e0d7a69	0.13816227
52	0xbd5939d1	-0.053033654
53	0x3bb5bd65	0.005546259
54	0x3d484f43	0.048903715
55	0x3d821a2e	0.0635265
56	0xbd8f0659	-0.069836326
57	0xbd87a2f1	-0.066228755
58	0x3cfb499f	0.030674754
59	0x3d7f8603	0.062383663
60	0x3e26f85d	0.1630568
61	0x3da4402a	0.08020051
62	0x3ca667d0	0.020313174
63	0x3d795d6e	0.060880117
64	0x3d0d202f	0.03445452
65	0xbd8c4b5b	-0.068503104
66	0x3de05f2e	0.10955654
67	0x3d7eab4b	0.062175076
68	0xbce864b2	-0.028368328
69	0x3daae7c6	0.083449885
70	0x3dcb7d7d	0.09936044
71	0x3e232c77	0.1593493
72	0x3dbcda47	0.092213206
73	0x3d26fd72	0.040769048
74	0xbbce4088	-0.006294314
75	0x3dc09e8f	0.09405243
76	0xbd88417a	-0.06653114
77	0xbd3059ea	-0.0430545
78	0x3e01a4b2	0.12660483
79	0x3c79c42a	0.015244523
80	0xbd6660eb	-0.056244772
81	0x3e0f4f5a	0.13995114
82	0x3e2b1220	0.16706133
83	0x3d992b88	0.07479006
84	0x3d227f8b	0.039672416
85	0x3d603c79	0.05474517
86	0xbd07be4d	-0.03314047
87	0x3c84dd01	0.016218664
88	0xbb60b91b	-0.003429002
89	0xbd539abc	-0.051661238
90	0x3d0cef0f	0.03440767
91	0x3e289bfa	0.1646575
92	0x3e0163fc	0.12635797
93	0x3dd30558	0.103037536
94	0x3e28ff44	0.16503626
95	0x3d73df8c	0.059539363
96	0xbc8a52cd	-0.016885186
97	0x3daf3d3c	0.085566014
98	0x3e1ee992	0.15518788
99	0xbd21f118	-0.039536566
100	0xbc0a7633	-0.008451032
101	0x3ccdc097	0.025116248
102	0xbd456fdd	-0.048202384
103	0x3dce1a74	0.10063639
104	0x3d941bb9	0.0723185
105	0x3d473633	0.048635673
106	0x3d44b26e	0.048021726
107	0x3d768631	0.06018657
108	0xbd581eac	-0.052763626
109	0x3d384218	0.044984907
110	0x3d99b488	0.07505137
111	0x3c1b2834	0.009470034
112	0x3daff62c	0.085918754
113	0x3dc3b501	0.09556008
114	0xbd92aed5	-0.07162253
115	0x3bf8b56f	0.007589988
116	0x3d82ff22	0.06396319
117	0xbde63d05	-0.11242107
118	0xbdd3c21a	-0.10339756
119	0xbd779984	-0.06044914
120	0x3dc8bace	0.09801255
121	0xbd773524	-0.060353413
122	0x3d0c2833	0.034218024
123	0x3d5a9edb	0.053374153
124	0x3c85a95f	0.016316114
125	0xbd2695f3	-0.040670346
126	0xbdd6efe1	-0.10494972
127	0xbded2827	-0.11579924
128	0xbdd9076f	-0.10597121
129	0x3d2b40d8	0.041809887
130	0x3a3b79f6	0.00071516575
131	0x3ac726b2	0.0015194027
132	0x3d1f6183	0.038911354
133	0xbda0b19b	-0.078463756
134	0x3d57f259	0.052721355
135	0xbdff405d	-0.12463448
136	0x3d7a209f	0.061066266
137	0x3d43659d	0.047704328
138	0xb9daf506	-0.00041762757
139	0x3da49ab7	0.08037322
140	0x3df510fe	0.11966132
141	0xbca63c3a	-0.02029239
142	0xbd2eed63	-0.04270686
143	0x3c69cee2	0.014270516
144	0x3c1a14e1	0.009404392
145	0x3d045961	0.0323118
146	0xbca831df	-0.020531593
147	0x3d92c09a	0.07165642
148	0x3dfab5b3	0.122416876
149	0xbd890f0f	-0.06692325
150	0x3c605169	0.013691285
151	0x3d6cbec0	0.0577991
152	0x3e0b98f8	0.13632572
153	0xbd1ecb91	-0.038768355
154	0xbdb62442	-0.088936344
155	0x3dbfbf1b	0.09362622
156	0x3d1a0c06	0.037609123
157	0x3d5fb1e9	0.054613028
158	0x3dbdc3f5	0.092658915
159	0x3dcc98bb	0.099900685
160	0x3d95d843	0.07316639
161	0x3c94f4a9	0.01818307
162	0x3cea22aa	0.028580982
163	0xbd335135	-0.043778617
164	0xbc4502e4	-0.012024615
165	0xbdf8a83f	-0.121414654
166	0xbda49ca5	-0.0803769
167	0xbd71f1c7	-0.059068467
168	0x3d8c1714	0.06840339
169	0x3c2d4102	0.010574581
170	0x3dc475a3	0.0959275
171	0x3cb05fd0	0.021530062
172	0xbde4dbfe	-0.11174773
173	0xbdd93b72	-0.106070414
174	0xbda08706	-0.07838254
175	0x3dbbd4ee	0.091714725
176	0x3d8d5cd3	0.069024704
177	0x3caf66df	0.021411357
178	0x3d1303c3	0.03589226
179	0x3d67df14	0.05660923
180	0x3dc73662	0.097271696
181	0xbd07b651	-0.033132855
182	0xbd4b979f	-0.049705144
183	0xbd80a7d5	-0.062820114
184	0x3cb61542	0.022226933
185	0x3e0085e0	0.1255107
186	0x3cc86701	0.024463179
187	0xbd87aeb0	-0.06625116
188	0x3dc0b8ea	0.094102696
189	0x3bfa2c75	0.007634694
190	0x3dea4815	0.1143953
191	0xbd6955f9	-0.056966756
192	0x3dba6e10	0.09103024
193	0x3cf2f288	0.029656664
194	0x3e08c2d8	0.13355577
195	0x3d9ea8c8	0.07747036
196	0xbc8f29f3	-0.017476058
197	0x3d50168a	0.050802745
198	0x3dee6e85	0.11642174
199	0x3dd7a8ef	0.105302684
200	0x3d965e01	0.073421486
201	0xb964a304	-0.00021804502
202	0xbd8a259f	-0.06745457
203	0xbd9c875b	-0.076430045
204	0xbd9d7cb9	-0.076898046
205	0x3dc94aa1	0.098286875
206	0x3df9ed3d	0.12203453
207	0xbd0a7a64	-0.033808127
208	0x3ce4612e	0.02787837
209	0xbc72bd3b	-0.014815624
210	0x3deec4aa	0.116586044
211	0x3da06b35	0.07832948
212	0x3d63e891	0.055641714
213	0x3d86f476	0.06589596
214	0x3d88953e	0.06669091
215	0x3ddec38d	0.10877142
216	0x3e0a3f30	0.13500667
217	0x3e06f046	0.13177595
218	0x3d88f10a	0.066865996
219	0x3df4e6b0	0.11958063
220	0xbd210f6b	-0.039321344
221	0xbd2e2ecf	-0.04252511
222	0xbdaa7712	-0.08323492
223	0x3dcad112	0.09903158
224	0xbd0607a7	-0.03272214
225	0x3dc1f2b1	0.09470118
226	0x3dd49a2d	0.10380969
227	0x3dd0247f	0.10163211
228	0xbda09c8f	-0.07842361
229	0x3df1761f	0.11790108
230	0x3daa61c6	0.0831943
231	0x3d0c7768	0.034293562
232	0xbd39049f	-0.045170423
233	0x3d387a37	0.04503843
234	0x3dbd9c89	0.09258372
235	0xbdc5472a	-0.09632714
236	0xbda0dc1d	-0.07854483
237	0xbdbebc77	-0.093132906
238	0x3d38ea04	0.04514505
239	0xbc4117bd	-0.011785445
240	0x3dbf69e7	0.09346371
241	0x3d4d0516	0.05005368
242	0x3cb23d84	0.021757849
243	0x3d321222	0.043474324
244	0xbbb402f9	-0.0054935184
245	0xbd7630dc	-0.06010519
246	0xbc16119b	-0.009159471
247	0xbc9f3946	-0.01943649
248	0x3d2bc259	0.04193339
249	0xbd033d55	-0.032040913
250	0xbc6686d6	-0.014070233
251	0xbda98c02	-0.082786575
252	0xbdb49945	-0.08818296
253	0xbd091f33	-0.03347702
254	0x3cad9db6	0.021193366
255	0xbcf370d5	-0.029716888

conv1.bias f4 [5]
0	0xbd3d79ba	-0.046258666
1	0xbd7c746c	-0.061634466
2	0x3db8fca9	0.09032566
3	0x3dff8d1e	0.12478088
4	0x3dca3d2e	0.0987495

conv2.weight f4 [7, 5, 11, 11]
0	0xbd164a7e	-0.036692135
1	0x3d081fdc	0.03323351
2	0x3c00c358	0.007859074
3	0xbcfbffef	-0.030761687
4	0x3bc04a96	0.0058682663
5	0x3d023a47	0.03179386
6	0x3b9e0e49	0.0048234803
7	0x3c742b11	0.014902846
8	0x3cf92998	0.030415341
9	0xbc2df492	-0.010617392
10	0xbcf35101	-0.029701712
11	0xbc8c0854	-0.017093815
12	0x3cf55e57	0.029952211
13	0x3b888e10	0.004167326
14	0x3cac9d7d	0.02107119
15	0x3c88e72d	0.016711796
16	0x3b132486	0.002245219
17	0x3ca2a73a	0.01985513
18	0x3c40f58d	0.011777294
19	0xbd374212	-0.044740744
20	0xbc71845a	-0.014741028
21	0x3cfcea5d	0.030873472
22	0xbc7ff310	-0.015621915
23	0xbcd8dfe0	-0.02647394
24	0xbc0d2f52	-0.008617239
25	0xbca4677f	-0.020068882
26	0xbc9552f1	-0.018228026
27	0xbb6ee139	-0.003645016
28	0xbc87cd8e	-0.016577508
29	0xbd295654	-0.041342095
30	0x3c1ea998	0.009683989
31	0x3cac4210	0.021027595
32	0x3ad19cce	0.0015992166
33	0xbcc4af29	-0.024009304
34	0xbd05854b	-0.03259782
35	0x3baab909	0.005210046
36	0x3cc4f5c7	0.024042977
37	0x3bdbcdfc	0.006707905
38	0x3cc17900	0.023617268
39	0x3c2b9a14	0.010473747
40	0x3b84769a	0.0040424587
41	0x3ce1e807	0.02757646
42	0x3bf3f4b0	0.0074449405
43	0x3c2d75d3	0.0105871735
44	0x3cb42e32	0.021994684
45	0xbca9d745	-0.020732531
46	0xbc9027c3	-0.017597085
47	0x3ce97a1b	0.028500607
48	0x3d04134e	0.032244973
49	0x3d008d6c	0.03138487
50	0xbd226f0c	-0.039656684
51	0x3c67773f	0.014127552
52	0x3cfe6164	0.031052299
53	0x3cfe0c55	0.03101174
54	0x3c190e47	0.009341783
55	0x3ccca6b7	0.02498184
56	0x3c92d2dd	0.017922813
57	0xbd25ca36	-0.040476047
58	0xbcc45a35	-0.023968795
59	0xbce8cab5	-0.02841697
60	0xbc9993b1	-0.018747183
61	0xbd0249eb	-0.031808775
62	0x3cbb4e74	0.022864558
63	0xbca074eb	-0.019587
64	0xba183c41	-0.00058073184
65	0x3bcb19eb	0.006198158
66	0x3b763a21	0.0037571269
67	0xbc034274	-0.008011449
68	0x3cf8e4b3	0.03038249
69	0xbcedad84	-0.029013403
70	0x3c882ac4	0.016621955
71	0xbb7ec2d8	-0.003887346
72	0x3c8bc461	0.017061414
73	0x3cb4ea4a	0.022084374
74	0xbcd5409d	-0.026031787
75	0x3c70345e	0.014660923
76	0xbd318a07	-0.043344524
77	0xbc97290c	-0.01845219
78	0x398bc8a2	0.0002666163
79	0xbc306933	-0.010767269
80	0xbd0c5e2d	-0.0342695
81	0x3b0cde9d	0.0021494993
82	0x3cd520c9	0.02601661
83	0xbceabdd4	-0.02865497
84	0x3d0d671b	0.034522157
85	0xbc3b1e30	-0.0114207715
86	0x3c3b3762	0.0114267785
87	0x3c6184da	0.013764584
88	0xbb050ab0	-0.002030056
89	0x3c077768	0.008268215
90	0xbcc396c7	-0.023875607
91	0x3c925bcc	0.017866038
92	0xbce75ce9	-0.028242545
93	0xbb96c9b6	-0.0046016825
94	0x3d2ad124	0.04170336
95	0x3c39d8a1	0.011343152
96	0x3c0ce283	0.0085989265
97	0xbc98498a	-0.018589754
98	0xbd106c4b	-0.035259526
99	0xbc379280	-0.011204362
100	0xbb76c969	-0.003765667
101	0xbd2b2209	-0.041780505
102	0xbc07741f	-0.0082674315
103	0xbd1ee71a	-0.038794614
104	0xbd2f22b0	-0.04275769
105	0x3c0ba446	0.008523053
106	0xbd1487f1	-0.036262456
107	0xbcb1c56c	-0.021700583
108	0xbc7937d6	-0.015211066
109	0xbcd94674	-0.026522852
110	0xbbdc2e09	-0.006719355
111	0x3d085ae3	0.0332898
112	0x3c1a9dae	0.009437008
113	0x3a9826c6	0.0011608235
114	0xbd3862fc	-0.045016274
115	0xbd13a676	-0.03604742
116	0x3cf5b4e1	0.029993476
117	0xbd1a6f10	-0.037703574
118	0x3cef84cd	0.029238129
119	0x3c98b17b	0.018639317
120	0x3b03eaf2	0.0020129052
121	0xbcaf9efb	-0.021438112
122	0x3bca9cba	0.006183234
123	0xbd2ed84d	-0.04268675
124	0xbbad20bb	-0.005283443
125	0x3c9a73a2	0.018853966
126	0xbd1abce6	-0.037777804
127	0x3cf944e6	0.030428361
128	0xbcd380cd	-0.025818253
129	0xbc0c61b4	-0.008568216
130	0xbd1d8152	-0.038453408
131	0xbb764e01	-0.0037583115
132	0xbd33d8ba	-0.04390786
133	0xbd040826	-0.032234333
134	0x3d04c831	0.03241748
135	0x3d0a72f6	0.03380104
136	0xbc92dc6d	-0.017927373
137	0x3ceaa334	0.028642274
138	0x3d0f08b5	0.034920413
139	0xbc59e45f	-0.013299077
140	0xbd0b1ba5	-0.03396191
141	0x3cd58c16	0.026067775
142	0x3c971496	0.018442433
143	0xbbdd2e5f	-0.0067499126
144	0xbd0fee79	-0.035139535
145	0x3cb202f4	0.021729924
146	0xbb7773df	-0.0037758274
147	0xbca08a08	-0.019597068
148	0x3c9ade8e	0.01890495
149	0x3cc360bf	0.023849843
150	0xbb5edf10	-0.0034007467
151	0xbd05ef28	-0.03269878
152	0xbc8f4fcf	-0.01749411
153	0x3d006521	0.031346444
154	0xbc16c4ac	-0.009202164
155	0x3cbf8323	0.02337796
156	0xbc630420	-0.013855964
157	0xbcb38855	-0.021915594
158	0xbad8c7e0	-0.001653906
159	0x3ba40042	0.0050049135
160	0x3d0e421a	0.034731008
161	0x3b866d4b	0.004102384
162	0x3c571832	0.013128327
163	0x3c9f9470	0.01947996
164	0xbcd8c4be	-0.026461001
165	0x3c5e9c66	0.013587093
166	0x3af21d50	0.001847187
167	0xbd15fd27	-0.036618378
168	0xbd2a750a	-0.041615523
169	0x3d085252	0.03328163
170	0xbc2dff04	-0.0106198825
171	0xbd0dc10e	-0.03460794
172	0xbd3d6518	-0.04623899
173	0xbcf6ca85	-0.030125866
174	0xbc0a740a	-0.008450517
175	0x3cfe9126	0.031075072
176	0xbcdd9caf	-0.027052252
177	0xbc892702	-0.016742233
178	0x3ba8d766	0.0051526306
179	0x3bf275cb	0.007399296
180	0x3d22444d	0.039615918
181	0xbcccd3fd	-0.025003428
182	0xbd0db47f	-0.034595963
183	0x3cf94f9c	0.030433469
184	0x3c20722d	0.009792847
185	0xbcd82f61	-0.02638978
186	0xbc55417a	-0.013016099
187	0x3c83d394	0.0160921
188	0xbc3ac116	-0.011398574
189	0xbd16c98a	-0.036813296
190	0xbd113fca	-0.035461225
191	0xbcef6eda	-0.029227663
192	0xbc78f565	-0.015195225
193	0x3c31b2aa	0.0108458195
194	0x3c3437f6	0.01099967
195	0x3d010285	0.031496543
196	0x3cb6c041	0.02230847
197	0xba9272e5	-0.0011173157
198	0x3b005238	0.0019580256
199	0x3cb72afb	0.022359362
200	0x3ccf85a2	0.025332276
201	0xbb1f97c7	-0.002435194
202	0xbc750b5e	-0.014956323
203	0xbbeb9fdd	-0.007190688
204	0xbd01a8b1	-0.031655017
205	0x3c4e8d4d	0.012606931
206	0xbd0a3e06	-0.033750556
207	0xbcf97fc5	-0.030456433
208	0xbc859f07	-0.016311182
209	0xbcadf472	-0.021234725
210	0x3ca83db8	0.020537242
211	0xbcd4dbcb	-0.025983712
212	0x3acd0082	0.001564041
213	0x3bef2756	0.0072983904
214	0x3c820526	0.015871596
215	0xba12d535	-0.00056012283
216	0x3c851808	0.01624681
217	0x3ca55b83	0.020185238
218	0xbc92a1a5	-0.017899344
219	0x3cf7d70b	0.030253908
220	0xbd28b503	-0.04118825
221	0xbc93110c	-0.017952465
222	0xbc9ca4ef	-0.019121615
223	0xbbc0ba25	-0.005881565
224	0xbd159a7d	-0.036524285
225	0xbd1263f8	-0.03573987
226	0x3c82d7b5	0.015971998
227	0x3c8d8bed	0.017278636
228	0xbc92d716	-0.017924827
229	0x39f14228	0.00046016392
230	0x3cd5e1db	0.026108673
231	0x3ca9a6dd	0.02070945
232	0x3c21a25b	0.009865369
233	0xbcf4d721	-0.029887738
234	0x3cf88eb1	0.030341478
235	0xbbdfa58d	-0.006825155
236	0xbcd5354b	-0.026026389
237	0xbcd7ab22	-0.02632672
238	0x3c48105b	0.012210931
239	0x3c40c941	0.011766733
240	0x3ba84571	0.005135231
241	0x3c3583d2	0.011078792
242	0xbd0275a1	-0.03185046
243	0xbd179daf	-0.037015613
244	0xbc56b68c	-0.013105046
245	0x3c8acacd	0.016942406
246	0xbc728484	-0.014802102
247	0xbd2a15b6	-0.04152461
248	0xbc58ee0b	-0.013240348
249	0xbd2708d4	-0.040779904
250	0xbbe37ca3	-0.006942348
251	0x3c8327f8	0.01601027
252	0xbd22397a	-0.039605595
253	0xbcfa4a22	-0.030552927
254	0xbd289e83	-0.041166794
255	0xbd18784d	-0.037224103

conv2.bias f4 [7]
0	0xbd364765	-0.04450168
1	0x3d14ece1	0.036358718
2	0xbca3dcc0	-0.020002723
3	0x3ce93d7d	0.028471703
4	0x3c96ee72	0.018424246
5	0x3c4b6879	0.012415045
6	0x3d93ef11	0.07223333

fc1.weight f4 [128, 700]
0	0x3bee2aa5	0.007268267
1	0x3c79bc9a	0.01524272
2	0x3cff4886	0.031162512
3	0x3ccf88fd	0.025333876
4	0xbb952a27	-0.004552144
5	0xbbe33f48	-0.006935034
6	0x3bbe6aba	0.0058110626
7	0xbca14fbd	-0.019691342
8	0xbca0b9ef	-0.01961991
9	0x3d063256	0.032762848
10	0xbcf8eee2	-0.030387346
11	0x3cc589d8	0.02411358
12	0x3c49ae7a	0.012309665
13	0x3cf5088e	0.029911306
14	0x3a749c30	0.0009331135
15	0xbc98c046	-0.01864637
16	0x3d04cfbc	0.032424673
17	0x3cac282d	0.021015251
18	0x3cbefa31	0.02331266
19	0x3c42bb68	0.011885501
20	0x3d1d21f2	0.03836245
21	0x3d1abe68	0.03777924
22	0xbc4627c5	-0.012094443
23	0xb19a3a46	-4.488615e-09
24	0xbd04dfa9	-0.03243986
25	0x3ce21f63	0.027602857
26	0x3c944c1e	0.018102702
27	0x3cd68cac	0.026190124
28	0xbb50cc4d	-0.0031860054
29	0x3d1052c7	0.035235193
30	0x3ce5994b	0.028027197
31	0x3cf47218	0.02983956
32	0x3d0970f6	0.033554994
33	0x3d0efa8f	0.03490692
34	0xbc8bf044	-0.017082341
35	0x3cf6bd44	0.030119546
36	0x3d05e6c7	0.03269079
37	0xbc83f2c4	-0.01610697
38	0x3bc95b32	0.0061449045
39	0x3d003436	0.031299792
40	0x3c4f225c	0.012642469
41	0x3c303c5b	0.010756577
42	0xbc038535	-0.0080273645
43	0xbcfffc76	-0.031248312
44	0xbc582e78	-0.013194673
45	0xbd01559f	-0.031575795
46	0x3cf8d14e	0.030373242
47	0x3d16c931	0.036812965
48	0xbcac2162	-0.021012012
49	0x3b8370c1	0.004011244
50	0x3d0fccdd	0.035107482
51	0x3c6a0ab5	0.014284779
52	0x3b8373db	0.004011614
53	0x3cf54c02	0.02994347
54	0xbd15469d	-0.036444295
55	0x3c88a90f	0.016682176
56	0xbce208df	-0.02759212
57	0x3cbc4812	0.022983585
58	0xbc4c92ec	-0.012486201
59	0xbc9da51e	-0.019243773
60	0x3d13c6cc	0.03607826
61	0xbc93d12b	-0.018044075
62	0xbc811121	-0.015755238
63	0xbcd8c533	-0.02646122
64	0x3c9674cb	0.018366238
65	0xbbe2b1c4	-0.006918164
66	0xbcea41a9	-0.028595762
67	0x3cc2c2b3	0.02377448
68	0x3d0781d7	0.03308281
69	0x3c592a5d	0.013254729
70	0x3c54c363	0.012986037
71	0xbc9dd204	-0.019265182
72	0x3ce9c6d0	0.028537184
73	0xbcdde8ba	-0.027088512
74	0x3c9e6c31	0.019338699
75	0x3cc7ca7a	0.02438854
76	0xbc2f04b0	-0.01068227
77	0xbcadb1db	-0.021202972
78	0xbc97c3cb	-0.018525979
79	0xbc981bd8	-0.018567964
80	0xbc26aa39	-0.01017242
81	0x3c856814	0.01628498
82	0x3c10c559	0.008836114
83	0xbbb03139	-0.0053769615
84	0x3c597149	0.013271638
85	0x3d1ddf38	0.038542956
86	0x3bf2fafc	0.0074151736
87	0x3d040037	0.032226767
88	0x3bf7f614	0.0075671766
89	0xbbeb5631	-0.0071819057
90	0x3bc895df	0.0061213817
91	0xbd0b0f14	-0.033949926
92	0x3c200664	0.009767149
93	0x3ca213aa	0.019784767
94	0xbb08b123	-0.0020857535
95	0x3ce0ab7d	0.027425522
96	0x3c98e870	0.018665522
97	0x3b93a070	0.0045052096
98	0x3beb01ce	0.007171846
99	0x3b169e91	0.0022982697
100	0xbcb1941d	-0.021677071
101	0x3cecd116	0.028908294
102	0x3c2125dd	0.0098356875
103	0xbc15f66b	-0.009152989
104	0x3caed602	0.021342281
105	0x3c50c5ab	0.01274244
106	0xbc9fbe5d	-0.019499952
107	0xbce2222e	-0.027604189
108	0xbd15a353	-0.03653271
109	0x3be2b4a1	0.0069185053
110	0xbcebd2f1	-0.028787108
111	0x3ca5685a	0.02019136
112	0xbcdb0b68	-0.026738837
113	0x3bb783a0	0.0056004077
114	0x3cf4a82c	0.029865347
115	0x3cd7c27b	0.026337853
116	0xbc6eeb3d	-0.014582452
117	0xbd022a70	-0.031778753
118	0xbc56700d	-0.013088238
119	0xbd2c9f75	-0.042144258
120	0x3c86e60e	0.01646712
121	0xbccdaaf9	-0.02510594
122	0x3c50c750	0.012742832
123	0xbb71042d	-0.003677617
124	0xbcd46346	-0.025926244
125	0x3c66914b	0.0140727265
126	0x3cd56f95	0.026054183
127	0xbc621b93	-0.0138005195
128	0xbca86e73	-0.020560479
129	0x3c836609	0.016039865
130	0x3cb9c806	0.022678386
131	0xbd0456f1	-0.032309476
132	0x3a135a0e	0.0005621024
133	0xbd67ef80	-0.05662489
134	0x3bba5c67	0.0056872847
135	0xb9ce58d5	-0.00039357567
136	0xbcec93c1	-0.028879048
137	0x3be175c0	0.006880492
138	0xbc676712	-0.014123695
139	0xbce9caab	-0.028539022
140	0x3bb9c8a3	0.0056696697
141	0x3c94095d	0.018070871
142	0xbc971286	-0.01844145
143	0x3b186ac8	0.0023257006
144	0x3c5b37e7	0.013380027
145	0xbb90c838	-0.004418399
146	0xbc784e0a	-0.015155325
147	0xbc651cb5	-0.013983895
148	0x3d0fccc7	0.0351074
149	0xbd42dc40	-0.047573328
150	0xbcba0501	-0.022707464
151	0xb6cc6173	-6.0910183e-06
152	0xbd32345f	-0.043506976
153	0x3cfe0459	0.031007932
154	0xbb7885b2	-0.0037921485
155	0xbd09357e	-0.03349828
156	0x3c984e50	0.01859203
157	0xbc9ef9a5	-0.01940615
158	0xbce5d773	-0.028056836
159	0xbd752fdf	-0.059860107
160	0x3cc3bdf3	0.023894286
161	0x3d16e0d8	0.03683552
162	0x3a67d9de	0.00088444154
163	0x3d3668d9	0.044533584
164	0x3d26c947	0.040719297
165	0xbca368e9	-0.019947486
166	0xbb81ef9d	-0.0039653317
167	0x3c098998	0.008394621
168	0xbc59fbdf	-0.01330468
169	0xbd7a07ba	-0.061042525
170	0xba1197ac	-0.0005553912
171	0x3cd65de4	0.026167817
172	0x3c6e15ef	0.014531597
173	0x3d944eb5	0.07241575
174	0x3d737499	0.059437368
175	0xbc65eb04	-0.014033083
176	0x3c42eb78	0.01189696
177	0xbbacb3e9	-0.0052704704
178	0x39b9c446	0.00035432185
179	0xbc37f77d	-0.011228439
180	0x3d3aee01	0.045637134
181	0x3cc78268	0.024354175
182	0x3cfb3539	0.030665027
183	0x3c437587	0.011929876
184	0x3ba8f1bd	0.0051557706
185	0x3d0969fa	0.033548333
186	0x3d3e23df	0.046420928
187	0x3d5dbea1	0.054136876
188	0x3d105495	0.035236914
189	0x3c2cec96	0.010554453
190	0x3caa6d6c	0.02080413
191	0xbb21eb3a	-0.0024706856
192	0x3cb431f6	0.02199648
193	0x3d658c5a	0.056042053
194	0x3b5d0f49	0.0033731034
195	0x3d395a79	0.045252297
196	0x3d5e9eb0	0.054350555
197	0x3d05df35	0.03268357
198	0x3c707204	0.014675621
199	0x3d023578	0.031789273
200	0x3c83b7d6	0.01607887
201	0x3d053d4c	0.03252916
202	0xbd0a0481	-0.0336957
203	0x3c9c6f9b	0.019096186
204	0xbcd2b5e9	-0.025721507
205	0xbc958069	-0.018249707
206	0x3bad2e52	0.005285063
207	0x3c37bbb4	0.0112141855
208	0xbce8118b	-0.028328678
209	0xbc3fb77e	-0.011701463
210	0x3cc28dd5	0.023749271
211	0x3b8a273c	0.004216103
212	0xbd11b79e	-0.0355755
213	0x3cafab10	0.021443874
214	0x3d010fd6	0.031509243
215	0xbcc3af50	-0.023887306
216	0xbc36cf52	-0.011157827
217	0xbb13585c	-0.0022483086
218	0xbca64774	-0.020297743
219	0xbd14cc2d	-0.03632753
220	0x3ccae6e8	0.024768308
221	0xbbc7d0f2	-0.0060979063
222	0x3d3948c3	0.045235407
223	0x3ca8a49c	0.020586304
224	0x3d1624ef	0.036656316
225	0xbc92a5ad	-0.017901266
226	0x3c12d991	0.008963005
227	0xba85a1d5	-0.0010195324
228	0xbc7b83df	-0.015351265
229	0xbc77424e	-0.015091492
230	0xbbc06b13	-0.0058721392
231	0x3d0bf2dd	0.03416716
232	0x3d47bbb5	0.048762996
233	0x3d69ada3	0.05705036
234	0x3cb3d8f1	0.021954032
235	0xbbcf5c9d	-0.006328179
236	0x3d22a061	0.03970373
237	0x3ca16405	0.019701013
238	0xbd01c038	-0.031677455
239	0x3c04c82e	0.008104367
240	0x3d186bf1	0.037212316
241	0x3d0f3bc9	0.034969125
242	0x3bb9680f	0.0056581567
243	0x3cea6cd7	0.028616352
244	0x3d12704f	0.035751637
245	0x3af18579	0.0018426619
246	0x3c9fb0f1	0.019493552
247	0x3aae63bf	0.0013304873
248	0x3cd11e93	0.025527274
249	0x3ce21e6e	0.0276024
250	0x3c676993	0.014124292
251	0xbcfa692a	-0.030567724
252	0x3cf3177d	0.029674286
253	0xbc48058f	-0.0122083565
254	0x3c46c51b	0.012131955
255	0x3d82f39b	0.0639412

fc1.bias f4 [128]
0	0xbcb6ee59	-0.02233045
1	0xbb8023ff	-0.003910541
2	0x3ca6e52d	0.020372951
3	0x3c2a7716	0.010404369
4	0xbcf554b4	-0.029947616
5	0x3d28913d	0.041154135
6	0xbc6dc651	-0.014512614
7	0x39811061	0.00024617
8	0x3cbca25f	0.023026643
9	0x3d635aaf	0.055506404
10	0x3cb93461	0.022607984
11	0x3c1cf00d	0.009578717
12	0xbc10d0c8	-0.00883884
13	0xbc291b41	-0.010321439
14	0x3d48e6da	0.049048282
15	0x3d249e9f	0.040190335
16	0xbcd02d6e	-0.025412288
17	0xbd33d4b4	-0.04390402
18	0x3d40bd45	0.0470555
19	0xbc593a2f	-0.013258501
20	0xb93aafd5	-0.00017803845
21	0x3d7211e6	0.0590991
22	0x3d27b8cd	0.040947724
23	0xbd2c83d8	-0.042117923
24	0xbbe657c1	-0.007029504
25	0x3c4c64ad	0.012475175
26	0x3d0a1fa4	0.03372158
27	0xbc723b9a	-0.014784718
28	0xbd3b1c22	-0.045681126
29	0xbd2ded3e	-0.04246258
30	0xbd292836	-0.041298114
31	0x3c7787cf	0.015108063
32	0xbd1397a3	-0.036033284
33	0x3d52c7de	0.05146014
34	0xbcbc7e76	-0.02300952
35	0x3d1bd941	0.038048986
36	0x3c73d22d	0.014881653
37	0x3cd1248e	0.025530126
38	0xbc0f87d0	-0.008760408
39	0xbc69d093	-0.014270919
40	0x3c201e3e	0.009772835
41	0xbb282e35	-0.0025662307
42	0xbc8fb61a	-0.017542887
43	0xbc6e054f	-0.014527633
44	0x3c0216ad	0.007939977
45	0xbc238366	-0.009980058
46	0x3beaf4df	0.007170304
47	0x3b0fb875	0.0021930013
48	0x3caeff15	0.021361867
49	0x3d138213	0.03601272
50	0xbd2a0094	-0.041504458
51	0x3d28c040	0.04119897
52	0x3da8b421	0.08237482
53	0x3d7f1034	0.062271312
54	0x3cc52ae2	0.0240683
55	0xbd1af805	-0.037834186
56	0xbd13b027	-0.036056664
57	0x3c950e37	0.018195255
58	0xb8d610d0	-0.00010207447
59	0xbd00d70a	-0.031455077
60	0x3d71ddb6	0.05904933
61	0x3c401850	0.011724547
62	0xbcaf5b02	-0.0214057
63	0x3c34b3e9	0.011029222
64	0x3d62261c	0.055212125
65	0xbcc2f6a1	-0.023799242
66	0xbd34627f	-0.044039246
67	0x3d4bdda7	0.04977193
68	0xbd220417	-0.03955468
69	0x3d7a4b85	0.061107177
70	0xbc093a35	-0.008375694
71	0x3d306f33	0.043074798
72	0x3b9e6411	0.004833706
73	0x3cd078c2	0.025448207
74	0x3ceec561	0.029146852
75	0x3d455cc7	0.048184182
76	0x3d10abdb	0.035320144
77	0xbd1f3379	-0.038867448
78	0xbca7c479	-0.020479428
79	0x3cfa2fdd	0.030540401
80	0x3bc02be8	0.005864609
81	0x3d7caeb5	0.06169005
82	0x3cdb1f23	0.026748246
83	0xbd7689ce	-0.060190015
84	0x3d369202	0.044572838
85	0xbba3a176	-0.004993613
86	0x3b8e7855	0.004347841
87	0x3cb938f7	0.02261017
88	0xbc23fd6f	-0.010009154
89	0xbc5ed6e2	-0.013601037
90	0xbc088ab1	-0.008333848
91	0x3bff7acc	0.007796621
92	0xbc6e3058	-0.014537893
93	0xbd23e025	-0.040008683
94	0x3cb00996	0.021488946
95	0xbcdb5c96	-0.026777547
96	0xbd0f11ad	-0.034928966
97	0xbc164b8b	-0.009173284
98	0xbc1c71ff	-0.009548663
99	0xbbfc9c05	-0.0077090287
100	0xbcbe946d	-0.023264134
101	0x3ced783c	0.028987996
102	0xbc97308f	-0.018455772
103	0xbd42de76	-0.047575437
104	0xbc06dbb7	-0.008231095
105	0xbc62f732	-0.013852881
106	0x3c1b3ca1	0.009474904
107	0x3c543034	0.012950946
108	0xbc9e3bce	-0.019315626
109	0x3b4bcb65	0.0031096574
110	0xbcf8ae22	-0.03035647
111	0x3bb944ed	0.0056539685
112	0x3b789c62	0.0037935008
113	0x3ca772c6	0.02044047
114	0xbcb29881	-0.021801235
115	0xbd84fd9d	-0.064936854
116	0x3d2ca586	0.042150043
117	0x3bd55f6d	0.00651162
118	0xb9e51a2e	-0.0004369779
119	0xbb7dee3c	-0.0038746735
120	0x3d440f33	0.047866058
121	0x3bb35541	0.0054728095
122	0xbcb1e93e	-0.021717664
123	0xbc4da64d	-0.012551856
124	0xbd299cf3	-0.041409444
125	0x3d10ceb5	0.03535338
126	0xbc4c75f9	-0.012479299
127	0x3d85eaaf	0.06538903

fc2.weight f4 [10, 128]
0	0x3d691e1c	0.05691348
1	0xbd68bf5e	-0.056823127
2	0x3d9d6704	0.07685664
3	0x3c82a770	0.015948981
4	0x3dcbcb40	0.09950876
5	0x38e2d893	0.0001081686
6	0xbcf541a2	-0.029938523
7	0xbdcbc8d1	-0.09950412
8	0xbceab048	-0.02864851
9	0x3bf24f00	0.0073946714
10	0xba98cf6d	-0.0011658497
11	0x3dd75af8	0.10515398
12	0x3cbb9ca1	0.022901835
13	0xbddaec6c	-0.10689625
14	0x3cda056b	0.026613912
15	0xbd810c8e	-0.06301223
16	0xbda291db	-0.07937976
17	0x3d485bfd	0.04891585
18	0xbb48f24e	-0.0030662003
19	0x3d4c7bd2	0.04992277
20	0x3dc21b23	0.09477832
21	0x3cfe66ae	0.03105482
22	0xbd95aaa2	-0.07307936
23	0xbd8053e7	-0.06266003
24	0x3d8f96e5	0.07011203
25	0x3acfd003	0.0015854839
26	0x3d3f0c8d	0.04664283
27	0x3da1c2e9	0.07898504
28	0x3d80a1e2	0.06280877
29	0x3d11317b	0.03544758
30	0xbc805433	-0.01566515
31	0xbe0bcae0	-0.1365161
32	0xbcd6a703	-0.026202684
33	0xbd8185a1	-0.06324316
34	0x3d97df22	0.07415606
35	0xbd6247a2	-0.055244096
36	0x3d1b82ce	0.037966542
37	0x3de88fb3	0.113555335
38	0x3dcbb0e6	0.0994585
39	0xbd1cddf3	-0.038297605
40	0xbcf8de11	-0.030379327
41	0x3dba3093	0.09091296
42	0xbda6221c	-0.081119746
43	0x3d1b4780	0.037909985
44	0xbd959060	-0.07302928
45	0x3da38013	0.079834126
46	0xbc8eea3a	-0.017445672
47	0xbd2213f3	-0.039569806
48	0xbc9e07f2	-0.019290898
49	0xbd358082	-0.044312008
50	0xbc1b9905	-0.009496932
51	0x3d8eadf6	0.06966774
52	0x3d952b7b	0.07283684
53	0xbcbf1b14	-0.023328342
54	0xbda4a1ea	-0.08038695
55	0x3bd3c537	0.006462719
56	0xbd4024ec	-0.04691021
57	0x3d519d72	0.051175542
58	0x3d988e6c	0.0744904
59	0xbce112ab	-0.027474722
60	0xbd54fd54	-0.051999405
61	0x3acc673d	0.0015594732
62	0xbd88821d	-0.06665442
63	0xbcec51fd	-0.028847689
64	0xbe0ab71f	-0.13546418
65	0xbd695eef	-0.0569753
66	0x3c292541	0.010323823
67	0xbd97b0ff	-0.07406806
68	0xbd81947c	-0.06327149
69	0xbd8d18bf	-0.068894856
70	0xbdcbe4a6	-0.099557206
71	0x3dae4b2c	0.08510432
72	0x3b9175ba	0.004439083
73	0xbd6037ac	-0.054740593
74	0xbd7426b1	-0.05960721
75	0x3c22083d	0.0098896595
76	0xbd2cacde	-0.042157046
77	0x3dca3c62	0.09874798
78	0x3cbf2648	0.023333684
79	0x3dd84697	0.10560339
80	0x3d953793	0.072859906
81	0xba97549d	-0.0011545602
82	0x3d937842	0.07200672
83	0x3dab7911	0.08372701
84	0xbcf0f633	-0.029414272
85	0xbcfd695f	-0.030934034
86	0x3c93faeb	0.018063983
87	0xbdd0ac05	-0.1018906
88	0x3c5afec4	0.013366405
89	0xbd1b8c7f	-0.037975784
90	0x3d43b2ce	0.047777943
91	0xbdbd99af	-0.092578284
92	0x3d4e99e4	0.05043973
93	0x3c02d107	0.007984406
94	0xbc889f5e	-0.016677555
95	0x3c81a5a9	0.015826063
96	0xbcd5defe	-0.026107308
97	0x3cc00e53	0.02344433
98	0xbd966ae8	-0.073446095
99	0x3cc28ace	0.023747828
100	0xbdf178e2	-0.11790635
101	0xbb6440fd	-0.0034828775
102	0x3db20d77	0.086939745
103	0x3d111486	0.035419963
104	0xbe010371	-0.12598969
105	0x3d44df57	0.048064556
106	0x3d926b9b	0.0714943
107	0xbd8301cb	-0.06396826
108	0xbd13ab0f	-0.036051806
109	0x3ba24fc4	0.0049533565
110	0x3d6759b1	0.05648202
111	0xbd9e479b	-0.077285014
112	0xbd964a0c	-0.07338342
113	0xbc4c4ab1	-0.01246898
114	0xbcd6c254	-0.02621571
115	0xba16c017	-0.00057506695
116	0x3c242580	0.010018706
117	0xbd903b35	-0.07042543
118	0x3c48385b	0.012220467
119	0xbbfc97f0	-0.007708542
120	0xbd294a1d	-0.041330446
121	0xbce8cb0f	-0.028417138
122	0xbcb895ab	-0.022532305
123	0x3dbe5001	0.09292603
124	0xbd4e3842	-0.05034662
125	0x3c970cf1	0.018438788
126	0x3beb058a	0.007172291
127	0xbda1807b	-0.07885834
128	0x3d1b5a24	0.03792776
129	0xbd7d8e4a	-0.061903276
130	0xbd583ca3	-0.052792203
131	0x3d4228dd	0.04740225
132	0xbdaf8ef6	-0.085721895
133	0x3dc05929	0.09392006
134	0x3dc7e905	0.09761242
135	0xbdc38e59	-0.09548635
136	0xbd4ab8ec	-0.04949276
137	0x3db7d577	0.08976262
138	0xbdf5ea96	-0.12007634
139	0xbdb3e52a	-0.08783944
140	0x3d7db3e0	0.06193912
141	0xbd8bf6c9	-0.0683418
142	0x3dc257fe	0.094894394
143	0x3d87fd67	0.066401295
144	0xbdc225f8	-0.09479898
145	0xbd8482a6	-0.06470232
146	0x3cd1f684	0.025630243
147	0xbd9f1059	-0.0776679
148	0x3d2c2868	0.042030722
149	0xbdeb3644	-0.1148496
150	0x3b9a0312	0.004700073
151	0x3d0aadab	0.03385703
152	0xbd10acdf	-0.035321113
153	0xbde15e6e	-0.11004339
154	0x3d3ce9d4	0.046121433
155	0x3b5b5adb	0.0033470902
156	0xbe1895d1	-0.149009
157	0xbddf16d9	-0.1089303
158	0x3de68caa	0.11257298
159	0x3da34be6	0.07973461
160	0x3cc414a5	0.023935625
161	0x3ca8dc87	0.020612968
162	0xbd679e3a	-0.05654738
163	0xbe031aee	-0.12803242
164	0x3daae5a4	0.08344582
165	0xbc6a6bb6	-0.014307907
166	0x3cf55640	0.029948354
167	0xbd0e6f55	-0.034774143
168	0x3dd601fc	0.10449597
169	0xbcf72f55	-0.030173937
170	0xbdc5581a	-0.09635945
171	0xbdec394f	-0.11534368
172	0xbca40ad5	-0.020024696
173	0xbdc75490	-0.09732926
174	0xbdb50db3	-0.088405035
175	0xbd86ec0b	-0.065879904
176	0x3d155952	0.036462136
177	0x3dbfd3ac	0.09366545
178	0xbdaffb09	-0.08592803
179	0x3e1651ed	0.1467969
180	0xbd367f9c	-0.04455529
181	0x3d9a18b3	0.07524242
182	0x3d376a16	0.044778906
183	0x3de0575b	0.10954162
184	0xbd3859bd	-0.045007456
185	0xbc699782	-0.014257314
186	0xbd45fcc3	-0.048336755
187	0x3cdf6e12	0.027274165
188	0x3da88cbf	0.0822997
189	0x3c0ac057	0.008468709
190	0xbd6addc4	-0.0573404
191	0x3dabc509	0.08387191
192	0xbdd3be72	-0.10339059
193	0xbdd4cdd4	-0.10390821
194	0xbdb63ac7	-0.0889793
195	0xbcfe0e16	-0.031012576
196	0x3d102296	0.035189234
197	0x3defaf22	0.11703326
198	0xbd8175ee	-0.063213214
199	0x3db0a8b4	0.086259276
200	0x3c8357a0	0.016032994
201	0x3cae84a5	0.021303484
202	0x3c1cbf7e	0.00956714
203	0xbdb96c21	-0.09053827
204	0x3ccb45d3	0.024813568
205	0xbd9ae7c7	-0.07563739
206	0xbdc4848b	-0.09595593
207	0x3d86829b	0.0656788
208	0x3d92240c	0.07135782
209	0xbd1d1122	-0.038346417
210	0xbd73a407	-0.0594826
211	0xbd957295	-0.072972454
212	0xbd92fc78	-0.07177061
213	0xbd1d5ff3	-0.038421582
214	0xbdc9ca8a	-0.098530844
215	0x3d60c512	0.05487544
216	0xbd5b0b8d	-0.053477813
217	0xbdcc4b42	-0.09975292
218	0x3d440f23	0.047865998
219	0x3da1b669	0.0789612
220	0xbde8fbcb	-0.11376151
221	0xbdef7eb0	-0.116940856
222	0xbdf0b615	-0.117534794
223	0xbd1aef7c	-0.037826046
224	0xbc9466d7	-0.018115444
225	0xbcc256e6	-0.023723077
226	0x3c8fe714	0.017566241
227	0x3daca366	0.08429603
228	0xbd5e3629	-0.05425087
229	0x3d961f55	0.07330195
230	0xbcaf3554	-0.021387734
231	0x3d70f9e0	0.05883205
232	0x3d919b5f	0.07109713
233	0x3d787c2e	0.060665302
234	0xbd61ec6e	-0.055157118
235	0x3d523567	0.05132046
236	0xbddf9d2d	-0.10918651
237	0xbca415c5	-0.020029912
238	0x3ce8f48d	0.028436923
239	0x3d4267d5	0.047462303
240	0x3dc94eb5	0.09829465
241	0x3dc7aa11	0.097492345
242	0x3caa94ac	0.020822845
243	0xbda8431d	-0.08215926
244	0xbe058686	-0.13039598
245	0x3dd4591b	0.10368558
246	0x3dce8455	0.10083834
247	0xbda84a2c	-0.08217272
248	0x3cad1cb8	0.021131858
249	0x3c33d706	0.010976559
250	0x3d46c5b5	0.048528392
251	0xbc3b970e	-0.011449588
252	0x3cad5d39	0.021162616
253	0x396e5d53	0.00022732215
254	0xbd8e9aa9	-0.06963093
255	0x3dc9b11c	0.09848234

fc2.bias f4 [10]
0	0xbd9df39e	-0.07712482
1	0x3d550dab	0.052014988
2	0x3c3b9e91	0.011451379
3	0x3d41071e	0.047125928
4	0xbd1d798a	-0.038445987
5	0xbd4de4d6	-0.050267063
6	0x3d30856d	0.043095995
7	0x3dc1415c	0.094362944
8	0xbd446781	-0.04795027
9	0x3d581f07	0.052763965
