example/cnn_avgpool.onnx (onnx, 1261 bytes, 4 tensors)

0.weight f4 [2, 3, 3, 3]
00000000: 2c03 6bbd ca2b 17be 33c4 14be e71c 1fbe
00000010: 275b ac3d 21cc ef3d fc49 4abd b0c4 37be
00000020: 391f ef3d e4a9 2c3d a2c3 c2bc da66 c83d
00000030: ce55 0fbe 4d2c 38be 5376 ae3d 172a 363e
00000040: a8df 263e 4944 dabd 13fd e3bd 251d 583d
00000050: 368a 7b3d 272f f7bd 47f2 05bc baa5 253d
00000060: 2182 d2bd 69ba 24be bcee b8bd c19f bbbd
00000070: f269 c1bd 522b fb3d ecf8 0cbe 6a7d e43d
00000080: 5aad ecbc fbfb 8a3d 59c3 1cbe a470 253e
00000090: b63b 023e c9a6 293e 5138 533a 1e6b 21be
000000a0: 0240 19bd b08d 89bd 9acc 7ebd 60b6 3e3e
000000b0: adc2 213e c5a5 bb3d 3c14 6c3d 66bd 5ebd
000000c0: 98bd 16be 5d5b 943d 6964 0b3e 48ce e8bc
000000d0: e2fc 083e abc1 103e
-0.05737607 -0.14762798 -0.14527969 -0.15538369 0.084158234 0.117088564 -0.049386963 -0.17946124
0.11675877 0.042154208 -0.023774926 0.097852424 -0.13997576 -0.1798565 0.08518662 0.17789494
0.16296256 -0.106575556 -0.111322545 0.05276217 0.061411105 -0.120695405 -0.008175439 0.040441252
-0.10278726 -0.16086735 -0.0902991 -0.0916133 -0.094440356 0.12264122 -0.13766831 0.11156733
-0.028891254 0.06786343 -0.15308894 0.1615625 0.1271809 0.1656753 0.0008057403 -0.15763518
-0.03741456 -0.06716478 -0.062206842 0.18624258 0.15796919 0.091624774 0.057636485 -0.054379843
-0.14720762 0.07243989 0.13612522 -0.028418675 0.13377717 0.14136378

0.bias f4 [2]
00000000: 6d40 773d acac 1b3e
0.060364176 0.15202588

4.weight f4 [2, 8]
00000000: cf9a 7b3e ee87 613e daba 05be 29b4 28be
00000010: 993f 193e f794 823e d29a 993e db86 9b3e
00000020: 5d5d 69be f432 a63e 8cc5 4a3d 81bc 123e
00000030: c3e3 923c 6e00 553e 8edf 87be 2e24 423e
0.24570774 0.2202451 -0.1305956 -0.16474976 0.14965667 0.25504276 0.3000093 0.30376324
-0.22789522 0.3246075 0.0495048 0.14329721 0.01793087 0.20800945 -0.26537746 0.18959114

4.bias f4 [2]
00000000: dcf5 013d f104 543e
0.03172861 0.2070501
