Experiment/benchmark/cnn_small/onnx/simple_cnn_3x13.onnx (onnx, 401809 bytes, 6 tensors)

conv1.weight f4 [3, 1, 13, 13]
00000000: 2f81 a73d 6dd4 c43c 2a3a ca3d d547 933d
00000010: 036b c03d d034 7c3d 75f9 35bb 5121 ca3c
00000020: 6475 1abd 9625 81bd 3db9 f1bd 6d44 cebd
00000030: deae b3bd 3531 d83d a4ac b73d 5de8 3b3c
00000040: e8f5 cf3c e382 df3d 3d80 183e 440e 063e
00000050: 2ba4 e83d 3a09 1dbc 9bc2 c6bc b6e0 b0bc
00000060: fe7e c7bd a9d2 743d d011 c33d 33db 8d3d
00000070: a1cd 8d3d 6704 273d 2f28 3c3d 5a3f cebc
00000080: 79ce de3c a405 7c3b d0bb 473d 35b5 71bd
00000090: f434 7e3d 8037 703d 021f 963d 7fc8 dc3c
000000a0: 368d 32bb b68a c23b 2525 94bd aa4e b4bc
000000b0: 7968 7abd f065 b03c 7e7f b0bc bdf5 533c
000000c0: 6f61 11bd c445 c33d e4fe 933b 7605 85bc
000000d0: f2e5 253d 66d7 30bd 880d 2fbb 2533 40bd
000000e0: e74e b4bd df88 e1bd fc02 923c 8227 053c
000000f0: 6681 c2bc eeb2 533d 615e a53d b46a 113d
00000100: 92eb 9e3d 6c06 b63d 7b9c 923c e72e a5bd
00000110: 2396 48bd bee8 6b3c f474 c4bd 420b 9dbd
00000120: 66ed c83c 52b0 6bbd 69fc ca3d edb9 cb3d
00000130: ec17 983d 8154 a93d 65bb 863d a4a4 a9bc
00000140: fef4 d9bd cbad 09be a3d7 eabd 956d 7bbc
00000150: 1fff 50bc c790 03bd b1ae 133d 6096 b4bc
00000160: dae6 fab9 6c31 ff3d 952f ba3d e065 94bc
00000170: 0b2d 773d 0d4d 57bd 6e8c d4bd f4de 9bbd
00000180: 8e09 48bd c2dd 78bd df3b 8ebd 626a 68bd
00000190: ecf2 d4bc b5e6 3bbd 55fc 793d 3691 c03d
000001a0: 3348 813d 77d3 343d 6101 d8bd b963 d9bd
000001b0: 04ea 1fbd a073 773c 1215 263c d1b5 96ba
000001c0: 8120 65bd 08dc 46bd a600 aa3d 5aab bb3d
000001d0: 2f64 b53c ba6c 853d 2164 8f3d c45a 4dbb
000001e0: 1cc7 6d3d 68a4 b83d 4b1b 363d dd39 263d
000001f0: 45da ac3a ee29 0f3d b329 2f3c 46f0 f93c
00000200: 539f 893d 2510 dc3d 0919 bc3d 3bea f33d
00000210: ef5f 023e c094 223d 3f5d af3d 41ba 163e
00000220: 19f3 083e f616 19bd e08f b1bd 565b e2bc
00000230: 5a13 233d c6c2 da3d eedd d43d 69e1 8e3d
00000240: 8ff1 c83d becc be3d b226 c33d 7023 b03c
00000250: c029 9f3c ccf1 d8bb be15 023d 1f49 803d
00000260: 1d40 e9bc f30b a03b 025a d53d bd16 db3c
00000270: 013a 943d 02b8 a63d 7a7e deba 5376 1abd
00000280: eb46 d0bc 0187 893d 41e6 9c3c 8027 d23c
00000290: 9ca9 c33c 3570 0c3d 1bdd 4d3d 02fe 813d
000002a0: 4392 d13d 259b 8e3d 9b6d 7c3d f525 25bd
000002b0: 4905 803b 3d63 56bd b1a2 b7bd 3225 1cbd
000002c0: d337 ddbb f8b6 aebd 7627 45bb 7d6d 31bd
000002d0: d725 acbd 9177 68bd 12ba a43d eb5a 6cbd
000002e0: d8e0 22bd db59 6abd 9afa 62bc 1b2d aebd
000002f0: 3b68 dbbd d17b adbd d7c3 b5bd cd23 e1bc
00000300: 9b7f 25be 08b0 3fbd bc90 83bd 15a3 dfbc
00000310: 8086 11bc a80a a8bd d467 9cbd 8938 76bd
00000320: 58b2 a1bd 32d7 43bd 8683 01be 4bbd fabc
00000330: ec31 30be 2874 b1bd 032d 0cbe 0897 fcbd
00000340: b640 a6bc d47c 0d3d 61f9 d33c 7472 7d3d
00000350: 1377 c9bd 20e9 02be d3b5 a4bd f9ce 94bd
00000360: 6720 f4bd 1108 f5bd 4f4e dbbd cb75 9d3c
00000370: cf5f 3cbd 01a4 d138 f3b7 9c3d f70e 003e
00000380: 3492 7f3b 89c4 88bd c2ef 6ebd 5d9d 1bbc
00000390: 9d89 94bc 1872 803c 56eb 363d b318 22bc
000003a0: 9cbd 003d 63c0 423c 8027 e63d 2c96 e23d
000003b0: 94fc bb3d 6c56 e23d 8c80 c5bc b988 46bd
000003c0: 5e0c 2cbc 48db 203c b509 d3bc ca4c 373c
000003d0: 4ffb df3d f7a2 583d 0399 143e 04dd bdbc
000003e0: a0fc 483d e893 623c 0b3e 013e ee89 c43d
000003f0: 515e d53c 27f6 e23d c6d9 e23c 5065 623d
0.08178937 0.024027074 0.09874375 0.07191435 0.09395411 0.061573803 -0.0027767096 0.02467409
-0.03770961 -0.06305997 -0.118029095 -0.10071645 -0.08773588 0.105562605 0.089684755 0.011468974
0.025385812 0.109136365 0.14892669 0.1309138 0.113594376 -0.009584719 -0.024262717 -0.021591526
-0.09741019 0.059771214 0.09524882 0.069265746 0.06923986 0.040775683 0.04593676 -0.025176693
0.027198063 0.003845551 0.048763096 -0.059010703 0.06206222 0.05864668 0.07330133 0.026951073
-0.0027244813 0.005936946 -0.07233647 -0.022010166 -0.06113479 0.021532983 -0.021545168 0.012937007
-0.03549331 0.09534791 0.0045164693 -0.016237956 0.040502496 -0.04317417 -0.0026710946 -0.046923775
-0.08804112 -0.11012434 0.017823689 0.008127095 -0.023743343 0.051684313 0.08074642 0.03550215
0.07759775 0.088879436 0.017896881 -0.080655865 -0.048971307 0.014398752 -0.095926195 -0.07668163
0.024527263 -0.0575412 0.09911425 0.09947572 0.07426438 0.08268071 0.065787114 -0.02070839
-0.10642432 -0.13445203 -0.11466911 -0.015345951 -0.012756138 -0.032120492 0.03605527 -0.02204436
-0.00047855714 0.12460598 0.09091107 -0.018114984 0.06034569 -0.052563716 -0.10378347 -0.07610884
-0.048837237 -0.06075836 -0.06945013 -0.05674208 -0.02599474 -0.045874316 0.06103166 0.09402697
0.06312599 0.04414698 -0.10547138 -0.10614724 -0.039041534 0.015103251 0.0101368595 -0.0011498277
-0.0559392 -0.048549682 0.08300905 0.09163542 0.022142498 0.065148786 0.0700152 -0.0031334618
0.058051214 0.09015733 0.044459622 0.040582526 0.0013187608 0.034952097 0.010691094 0.03051008
0.06719842 0.10745267 0.091844626 0.1190991 0.12731908 0.03969264 0.08562707 0.14719488
0.13373984 -0.037375413 -0.0867002 -0.027631443 0.039813377 0.10681681 0.10393892 0.06976587
0.09811699 0.09316395 0.09528865 0.021501273 0.019429088 -0.0066206213 0.031759016 0.06263947
-0.028472954 0.004884237 0.10417558 0.02674424 0.07237626 0.081405655 -0.0016974949 -0.0377105
-0.025424441 0.06715203 0.019152762 0.0256536 0.023884587 0.034286696 0.05025969 0.06347276
0.10232975 0.06963185 0.061627965 -0.0403194 0.00390688 -0.052340735 -0.08966578 -0.03812141
-0.0067510395 -0.08530992 -0.0030083335 -0.043317307 -0.08405655 -0.056754652 0.080433026 -0.057703894
-0.03976521 -0.0572146 -0.013853693 -0.08504697 -0.1071324 -0.08470882 -0.08875244 -0.027482891
-0.16161959 -0.046798736 -0.0642409 -0.027299443 -0.008882165 -0.082051575 -0.07636991 -0.06011251
-0.078953445 -0.047812648 -0.12647828 -0.03060784 -0.17206544 -0.08664733 -0.13689046 -0.123334944
-0.020294528 0.034542874 0.025875749 0.06187673 -0.09837165 -0.12784243 -0.08042493 -0.072660394
-0.11920243 -0.11964429 -0.107082956 0.019221207 -0.045989808 9.996445e-05 0.07652273 0.12505709
0.0038997056 -0.06678111 -0.05833412 -0.009497968 -0.018132025 0.015679404 0.044658028 -0.009893584
0.031430826 0.011886689 0.11238003 0.11063799 0.09179035 0.1105164 -0.024109147 -0.048470233
-0.010500995 0.009817906 -0.025761465 0.0111877415 0.10936605 0.05288979 0.14511494 -0.023176678
0.049069047 0.013829209 0.12621324 0.095966205 0.02604595 0.11082106 0.027691733 0.0552724

conv1.bias f4 [3]
00000000: d19c 24bd cf2d d23d df86 743d
-0.040188614 0.102626435 0.059698936

fc1.weight f4 [128, 768]
00000000: 5d01 063d f937 4dbc ec2f aa3d c624 5d3d
00000010: 8dc3 af3d 8e4a 2e3d 4bbf f73c 5e10 a83c
00000020: 9495 aa3c b5ae 08bd 5935 76bd 6470 b1bc
00000030: bed4 d2bb 543e e03c 0bed 2d3c 03c1 a138
00000040: b38c 8f3b 0aad c13c 0057 1c3d b66e cd3c
00000050: e5be 7b3d caa7 203d 4a06 b63c a65d c5bc
00000060: 6cfb aebc 28d1 4bbc aa07 07bc a61a d3bc
00000070: f053 2bbd e3a2 1f3d 3a1b f73c 5f0b 23bc
00000080: eef0 62bd aba7 0d3b 0b9a 2d3d 87a8 b43c
00000090: 69d8 2c3d d45b a73c 22ee 3e3d ef09 a0bc
000000a0: 9051 52bc c2be 773c ce53 4abc 13f7 7dbd
000000b0: 8a8e 0b3d ee99 303d 152c cf3d 50f4 fd3c
000000c0: 44b6 213c 3a90 8d3b 34cf 733c ee66 0f3d
000000d0: 4659 1f3d a064 903b 1439 ac3c a223 09bd
000000e0: 5328 143b 901e 5ebc 875e 2b3c 0623 463b
000000f0: 0b47 b4bc b0f9 2f3d db0f 3f3d 0d94 d73c
00000100: cdc5 0d3c 52fb c3bc c4f5 553c d106 633d
00000110: 7580 573b 1e90 f3b8 936f 83bc 6760 19bd
00000120: 679c b93b 771b cfbc 9b54 883c 621f 74bd
00000130: 9f96 013d 72f5 783d 4941 743d 9da5 5e3d
00000140: 6902 ba3b 4940 84bc ec12 dc3c b08e 343d
00000150: 3886 fb3c 343d 32bd 565e 42bd 4f5f 0a3c
00000160: 11fe 82bc 95d9 a93b fa58 c7bc 2ce9 0b3c
00000170: bbcf 0b3d 6f65 8f3d 4d17 563c beef 163b
00000180: e6b7 823c b688 1f3c 01ae 9d3c ff2c 743d
00000190: 554f 81ba cb5d a1bc 4187 00bd d3b7 92bc
000001a0: badd 283c 534f e5bc e74e 0fbd 3a62 05bd
000001b0: 7fd4 0d3d 0e80 643d b24e 873d f836 6a3d
000001c0: 853c a4bc 49fe a33c bbb4 9d3d b517 9c3d
000001d0: 58cd 0038 0d1a de3c 269e 4c3b 79f3 ff3a
000001e0: fad6 de3c 2842 29bd 4a4c 03ba ec18 a1bb
000001f0: 0d20 d23c 3383 9a3d 8835 253d fc81 873d
00000200: c992 bc3c 9764 593c fa63 6a3c 2c1d 973c
00000210: b535 b43c dd43 cb3c cb53 a13c 8333 6fbc
00000220: 6d43 f23b 9536 cabb 70a0 02bc 8902 70bd
00000230: 7c5c 9abb 3f84 be3c bb03 373d 3b6b 563d
00000240: 3c85 03bd a8a5 af3a 5bb5 423d a661 8c3c
00000250: 5e84 ac3d 9097 ec3c 1831 f83c 72af de3c
00000260: 5705 f93b fa8b adbc e827 803b 27d3 6ebd
00000270: fab7 33bd a2a3 5c3d d960 a23c e033 493d
00000280: 59ec 46bc c544 57bc 31a2 4a3d 4ecc f23c
00000290: 491d 473d 0bf2 923d 1eb8 98bb 0ad5 87bc
000002a0: 04e2 74bc 8e0c e23a 42c5 26bd 14dd 19bd
000002b0: ab62 79bc bd29 d6bb 14ce fb3c 7fc2 923d
000002c0: 5340 b8bc d573 773b 6fff 093c e032 0f3d
000002d0: 6e3b 263d dbab 403d edd8 f8bc feb7 bc3c
000002e0: 9e47 1c3c 8210 f63b 105a 25bd a8ec bebb
000002f0: 1b57 7ebc 1ef1 f4bb 8bdb 183c 9416 8b3d
00000300: 7e27 083b 53b6 c43c 71b6 9e3b 9b9e 8f3d
00000310: 86e5 6b3b a6c0 a23c e9aa 86bc 4543 02bc
00000320: 1a01 09bd 18e7 4fbc fae1 18bd b8b4 28bd
00000330: aaac 94bc 87e0 863c b54a 573d ca85 553c
00000340: 1947 c33c 0dbe 0e3d 83f9 d33c 160c ab3b
00000350: 53f6 0c3d 5d66 2dbd fe83 79bb 6c82 3cbd
00000360: c125 183d 2666 193c 5558 ef3c c5cd e8bc
00000370: 23f6 343c 75de 1dbc 634f 5b3d 6ce6 3c3b
00000380: 107c 1abd ed12 073d a4ac d0bc f7f8 adbc
00000390: 83d8 213c 3170 7bbc f222 f0bb 0043 23bc
000003a0: 408a cd3c d243 a73d a70a 953c 7ad4 bf3b
000003b0: f6e2 fb3c 08cc 2b3d d83c 463b b2c1 7bbc
000003c0: fd15 53bd 98f2 ed3b 99fb 8cbb 54a8 f1bc
000003d0: d3b5 c4bc bb6f 083b 41a2 333d a384 263d
000003e0: a3af 903d 361f ea3d a520 9f3d ad03 b13d
000003f0: 99c9 a43d 5bf0 2c3c 4913 1bbd 119b b6bb
0.032716144 -0.012525552 0.083099216 0.053990148 0.0858222 0.04255157 0.030242583 0.020515617
0.020823278 -0.03336974 -0.06010947 -0.021660037 -0.0064340523 0.02737347 0.0106155975 7.7130295e-05
0.0043807863 0.023642082 0.038168907 0.025077205 0.061461348 0.039222516 0.022219796 -0.024092507
-0.021360122 -0.012440003 -0.008241573 -0.025769543 -0.041828096 0.0389737 0.03016435 -0.009951442
-0.05540555 0.002161483 0.042383235 0.022053016 0.042198572 0.02042953 0.04661382 -0.019535987
-0.012836829 0.015121164 -0.012349082 -0.062003206 0.034071483 0.04311555 0.1011583 0.031000286
0.009870116 0.0043201717 0.014880944 0.03501027 0.038903497 0.0044065267 0.02102331 -0.033481248
0.0022607043 -0.013557091 0.010459549 0.0030233278 -0.022006532 0.04296273 0.04664598 0.026315713
0.008653116 -0.02392355 0.013059083 0.055426423 0.0032882963 -0.00011613987 -0.016044414 -0.037445452
0.0056643966 -0.025281651 0.016641906 -0.05960024 0.031637784 0.06078095 0.059632573 0.05435716
0.005676557 -0.016143935 0.026864491 0.04408139 0.030703649 -0.0435154 -0.047453247 0.008445575
-0.015990289 0.0051834085 -0.02433442 0.008539479 0.034133654 0.07001769 0.013067079 0.002303108
0.01595683 0.009737184 0.01924801 0.059613224 -0.0009865562 -0.019698044 -0.03137899 -0.01790992
0.01030677 -0.027991926 -0.034987357 -0.03256438 0.03462648 0.055786185 0.06606807 0.05718133
-0.02004839 0.020018714 0.07700487 0.07621709 3.070882e-05 0.027112031 0.0031222194 0.0019527517
0.027202118 -0.041322857 -0.00050086214 -0.004916301 0.025650049 0.075445555 0.040334255 0.066165894
0.023019211 0.013268611 0.014306063 0.018446527 0.021998266 0.024812633 0.019693276 -0.014599684
0.0073932917 -0.0061710575 -0.007972822 -0.058596168 -0.004710732 0.02325642 0.044681292 0.052348357
-0.032109484 0.001340081 0.047536235 0.017136406 0.084236845 0.028880864 0.030296847 0.027183268
0.0075995135 -0.02118491 0.003911007 -0.05830684 -0.043876626 0.05386699 0.019821571 0.049121737
-0.012141311 -0.0131389545 0.049471084 0.029638436 0.048611913 0.07175072 -0.0046606204 -0.016581077
-0.014946464 0.0017246173 -0.040715463 -0.037564352 -0.015221278 -0.0065357373 0.030737914 0.071660034
-0.02249161 0.003775825 0.0084227165 0.034960628 0.04058402 0.047038894 -0.030376876 0.023036953
0.009538559 0.007509292 -0.040369093 -0.0058265515 -0.015523697 -0.0074750325 0.009329687 0.06791416
0.0020775492 0.02401272 0.004843526 0.070126735 0.003599496 0.019867253 -0.016438918 -0.007950609
-0.033448316 -0.012689374 -0.037324883 -0.04118797 -0.018148739 0.016464485 0.05256148 0.013032386
0.023837613 0.034849215 0.025875812 0.0052199466 0.0344146 -0.04233395 -0.0038073058 -0.046022817
0.03714538 0.009362733 0.029216925 -0.028418431 0.011045012 -0.009635557 0.053542506 0.0028823866
-0.03771597 0.032977033 -0.025472946 -0.02123688 0.009878281 -0.015346573 -0.0073283846 -0.0099647045
0.025090337 0.081672326 0.018193556 0.0058541866 0.030747872 0.041942626 0.0030248668 -0.015366005
-0.05153464 0.0072615854 -0.0043024537 -0.02949921 -0.024012482 0.002081855 0.04385591 0.040653836
0.0706475 0.11431734 0.07769898 0.08643279 0.08046264 0.010555352 -0.03786019 -0.0055726846

fc1.bias f4 [128]
00000000: f7ff 783c 9a06 a3bc 3bdf c33c 2f7c 003c
00000010: 7b30 1cbc 9154 463c 5439 ba3c ec65 353d
00000020: 650f e03b 5b1f 2e3c a4e2 413c c5be a13c
00000030: 0bb1 8039 7a63 023d c839 23bd b413 ba3c
00000040: ffbe 82bb afbf c8bb f003 b53d 32ed 1a3d
00000050: b7bf 5c3d de0c d1ba 85b4 b2bc a350 563d
00000060: b49b 0bbd a84c 11bd b20b 493d 68ca 243b
00000070: 5610 afbc a755 be3d 42ba a6bc 46c7 2abd
00000080: 501a 4fbc 1386 3f3d dd33 573d d37a 19bc
00000090: 4e12 0abd c184 f3bc 2c30 9b3c 4d47 923c
000000a0: 418b 113d 57c0 733d ed00 4abb 5656 8e3c
000000b0: f424 783c 2068 20bb e0b4 e03b 8794 07bd
000000c0: 2a4a 02bd 4d5f 64bd c92d 09bc c8d2 ccbc
000000d0: 5ec4 e4bc be6d f63c 8f63 8f3c 0632 a53c
000000e0: 1aa4 c6bc 91e3 3c3d b305 5f3c 1f7e c5bc
000000f0: 1d1c 133d 1207 d8bc 6d15 2f3d bf95 7d3d
00000100: 4cd8 443d 7b3c af3c 9dfe df3b 68d4 7dbc
00000110: 7b71 80bc 4f3b 16bb fb9f 17bd dac0 623d
00000120: 4b21 c23c 1983 72bc aacd 103c 3742 e8bc
00000130: 499a 5b3c 44d9 82bc 299f 193d 6d40 8c3d
00000140: 9f6b c5bb 6b26 023d 2bb9 193c 35b4 8c3c
00000150: 5544 28bd e7f2 773d daed 5e3d 7e44 81bc
00000160: 7fde 513c cc9e 343b 4904 993c 5809 59bc
00000170: 34a9 d9bb 7c1c 693d 7ec8 42bc d6cd 3d3c
00000180: b43b 853a 4d38 ccba 243a fd3b b458 9a3c
00000190: 8bee 93bc 2d9e a7bc a9d3 41bd 8ac6 f4bc
000001a0: 6b4b b33d 7d90 b93c 891a 5ebd bb21 f43c
000001b0: 03fe e03c e78f 313d 618b 17bb 51c9 823d
000001c0: 92cb 3e3d f5f4 513d 9380 3f3d 0daf 43bd
000001d0: 06b6 e0bc 3206 e2bc 6ca5 723d 6f54 aebb
000001e0: dd91 16bd 60c5 7fbc 5745 7b3c 9319 d33a
000001f0: 6253 1ebb 7740 253d e749 5f3c e105 1abc
0.0151977455 -0.019900609 0.023910156 0.007842108 -0.009533043 0.012105123 0.022732414 0.044286653
0.0068377727 0.010627593 0.0118338205 0.019744286 0.0002454597 0.03183315 -0.039850026 0.022714473
-0.0039900537 -0.006126366 0.08838642 0.037823863 0.05389377 -0.0015949269 -0.021814594 0.052322995
-0.034084037 -0.035473496 0.04908342 0.0025145058 -0.021370094 0.09293681 -0.020352487 -0.04169395
-0.012640551 0.046758723 0.052539695 -0.0093676625 -0.033708863 -0.029726388 0.018943869 0.017856264
0.035533193 0.0595096 -0.0030823306 0.017375153 0.015145529 -0.0024476126 0.0068574995 -0.03310063
-0.03180901 -0.05575495 -0.008372732 -0.025002852 -0.027925666 0.030081626 0.017503528 0.020165455
-0.024248172 0.04611546 0.013612199 -0.02410799 0.035915483 -0.026370559 0.042745043 0.061910387
0.04805784 0.021391144 0.006835772 -0.015492536 -0.015679112 -0.0022923534 -0.037017804 0.0553597
0.023697516 -0.014801764 0.008838097 -0.028351886 0.013403484 -0.015972741 0.037505303 0.06848226
-0.0060247923 0.03177492 0.009382526 0.017175773 -0.04108079 0.060534384 0.05442605 -0.01577973
0.012809395 0.002756047 0.018678801 -0.013246857 -0.006642485 0.05691193 -0.011888621 0.01158472
0.0010164888 -0.0015580744 0.007727878 0.018841125 -0.018058082 -0.020461166 -0.047320995 -0.029879827
0.08754619 0.022651905 -0.054224525 0.02980124 0.027464872 0.043350127 -0.0023123848 0.06386054
0.04658086 0.051259 0.046753477 -0.047774363 -0.027430546 -0.027590845 0.05923979 -0.005320124
-0.0367602 -0.015611023 0.015336356 0.0016105644 -0.0024158587 0.04034468 0.01362846 -0.009400816

fc2.weight f4 [10, 128]
00000000: e9d2 fbbd 7e32 1dbd dc00 c03d e28b c43d
00000010: f5e7 0abe b56c a73d eb43 9c3d e268 9f3c
00000020: 0d96 643d 8d5a 8d3d ab9c 7b3d afd1 eebd
00000030: 4abb cbbd d36f 1bbc dd79 babd 52ed fbbc
00000040: f814 383d 20ba 173b 6d74 f2bb 3855 8b3d
00000050: b185 e8bd a3ef 113d 53cc 58bd bf29 aa3c
00000060: d856 7a3d 6cbd 11bd f240 06be 0748 4abd
00000070: 61cc 24bd a544 133d 42b1 99bd 0307 28bd
00000080: 5f0c f5bd dd2b 34bd ea5e 313d 6523 9ebd
00000090: e6b6 ac3c bfa0 6fbd 4db0 72bc 3cb4 ddbd
000000a0: e64e e93c 9574 39bc 9dbc a73d 851c bbbd
000000b0: 95a5 a2bb 3a16 4fbd 9843 d9bd f235 de3d
000000c0: 64a9 3b3c 93fc f5bb edeb f73d 83f9 f43d
000000d0: 4619 35bd a5d1 bc3d f459 f13c 0d2d 883d
000000e0: 4336 bd3d 94fd 06bd d7ca cb3d cdf5 de3d
000000f0: 6740 c5bd 0ad1 ed3c f35d a8bd 1ba2 7a3d
00000100: e2f5 74bd 87ee 04bd d091 973c 0d70 24bc
00000110: 2425 62bc 77ac 8d3d 8a30 873d f526 7d38
00000120: a3ea 9fbd d1c4 853d 67f3 cb3c 1873 c13d
00000130: 5baa 85bd 53aa 093d a6d4 5e3d b18e cc3d
00000140: 0aa8 ddbd ae81 993d 0d38 3d3d cf25 823d
00000150: f0f9 a53c 5254 30bc d3ed ef3c 37e4 953d
00000160: 8051 3e3c 56e0 0dbd 5c01 0fbe ebea 83bd
00000170: f1c4 e4bd c1df 32be ced4 a13d bad5 f63c
00000180: 9ebb b1bd cb9b 90bd 6c6f 203d 8571 8e3d
00000190: d30c 0d3d 83a9 4a3d 9c27 01bd 3c85 023d
000001a0: e9bf 45bd 7a26 a53c 78ac e7bc a580 17be
000001b0: b8a9 34bc ca9f dabd 6439 66bd 8d2d e1bd
000001c0: 0dc9 95bc 9bf0 ab39 5423 8f3d 3bc8 4a3b
000001d0: 11bb 923c 6a94 b73c 8ccb eabc fabc ab3c
000001e0: edae 25bd e277 aabb 7392 02bd fb77 c53a
000001f0: b67b 993d 092b 443d 1459 58bd 4d52 c1bd
00000200: d907 ea3d 6651 be3d 27d4 b7bd 08f5 823d
00000210: 1ee3 953d 1586 75bd 6f57 71bd 8d8b 663d
00000220: d9bd 6fbb b1a8 6a3d d522 253d a669 d93d
00000230: ea0a 13be be77 e1bd 6fef c3ba 3092 f5bd
00000240: 0edc 233d 43d4 07be 7421 813b e10a aa3d
00000250: 12c2 b43d 1a08 27bd 377f f7bd 5427 c0bd
00000260: ad63 d6bd 78f9 e73d a05d e93d c332 84bd
00000270: ab83 1dbd cfa6 1dbd d925 dcbd fbfb 15bd
00000280: ff39 5e3d 92a7 8e3c c668 bbbd 1f77 7cbc
00000290: c3a7 693d 9a99 1cbe 2213 e83d 33b6 ba3d
000002a0: 0e54 bf3d dbcd 96bd 52d7 f8bd 8ff6 3fbd
000002b0: 8f2b 633d 4ced 983d 891a 993d 1126 d3bd
000002c0: 2647 943c 859e eabd daaa a1bd d296 9dbb
000002d0: 6838 c1bc 14dc 2d3d 119a a73c d6d5 cebd
000002e0: 6b56 9fbd eb6b 1fbd fa40 70bd 4fe8 96bd
000002f0: 294c 933d d0a5 89bd e2a4 1bbe 9ff9 c1bd
00000300: 5249 e73d b114 193e 47c1 5a3d 2b0c 553d
00000310: 77bf 07be c624 c7bd dc35 96bd 90b9 a53d
00000320: bdb4 793c 4869 523d 508a c6bd 5417 0dbe
00000330: c106 f2bd 4ab5 6cbd 0e31 b1bd 837e 5d3e
00000340: 51b6 273d c004 0039 ef97 5cbd 8652 4ebd
00000350: 60ce ccbd 7f09 b2bd cd03 d2bd b67e 59bd
00000360: 7d04 a2bd e8a2 22bc 9772 fc3d 207b e7bb
00000370: b95c 473d 15e6 683d dd91 b4bd 63b5 9a3d
00000380: 6ff6 27bd 0f65 99bc 015b cf3c b30c 023e
00000390: 37ac 03be cd59 a43d 9a37 ecbc 9704 53bd
000003a0: cb1d ffbd 294e 10be 2525 f2bd 1962 aa3d
000003b0: cad6 8a3d 8113 4a3d c93d 83bd 6c10 a0bd
000003c0: 8309 a13d 5c91 e83c 6532 fb3d 9cd8 383c
000003d0: 82a9 00be 6ea7 a0bd b089 2cbd 6dba f43d
000003e0: 71b0 113d 7507 afbd 61ba b3bb 5558 ee3d
000003f0: 0c48 72bd 4233 2bbd 1172 17be 3011 5f3a
-0.12296087 -0.03837823 0.09375164 0.09596993 -0.13565047 0.08175031 0.07630142 0.019459192
0.055807162 0.06902037 0.061428707 -0.11661088 -0.09947832 -0.00948711 -0.09105275 -0.030752812
0.044941872 0.002315171 -0.007399133 0.068033636 -0.113536246 0.035628926 -0.052929234 0.02077186
0.061117977 -0.035581037 -0.13110712 -0.049385097 -0.040233973 0.035954136 -0.07504512 -0.041022312
-0.1196525 -0.043987144 0.043303408 -0.07721595 0.021083307 -0.05850291 -0.014812541 -0.108253926
0.028480005 -0.011319299 0.08190272 -0.09136299 -0.0049635866 -0.050558306 -0.106085956 0.10850133
0.01145396 -0.007506916 0.12105546 0.11961653 -0.044213556 0.09219674 0.029461838 0.06649218
0.09238865 -0.032956675 0.09950798 0.108867265 -0.096314244 0.029030342 -0.082210444 0.061189752
-0.059804805 -0.03245404 0.018502146 -0.010036481 -0.0138028 0.06917661 0.06601055 6.0356182e-05
-0.07808425 0.065316804 0.024896337 0.094457805 -0.06526633 0.0336097 0.054402016 0.09988154
-0.108230665 0.074954376 0.046196032 0.06354868 0.020260781 -0.010762291 0.029288208 0.07318919
0.011616111 -0.03463777 -0.13965362 -0.064412914 -0.11170376 -0.17468168 0.079019174 0.03013121
-0.08678363 -0.07060965 0.03916876 0.06955246 0.03443606 0.049478065 -0.031531915 0.031865343
-0.048278723 0.020159949 -0.028280482 -0.14795168 -0.011026792 -0.106750086 -0.056207076 -0.10995016
-0.018284345 0.00032794927 0.0698916 0.00309421 0.017911466 0.022409637 -0.028661512 0.020964134
-0.040450025 -0.0052022794 -0.031877946 0.0015065664 0.07494299 0.047892604 -0.052819327 -0.09439526
0.11427278 0.09292869 -0.08976012 0.06394392 0.0731871 -0.059942324 -0.058921274 0.05628543
-0.0036581664 0.057289783 0.04031642 0.10615854 -0.14359632 -0.11009167 -0.0014948676 -0.11990774
0.040004782 -0.13264565 0.0039407555 0.08302856 0.088260785 -0.04077921 -0.12084811 -0.09382501
-0.104682304 0.11326879 0.11394811 -0.064549945 -0.038455646 -0.03848916 -0.10749406 -0.03661726
0.054254528 0.017413888 -0.09150843 -0.01540926 0.057044756 -0.1529297 0.11331774 0.09116783
0.09342204 -0.073634826 -0.12150444 -0.046865996 0.055461463 0.07467136 0.07475764 -0.10309995
0.018100332 -0.114560165 -0.078939155 -0.004809239 -0.023586467 0.04244621 0.020459207 -0.1009938
-0.07780155 -0.038921278 -0.058655716 -0.07368528 0.07192261 -0.06721079 -0.15199617 -0.094714396
0.112932816 0.149493 0.05340698 0.052013557 -0.13256632 -0.09723811 -0.073344916 0.08092034
0.015240845 0.051369935 -0.0969435 -0.1377843 -0.118176945 -0.05779008 -0.086519346 0.21630292
0.040945355 0.00012208801 -0.053855833 -0.05037167 -0.100003004 -0.086932175 -0.10254631 -0.053099357
-0.07911012 -0.009926535 0.12326544 -0.007064238 0.04867241 0.05686005 -0.08816884 0.07554128
-0.0410065 -0.018724946 0.025311949 0.12700157 -0.12858663 0.08024941 -0.028835107 -0.05151805
-0.124568544 -0.14092316 -0.11823491 0.08319492 0.06779249 0.049335007 -0.06408269 -0.07815632
0.07863142 0.028389625 0.12265471 0.011282112 -0.12564662 -0.07844435 -0.042123497 0.119496204
0.03556866 -0.08546344 -0.0054848646 0.11637942 -0.05915074 -0.04179693 -0.14789607 0.0008509336

fc2.bias f4 [10]
00000000: e730 babd 56d0 f73d 384e eabd 3036 abbc
00000010: 46d3 cd3c 196b 463b 2a32 913c d3fe 3fbd
00000020: f68c 063c 5325 48bd
-0.09091359 0.12100284 -0.114407 -0.020899862 0.025125157 0.0030276238 0.017724115 -0.04687388
0.008212319 -0.04886372
