Experiment/benchmark/cnn_small/onnx/simple_cnn_3x21.onnx (onnx, 110161 bytes, 6 tensors)

conv1.weight f4 [3, 1, 21, 21]
0	0xbbe7676e	-0.0070618903
1	0xbd88f632	-0.06687583
2	0xbd5a1af5	-0.053248364
3	0x399e0b2c	0.00030144432
4	0x3d0c7710	0.034293234
5	0x3dbdfaf3	0.092763804
6	0x3dfd542f	0.12369572
7	0x3dc804a6	0.097665116
8	0x3e122ee8	0.14275706
9	0x3e09c736	0.13454899
10	0x3cddd162	0.02707738
11	0x3d688887	0.056770828
12	0xbb8f2b8d	-0.0043692053
13	0x3cdd3fce	0.027007964
14	0xbc5b6b67	-0.013392306
15	0xb92ccc94	-0.0001647941
16	0xbd615b49	-0.055018697
17	0xbcf29bb7	-0.029615266
18	0xbe02eb78	-0.12785137
19	0xbdeedd16	-0.116632625
20	0xbe084b88	-0.13310063
21	0x3ca026e8	0.019549802
22	0x3c4e3559	0.012585961
23	0xbcaeb333	-0.021325683
24	0xbc1429ca	-0.009043166
25	0xbc2c466f	-0.01051484
26	0x3d88e6a4	0.06684616
27	0x3d1b127f	0.037859436
28	0x3d8f12c4	0.06986001
29	0x3c022c78	0.0079451725
30	0x3d9fb9d1	0.077991135
31	0x3d23ba88	0.039972812
32	0x3d9cc09a	0.07653923
33	0x3b36cb2f	0.0027892103
34	0x3d292140	0.041291475
35	0x3d1cea94	0.03830965
36	0x3d7f4b77	0.06232783
37	0x3ba2a038	0.004962947
38	0xbda1df2e	-0.07903896
39	0xbd716319	-0.058932398
40	0xbd910444	-0.07080892
41	0xbd6bbd3e	-0.057553522
42	0x3d2acd5d	0.041699756
43	0xbd0cf751	-0.034415547
44	0xbd6b9092	-0.05751092
45	0xbd4722dc	-0.04861723
46	0x3d13a4fe	0.03604602
47	0x3d12e6e5	0.03586473
48	0x3d4ff678	0.05077216
49	0x3d861f32	0.06548919
50	0x3d7b90a5	0.06141724
51	0x3ccad8c4	0.024761565
52	0x3d9770f5	0.07394592
53	0x3b2dcf3b	0.0026521224
54	0x3c92d00d	0.017921472
55	0x3d859a8f	0.0652362
56	0x3d0c4376	0.034244023
57	0x3d087f6b	0.03332464
58	0xbc56265e	-0.013070671
59	0xbd385a4f	-0.045008
60	0xbd2f6ff7	-0.042831387
61	0xbccb80f0	-0.024841756
62	0xbd82a3cc	-0.06378898
63	0x3cebe82b	0.02879723
64	0xbd6b2872	-0.05741162
65	0xbd0d3366	-0.034472845
66	0xbc6b6bea	-0.01436899
67	0xbbceb045	-0.006307634
68	0x3d439d29	0.0477573
69	0x3db551aa	0.08853467
70	0x3dccd8ee	0.100023136
71	0x3da5d154	0.08096567
72	0x3c88b194	0.016686238
73	0x3d3b5885	0.045738716
74	0x3d1673f6	0.036731683
75	0x3d71e653	0.059057545
76	0x3d10ced6	0.035353504
77	0x3bc5420b	0.006019836
78	0x3cf43064	0.02980823
79	0xbcbb1692	-0.02283791
80	0xbcbca2f6	-0.023026925
81	0x3d014d30	0.031567752
82	0xbceacb09	-0.028661268
83	0x3c79c5c8	0.015244909
84	0x3be64c6a	0.0070281522
85	0xbd38e55a	-0.0451406
86	0xbd1e1744	-0.038596407
87	0xbc55b6ac	-0.013044041
88	0x3d4aff27	0.04955974
89	0x3d63b19c	0.055589303
90	0x3d300daa	0.04298178
91	0x3dbb5bd5	0.09148375
92	0x3de0365d	0.10947869
93	0x3d26fc9b	0.040768247
94	0x3d2e42ed	0.042544294
95	0xbc90ae1d	-0.017661149
96	0xbd122d9c	-0.035688028
97	0x3cd8f7ce	0.02648535
98	0x3b9c89b0	0.004777156
99	0x3d6c9709	0.057761226
100	0x3d14a5dc	0.03629099
101	0x3ba6c67d	0.0050895796
102	0x3ca7606f	0.020431725
103	0x3d4e92a4	0.050432816
104	0x3d90a38e	0.070624456
105	0xbd7807b4	-0.06055422
106	0xbd1934c7	-0.037403848
107	0xbd9dcff4	-0.077056795
108	0xbc39f53d	-0.011349973
109	0x3bb7e41c	0.0056119096
110	0x3d1d02f7	0.038332906
111	0x3c696208	0.014244564
112	0x3b73c16b	0.0037194144
113	0x3c598377	0.013275973
114	0xbc6f8fd5	-0.014621695
115	0xbcc12a15	-0.023579637
116	0xbd87743f	-0.06613969
117	0xbd059549	-0.032613073
118	0xbdc57205	-0.09640888
119	0xbd0aba7b	-0.033869248
120	0xbc2f8bcf	-0.010714485
121	0x3d72861f	0.05920994
122	0x3d941fef	0.07232653
123	0x3db41060	0.08792186
124	0x3e1186b8	0.14211547
125	0x3e1e09b3	0.15433387
126	0xbde4e735	-0.11176912
127	0xbdb4d799	-0.088301845
128	0xbcba50ce	-0.022743609
129	0x3d0183ca	0.031619824
130	0x39aa2a0e	0.0003245626
131	0xbcbc9533	-0.023020362
132	0xbca536fa	-0.020167816
133	0xbc175fe5	-0.009239172
134	0xbda2bc8b	-0.07946118
135	0xbd32e588	-0.04367593
136	0xbd8c7645	-0.068584956
137	0xbd9df88f	-0.077134244
138	0xbd8f9898	-0.07011527
139	0xbcf42937	-0.029804809
140	0xbd2faf6c	-0.042891905
141	0xbba986e2	-0.00517355
142	0x3d4ae27a	0.04953239
143	0x3d2944a4	0.041325226
144	0x3db25492	0.08707537
145	0x3e2166a0	0.15761805
146	0x3e341bc6	0.1758872
147	0xbe003af4	-0.12522489
148	0xbdfbdd4d	-0.12298069
149	0xbd5cfed1	-0.05395395
150	0x3b8b41e7	0.0042497995
151	0xbcf6214a	-0.03004517
152	0xbd6787b7	-0.056525912
153	0xbbce4f4d	-0.0062960745
154	0xbdbcf784	-0.09226897
155	0xbd96d03b	-0.073639356
156	0xbb5399f5	-0.003228781
157	0xbd3e6df6	-0.046491586
158	0xbc5ad8a1	-0.013357312
159	0xbd1cf1d2	-0.038316555
160	0xbcfeb4bc	-0.03109204
161	0xbb606175	-0.0034237776
162	0x3ca29275	0.019845227
163	0x3c9df385	0.019281158
164	0x3d9c0642	0.07618381
165	0x3cf04f6f	0.029334752
166	0x3da5b7a2	0.08091666
167	0x3e15fd99	0.14647521
168	0xbe21c8cd	-0.15799256
169	0xbd605b04	-0.0547743
170	0xbdd5d7ff	-0.104415886
171	0xbd904f53	-0.0704638
172	0xbd01108d	-0.031509925
173	0xbdaa8a4e	-0.08327161
174	0xbdcf4aab	-0.10121664
175	0xbd7a751e	-0.061146848
176	0xbd895ce4	-0.067071706
177	0xbce065a2	-0.027392212
178	0x3c39b735	0.011335184
179	0xbcbd1614	-0.023081817
180	0xbd64e36f	-0.05588096
181	0xbbdb09fd	-0.0066845403
182	0x3ca61694	0.020274438
183	0x3bc8222c	0.006107589
184	0xbd27e510	-0.040989935
185	0xbd6f877c	-0.058478817
186	0xbb23c4c7	-0.0024989115
187	0x3b8fa567	0.004383731
188	0x3dc69abc	0.09697482
189	0xbde69f81	-0.11260892
190	0xbd81484e	-0.06312619
191	0xbd50b43a	-0.050953127
192	0xbd8fb650	-0.07017195
193	0xbce36c73	-0.027761674
194	0xbcbf4904	-0.023350246
195	0xbd1967dc	-0.037452564
196	0x3b9d2762	0.0047959546
197	0x3d398332	0.045291133
198	0x3d8103d8	0.06299561
199	0xbb9523be	-0.00455138
200	0xbb4b2f74	-0.0031003626
201	0x3c401168	0.0117229
202	0x3c924498	0.017854974
203	0xbd3fddbd	-0.046842325
204	0xbc05f87b	-0.008176918
205	0xbd754ef6	-0.059889756
206	0xbd511929	-0.051049385
207	0xbd8f7bf1	-0.07006062
208	0xbcdbc470	-0.026827067
209	0x3d81877c	0.0632467
210	0xbd2945f2	-0.04132647
211	0xbd3611ee	-0.044450693
212	0x3bb50306	0.005524042
213	0xbcda49ac	-0.026646458
214	0x3cd2ef40	0.025748849
215	0x3da740b8	0.08166641
216	0x3daeea6d	0.08540807
217	0x3dc1bf4a	0.094603136
218	0x3d079ae5	0.033106703
219	0x3d756ca8	0.059918076
220	0x3df6f531	0.12058485
221	0x3d045ee5	0.03231706
222	0x3d5f6248	0.054537088
223	0xbd53a2c8	-0.051668912
224	0xbd1a7dc0	-0.03771758
225	0xbd44b6da	-0.048025943
226	0xbdcad325	-0.09903554
227	0xbdf5e238	-0.120060384
228	0xbd4909e6	-0.049081706
229	0xbd828c9f	-0.063744776
230	0x3d3e9413	0.046527933
231	0x3ba8fa51	0.005156793
232	0x3a3475dc	0.00068840175
233	0x3d48b7ff	0.049003597
234	0x3d38aefa	0.045088746
235	0x3e02599b	0.12729494
236	0x3dd2c9b3	0.10292377
237	0x3da12479	0.07868285
238	0x3d832af2	0.064046755
239	0x3de43dfe	0.111446366
240	0x3dd70e50	0.10500777
241	0x3df074ac	0.117410034
242	0x3d76a763	0.060218226
243	0x3d916031	0.07098425
244	0xbc8f7298	-0.017510697
245	0xbd41160c	-0.047140166
246	0xbd8411a0	-0.06448674
247	0xbd412006	-0.04714968
248	0xbdc63b74	-0.096793085
249	0xbca34fc6	-0.0199355
250	0x3c542d74	0.01295029
251	0x3d2f5aaf	0.042811092
252	0x3d84cad4	0.06483999
253	0xb9dbc396	-0.00041916658
254	0x3da90d58	0.08254498
255	0x3d71836b	0.05896322

conv1.bias f4 [3]
0	0x3c9a0b4e	0.018804219
1	0xbbc3d882	-0.0059767375
2	0x3cfd9a34	0.030957319

fc1.weight f4 [128, 192]
0	0xbced882a	-0.028995592
1	0x3d5675e8	0.052358538
2	0xbd059eb7	-0.032622065
3	0xbd1807a4	-0.03711666
4	0x3d76c6c7	0.060248163
5	0xbd2e4b28	-0.042552143
6	0xbd457fe1	-0.048217658
7	0x3d7ebca6	0.062191628
8	0xbc334e65	-0.010943984
9	0xbd956777	-0.07295125
10	0xbda155bc	-0.07877681
11	0x3d4b6875	0.049660165
12	0xbc8bc598	-0.017061993
13	0xbd98f020	-0.07467675
14	0x3c48fede	0.012267796
15	0x3c665a3d	0.0140596
16	0xbd91eec9	-0.07125623
17	0x3cd8e9d9	0.026478695
18	0x3c92030f	0.017823724
19	0xbd3774f4	-0.04478927
20	0x3d72856e	0.05920928
21	0xbd0c14f4	-0.03419967
22	0x3c653055	0.013988574
23	0x3c496e38	0.012294345
24	0xbd4f76a9	-0.050650273
25	0xbd93c75c	-0.07215759
26	0x3cd80c87	0.026373161
27	0xbc329db6	-0.010901859
28	0xbd0a42e8	-0.033755213
29	0xbc740c4e	-0.014895512
30	0x3d1fb006	0.03898623
31	0xbcb47899	-0.022030162
32	0x3d47f5f8	0.04881856
33	0xbd6cffbe	-0.057861082
34	0x3cfd8605	0.030947695
35	0xbd547a48	-0.05187443
36	0x3d10a6fd	0.035315502
37	0x3c2859fb	0.010275359
38	0xbd275ca0	-0.04085982
39	0x3d7f9a04	0.06240274
40	0xbbcf1ffc	-0.0063209515
41	0xbd944e8d	-0.07241545
42	0x3cdbe7e9	0.026843982
43	0xbce7b610	-0.028285056
44	0x3d140db4	0.03614588
45	0x3d144ab4	0.036204055
46	0x3d19aa4d	0.037515927
47	0xbd52d41e	-0.051471822
48	0xbd01e86a	-0.031715788
49	0x3d01fcbe	0.031735174
50	0x3c5c6b60	0.013453335
51	0xbcc5b2eb	-0.024133166
52	0xbc63f03d	-0.013912258
53	0xbcecfcd9	-0.02892916
54	0x3d649624	0.055807248
55	0xbd8fd745	-0.07023481
56	0xbd8e6d23	-0.0695441
57	0x3d3df482	0.04637576
58	0x3c7177ac	0.014738005
59	0x3c686050	0.014183119
60	0xbd9ed346	-0.07755141
61	0x3cf3b8e4	0.029751249
62	0x3c4d569a	0.012532854
63	0x3cc7648c	0.024339937
64	0x398ba5b2	0.000266356
65	0x3c6553d1	0.013997034
66	0xbcfb8b12	-0.030705962
67	0xbd9b7a7c	-0.075917214
68	0x3c329550	0.010899857
69	0x3cd411dd	0.025887424
70	0x3ae0ec57	0.0017160279
71	0x3ca93edb	0.020659855
72	0xbd964fe5	-0.073394574
73	0x3d1f52a5	0.038897175
74	0x3bdfa0b4	0.006824577
75	0x3d240b88	0.04005006
76	0x3cf6c126	0.030121397
77	0xbcbd582b	-0.02311333
78	0xbd944f13	-0.07241645
79	0x3c515e43	0.012778821
80	0xbd60d324	-0.05488886
81	0x3b93e402	0.0045132646
82	0x3d274948	0.04084137
83	0xbca8cb5a	-0.020604778
84	0x3d5b9c70	0.053615987
85	0x3d7109bc	0.058847174
86	0xbd63c7a2	-0.055610307
87	0xbd1d8015	-0.038452227
88	0x3d06a7f0	0.032875
89	0xbd4b13ec	-0.049579546
90	0xbce3c4bd	-0.027803773
91	0xbc8af458	-0.016962215
92	0xbd86dd8f	-0.06585228
93	0xbd0459d4	-0.03231223
94	0x3c9aebf1	0.018911334
95	0xbd95c746	-0.07313399
96	0x3be16d60	0.0068794936
97	0xbd5d46e8	-0.0540227
98	0xbbb8f47f	-0.0056443806
99	0xbca36000	-0.019943237
100	0xbcea33d5	-0.028589169
101	0xbbc10bfe	-0.005891322
102	0x3d1d5d07	0.038418796
103	0xbd80bb9a	-0.06285782
104	0x3d18733a	0.037219264
105	0x3d22dada	0.039759494
106	0x3d89116f	0.06692778
107	0xbd45e7f8	-0.048316926
108	0x3d0267ed	0.031837393
109	0x3bf53734	0.0074833874
110	0xbae9ef77	-0.0017847855
111	0xbc2dd2ba	-0.010609323
112	0xbcc49c1b	-0.024000218
113	0xbd504ed9	-0.050856445
114	0x3d32a396	0.04361304
115	0x3d2de372	0.042453237
116	0xbd90059e	-0.070323214
117	0x39b7d912	0.0003506621
118	0xbd7434bf	-0.059620615
119	0xbd7d2202	-0.06180001
120	0xbcb99391	-0.022653373
121	0xbda778fb	-0.08177372
122	0xbd08aea0	-0.03336966
123	0x3c964a1d	0.018345887
124	0x3d6c85c5	0.05774476
125	0x3cdc4b9e	0.026891526
126	0xbd558b5a	-0.05213485
127	0x3b8c29db	0.0042774505
128	0x3c768b01	0.01504779
129	0x3d52fb0e	0.051508956
130	0xbd9bef20	-0.07613969
131	0xbd6c131a	-0.057635404
132	0x3d38d123	0.045121323
133	0xb65a81a1	-3.2559985e-06
134	0xbbaf9e67	-0.005359459
135	0xbd2695f4	-0.04067035
136	0x3d3b93b1	0.045795146
137	0xbd8834f5	-0.06650726
138	0xba7c399b	-0.0009621621
139	0xbd1bdbf8	-0.038051575
140	0x3d4912a7	0.049090054
141	0x3d7e93e5	0.062152762
142	0xbd808c6d	-0.06276784
143	0x3d5364b4	0.05160971
144	0xbce6a528	-0.028154925
145	0x3caed306	0.021340858
146	0x3ccd5ccf	0.025068669
147	0xbcda4faf	-0.026649324
148	0x3d89dedc	0.0673196
149	0xbcdd5163	-0.027016347
150	0xbd84b5dd	-0.0648
151	0xbd13d004	-0.03608705
152	0x3cc731b0	0.024315685
153	0xbd5f5e4e	-0.054533295
154	0x3d19c219	0.03753862
155	0x3d5278a3	0.05138458
156	0x3d4b4a62	0.049631484
157	0x3d43fe72	0.04785008
158	0xbd3c4925	-0.045968194
159	0x3d37feda	0.04492078
160	0xbc60cd82	-0.013720872
161	0xbbe11eb6	-0.006870116
162	0xbc1d2fc0	-0.009593904
163	0xbd1fae62	-0.038984664
164	0x3b883ac7	0.0041573974
165	0xbd2655c5	-0.04060914
166	0xbcf8ebe6	-0.030385923
167	0xbd15d7b2	-0.036582656
168	0xb886410a	-6.4017324e-05
169	0xbc844d51	-0.016150149
170	0x3aa27797	0.001239526
171	0xbd3a1e15	-0.045438845
172	0x3d2680f0	0.040650308
173	0x3d26a26a	0.040682234
174	0xbcf302db	-0.029664448
175	0xbc1f7b48	-0.009733982
176	0xbd37edf0	-0.04490465
177	0x3a100f74	0.0005495467
178	0xbda24e6c	-0.07925114
179	0x3d3c1660	0.045919776
180	0xbcefd10a	-0.029274482
181	0x3d7e3d67	0.062070277
182	0xbd527417	-0.051380243
183	0xbac128fd	-0.0014736947
184	0x3b44cc26	0.0030028909
185	0xbcceb63a	-0.025233377
186	0xbd40b7e7	-0.047050383
187	0x3cc7d04e	0.02439132
188	0xbd3f434f	-0.04669505
189	0x3d459d3e	0.04824566
190	0xbd92dfbb	-0.071715795
191	0x3bd84c3d	0.006600885
192	0x3d801870	0.06254661
193	0xbd70be8b	-0.058775466
194	0xbd2e336c	-0.04252951
195	0xbdce7cdc	-0.10082409
196	0xbcdc3735	-0.026881794
197	0xbe00b9cf	-0.1257088
198	0xbd88ca89	-0.066792555
199	0xbb4fdb71	-0.003171649
200	0x3c730164	0.0148318745
201	0x3d909727	0.0706008
202	0xbc77af88	-0.0151175335
203	0xbd70deb3	-0.058806133
204	0xbc9adb38	-0.01890336
205	0xbcc5c8c6	-0.024143588
206	0x3d1b0a11	0.037851397
207	0xbcb918c7	-0.022594823
208	0xbbf9f8a0	-0.0076285154
209	0x3dc70ef1	0.09719647
210	0x3d25996a	0.04042951
211	0x3d076689	0.03305677
212	0xbdb3d5bd	-0.08781002
213	0x3d4ca212	0.04995925
214	0xbc4b5301	-0.012409926
215	0x3d32a996	0.04361876
216	0x3dddc3af	0.10828339
217	0x3daad756	0.08341853
218	0x3dafb0fb	0.08578678
219	0xbc53ca66	-0.0129266735
220	0xbd2b4865	-0.041817088
221	0xbda4cb2d	-0.08046565
222	0x3d6631f7	0.056199994
223	0x3d942518	0.072336376
224	0x3c2f25d2	0.010690169
225	0x3c0654eb	0.008198957
226	0x3d8bc984	0.068255454
227	0x3da1bd6a	0.07897456
228	0x3d3ad417	0.04561242
229	0xbd86a298	-0.06573981
230	0x3daadc17	0.0834276
231	0xbb671408	-0.0035259742
232	0x3d3f1172	0.046647497
233	0x3d12ede6	0.03587141
234	0xbd4536d6	-0.048148
235	0xbcd1c11b	-0.025604775
236	0xbd84306a	-0.06454547
237	0xbd709a79	-0.058741067
238	0xbbcf380b	-0.0063238195
239	0x3d086160	0.03329599
240	0xbc860c4a	-0.016363282
241	0x3d8554e3	0.065103315
242	0x3ca242d2	0.019807253
243	0x3d65f225	0.05613913
244	0x3c6667f8	0.014062874
245	0x3d558fd1	0.052139107
246	0x3bb41710	0.0054959133
247	0xbd4b8b95	-0.049693663
248	0xbb633362	-0.0034668078
249	0xbcf6fed0	-0.030150801
250	0xbd0e608d	-0.034760047
251	0x3c16f5e6	0.0092139
252	0xbd6da478	-0.058018178
253	0xbda769ba	-0.081744626
254	0xbdc99eeb	-0.09844764
255	0x3c468a8e	0.012117995

fc1.bias f4 [128]
0	0xbaec6927	-0.0018036709
1	0xbdfb062e	-0.12257038
2	0xbd1c2f09	-0.038130794
3	0x3d1c02c2	0.038088568
4	0x3d863613	0.065532826
5	0x3c0774d8	0.008267604
6	0xbd8255d7	-0.06364029
7	0xbd89cf59	-0.067290016
8	0xbd882448	-0.06647545
9	0xbd66b73a	-0.056327082
10	0xbd45b974	-0.048272565
11	0xba86289f	-0.0010235495
12	0xbcdd5de3	-0.027022308
13	0xbd40ff09	-0.04711822
14	0x3d78f978	0.060784787
15	0x3ce1203d	0.027481193
16	0x3ae619aa	0.0017555256
17	0x3d92ae34	0.07162133
18	0x3dbdafc7	0.092620425
19	0x3b82d3e2	0.0039925436
20	0x3ce64b8e	0.0281122
21	0xbe1e683a	-0.15469447
22	0x3d9c06b1	0.07618464
23	0x3dc1c7c9	0.09461934
24	0xbd7f2595	-0.0622917
25	0x3c9117e0	0.01771158
26	0x3d43f499	0.04784069
27	0x3d835fe2	0.064147726
28	0xbde9c02f	-0.11413609
29	0x3cdc8baa	0.026922066
30	0xbda1bedf	-0.07897734
31	0x3cce1e43	0.025160914
32	0x3cdc47e8	0.026889756
33	0x3d79030c	0.06079392
34	0x3db2e19c	0.08734438
35	0xbd3641f0	-0.044496477
36	0x3c4e00d1	0.012573437
37	0x3b8aca7a	0.004235563
38	0x3c32376e	0.010877473
39	0xbd879c21	-0.06621576
40	0xbd840e4e	-0.06448041
41	0x3cd4591a	0.025921393
42	0x3b4c71f3	0.0031195849
43	0x3d72398a	0.059136905
44	0x3b1bfb41	0.0023800882
45	0xbc93518e	-0.017983224
46	0xbd7723e7	-0.060336974
47	0x37b2d6ef	2.131934e-05
48	0x3de1a218	0.11017245
49	0xbda8d9c2	-0.08244659
50	0xbd1fc90a	-0.039010085
51	0x3ce732a8	0.028222397
52	0x3d29faf0	0.04149908
53	0x3b51f309	0.003203573
54	0xbb8e7003	-0.004346849
55	0x3d1a31f8	0.03764531
56	0xbd3c0b36	-0.04590913
57	0xbb457c6c	-0.0030133976
58	0xbddb8948	-0.10719544
59	0x3de295d0	0.11063731
60	0x3d3d40bc	0.046204314
61	0x3d123bfc	0.035701737
62	0xbce97a44	-0.028500684
63	0x3d34779f	0.044059392
64	0x3d96a34c	0.07355365
65	0xbbf92f61	-0.007604525
66	0x3e111f92	0.141722
67	0xbb979757	-0.0046261954
68	0xbb32ab72	-0.0027262834
69	0x3dcb739f	0.09934162
70	0x3ceecf8c	0.0291517
71	0xbd45e9c5	-0.048318643
72	0x3e0a33df	0.1349635
73	0x3bda26eb	0.0066574714
74	0xbd378b7a	-0.04481075
75	0x3c077fbc	0.0082702
76	0x3de1d209	0.11026389
77	0x3bb4701b	0.005506528
78	0x3d341cde	0.043972842
79	0xbcff8006	-0.031188976
80	0x3d81720b	0.0632058
81	0x3d2ed123	0.042679917
82	0x3d329a86	0.043604396
83	0x3d8015e6	0.06254177
84	0x3cd0e41d	0.025499398
85	0xbce2e2ab	-0.027695974
86	0x3c3ff3af	0.011715814
87	0x3a14f69a	0.00056824984
88	0xbdcc3c3e	-0.09972428
89	0xbc5e8424	-0.0135813095
90	0xbe018dba	-0.1265172
91	0x3e121b89	0.14268316
92	0xbd80c287	-0.06287103
93	0xbabb9fb2	-0.0014314561
94	0x3d9db410	0.0770036
95	0x3bc3dd46	0.0059773056
96	0x3db012c0	0.08597326
97	0xb9277f6c	-0.0001597383
98	0xbcff31b9	-0.03115164
99	0xbda531ec	-0.080661625
100	0xbe09e30e	-0.1346552
101	0xbce44839	-0.02786647
102	0xbd8f42ba	-0.06995149
103	0xbdd2e33f	-0.1029725
104	0xbda5ba19	-0.08092136
105	0xbe009dbd	-0.12560172
106	0xbdf061d3	-0.117374085
107	0x3da92280	0.082585335
108	0xbc3dccd3	-0.011584478
109	0x3d8097d1	0.06278957
110	0x3da0ac4c	0.07845363
111	0x3dfba27c	0.12286851
112	0x3d9a9088	0.075470984
113	0x3d9d5ce7	0.07683735
114	0x3d31dc7d	0.043423165
115	0xbce8569c	-0.028361611
116	0x3c2d969c	0.01059499
117	0xbbb39ac5	-0.0054810965
118	0xbc7e0756	-0.015504679
119	0xbe02f07b	-0.12787049
120	0x3e0cc970	0.13748717
121	0xbe03e5da	-0.1288065
122	0x3d054830	0.032539546
123	0xbd9d0a01	-0.07667924
124	0x3b48c231	0.0030633325
125	0xbb180e7f	-0.0023202
126	0xbc3c2a39	-0.011484676
127	0x3cc37263	0.023858255

fc2.weight f4 [10, 128]
0	0xbd7f7220	-0.062364697
1	0x3c25cc79	0.010119551
2	0x3dce18f1	0.10063351
3	0x3c8a45f4	0.01687906
4	0xbd150549	-0.036381993
5	0xbd282876	-0.04105421
6	0x3d37a0ca	0.044831075
7	0xbcdd9f54	-0.027053513
8	0xbd08d0de	-0.033402316
9	0xbdb954b9	-0.09049363
10	0xbcd50433	-0.026002979
11	0x3d87647f	0.06610965
12	0x3d970f6a	0.07375987
13	0x3d0cc131	0.03436393
14	0xbd809b61	-0.06279636
15	0xbcd057b2	-0.025432441
16	0xbd8a3281	-0.06747914
17	0x3d9a4f94	0.075347096
18	0xbe0d60ef	-0.13806508
19	0xbd2ec4b0	-0.042668045
20	0xbd92351a	-0.071390346
21	0xbbcbb292	-0.0062163556
22	0xbdc70f7b	-0.097197495
23	0xbd8a67f1	-0.067581065
24	0x3c61f4c2	0.013791265
25	0xbddeb0d4	-0.10873571
26	0xbde158b8	-0.1100325
27	0xbd946feb	-0.07247909
28	0x3da3983c	0.07988021
29	0xbd72b8d1	-0.059258286
30	0x3d3624de	0.044468753
31	0xbe129af1	-0.14316918
32	0xbd637926	-0.055535458
33	0x3d1770cf	0.036972817
34	0xbd8f2139	-0.069887586
35	0x3b85c584	0.0040823836
36	0x3d83a567	0.06428032
37	0x3e035861	0.12826683
38	0xbda36aa8	-0.079793274
39	0xbd10cf21	-0.035353784
40	0xbdec5834	-0.11540261
41	0xbdc2eaa0	-0.095174074
42	0x3ba5901e	0.0050525805
43	0xbe0df73b	-0.13863842
44	0xbd88ca72	-0.066792384
45	0x3dced761	0.10099674
46	0x3dc0d050	0.094147325
47	0x3cf9d21a	0.030495692
48	0x3c8bbe26	0.017058443
49	0x3cacffb3	0.02111802
50	0x3dd3d781	0.103438385
51	0xbc8c08c4	-0.017094024
52	0xbde84ee9	-0.11343176
53	0x3e03546a	0.1282517
54	0x3d659332	0.05604858
55	0xbd6f9369	-0.05849019
56	0x3d8d866a	0.06910403
57	0x3dcba31c	0.0994322
58	0xbd15c316	-0.036563
59	0xbdaec1f0	-0.085330844
60	0x3de63706	0.11240964
61	0xbd5dcaa4	-0.05414833
62	0x3db0a3ed	0.08625016
63	0xbd0d6458	-0.034519523
64	0xbdace0a8	-0.08441287
65	0xbe43e779	-0.19131269
66	0x3d972257	0.07379597
67	0x3beb5021	0.007181183
68	0x3d061513	0.03273494
69	0xbd4e0775	-0.05030008
70	0x3cc75e80	0.024337053
71	0xbddf67f1	-0.10908497
72	0xbd8c8d73	-0.06862917
73	0xbd6cf7de	-0.057853572
74	0xbe1e8ec1	-0.15484144
75	0xbb0c629e	-0.0021421085
76	0xbd972ae3	-0.07381227
77	0x3dc9a126	0.0984519
78	0xbd157f47	-0.036498334
79	0x3d16ff0e	0.036864333
80	0x3d7aaac6	0.06119802
81	0x3d452a13	0.04813583
82	0xbddf8561	-0.10914112
83	0xbd8ac03c	-0.06774947
84	0xbdba3445	-0.09092001
85	0x3d446a1a	0.04795275
86	0x3c94b04a	0.018150467
87	0x3d21e027	0.03952041
88	0x3ce70c1f	0.028204022
89	0x3dcbe003	0.09954836
90	0x3a40670c	0.0007339574
91	0xbd3245e2	-0.043523677
92	0x3dc762fd	0.097356774
93	0x3dae5623	0.08512523
94	0xbdbf93e5	-0.093543805
95	0xbc65a9ac	-0.014017504
96	0x3dce546f	0.10074698
97	0x3d5c1657	0.053732242
98	0xbd44c016	-0.04803475
99	0x3dda3a0a	0.10655601
100	0x3cbff45c	0.02343195
101	0x3cf9d7e1	0.030498447
102	0x3d8de5e7	0.06928616
103	0x3d3b813e	0.04577755
104	0x3d67c4ad	0.05658405
105	0xbd7e702d	-0.062118698
106	0x3da3450a	0.079721525
107	0xbbc92261	-0.0061381315
108	0xbd71416f	-0.058900293
109	0xbe0f6cc1	-0.1400633
110	0xbe0bdec4	-0.13659197
111	0xbd451dcd	-0.048124123
112	0x3df4ae31	0.11947287
113	0xbccbb6ad	-0.02486738
114	0xbe09d070	-0.13458419
115	0xbda2d360	-0.07950473
116	0xbe001052	-0.12506226
117	0x3dab7aa5	0.08373002
118	0xbd058754	-0.032599762
119	0xbc76b5bb	-0.015057976
120	0x3d6ccdea	0.057813562
121	0x3d3ef990	0.04662472
122	0x3cc9b642	0.02462304
123	0x3df0197a	0.11723609
124	0xbe171e0b	-0.14757554
125	0x3d6905c7	0.056890275
126	0x3d852ecb	0.06503066
127	0xbd40235b	-0.046908718
128	0xbd40e8ce	-0.04709702
129	0xbdeb855e	-0.11500047
130	0xbdf6a03c	-0.12042281
131	0xbc98883d	-0.018619651
132	0x3c884407	0.016634
133	0xbd02c48d	-0.031925727
134	0xbda87c17	-0.08226793
135	0x3b6c046a	0.0036013373
136	0xbe07cb7b	-0.13261215
137	0x3d978057	0.07397526
138	0x3e107d35	0.14110263
139	0x3c97eb0f	0.018544702
140	0xbc7c15e7	-0.015386081
141	0xbd951b3b	-0.072805844
142	0x3dede70f	0.116163366
143	0x3d8fe8c6	0.0702682
144	0x3dd9ae90	0.10628998
145	0xbde7299b	-0.112872325
146	0x3db557a6	0.08854608
147	0x3d268b18	0.040659994
148	0xbda98faf	-0.082793586
149	0xbddadcf2	-0.10686673
150	0x3d9281be	0.071536526
151	0x3daa504b	0.08316096
152	0x3cc2f9eb	0.02380081
153	0x3ddc908f	0.1076976
154	0xbd279a5b	-0.04091869
155	0x3e05ee1f	0.13079117
156	0xbe12b19d	-0.14325567
157	0x3c4d8806	0.012544638
158	0x3cfc5163	0.030800527
159	0x3d48cbd2	0.049022503
160	0x3d86d6db	0.06583949
161	0x3e01034f	0.12598918
162	0x3e00a8a8	0.12564337
163	0x3dcfb791	0.101424344
164	0xbe08c160	-0.13355017
165	0xbd91d0f3	-0.07119932
166	0x3d13de4e	0.03610068
167	0x3d41f97d	0.04735707
168	0x3dc1a8c3	0.09456017
169	0xbd52f112	-0.051499434
170	0xbe21e351	-0.1580937
171	0x399fe115	0.00030494542
172	0x3b9cac0a	0.004781251
173	0xbca9c45f	-0.02072352
174	0xbd96cdf9	-0.07363505
175	0xbe110c34	-0.14164811
176	0xbca8bf42	-0.020599011
177	0xbd8a80fd	-0.06762884
178	0xbdb4b376	-0.08823292
179	0x3d207557	0.039174404
180	0x3cf7e8a7	0.030262304
181	0x3bdf1757	0.0068082022
182	0x3d72cd38	0.059277743
183	0xbe3810f3	-0.17975216
184	0x3d6c5785	0.057700653
185	0x3d5c7c5c	0.053829536
186	0xbdc2d33a	-0.095129445
187	0xbc164d57	-0.009173713
188	0xbdc5f6cc	-0.096662134
189	0xbd3c79f1	-0.04601473
190	0xbe05a1aa	-0.13049951
191	0xbdddc343	-0.10828259
192	0x3df6eb80	0.12056637
193	0x3c102ff9	0.0088005
194	0xbe0fc673	-0.14040546
195	0xbd7d13b5	-0.061786372
196	0xbdf0b3b9	-0.117530294
197	0xbda6a891	-0.0813762
198	0x3de2503f	0.11050462
199	0x3d396b0b	0.0452681
200	0x3cd0fb3e	0.025510427
201	0xbb941517	-0.0045191157
202	0x3de5ac13	0.11214461
203	0xbdec4e5d	-0.11538384
204	0xbd4dae05	-0.050214786
205	0xbd8368b7	-0.06416457
206	0x3d9cffb2	0.076659575
207	0xbdd139e9	-0.102161236
208	0xbd5dc473	-0.054142427
209	0x3c28a815	0.01029398
210	0x3d568039	0.052368376
211	0xbe1a316c	-0.15057915
212	0xbd018eb1	-0.03163022
213	0xbd9bc5eb	-0.07606109
214	0xbd7d6a4b	-0.061868947
215	0xbd557d25	-0.0521213
216	0xbd19cbb6	-0.03754779
217	0xbe24f719	-0.16109885
218	0xbdb05abe	-0.08611058
219	0xbd3e79ad	-0.046502758
220	0xbd164456	-0.036686264
221	0x3e5bf9e4	0.21482044
222	0x3b675310	0.0035297312
223	0xbe152430	-0.14564586
224	0x3d1c7b7f	0.038203713
225	0xbd47525d	-0.048662532
226	0xba4683b9	-0.0007572729
227	0x3d1bf5e4	0.038076296
228	0x3db64a58	0.08900899
229	0x3d6a2d94	0.057172373
230	0x3d8bd8bb	0.068284474
231	0xbd3bc617	-0.04584321
232	0x3de778e5	0.11302356
233	0xbde01f72	-0.10943498
234	0xbd844029	-0.0645755
235	0x3dc4f471	0.09616936
236	0xbe22a265	-0.15882261
237	0x3e0a41e9	0.13501705
238	0x3dbb42c1	0.09143592
239	0x3c7e5dcf	0.015525295
240	0xbd76f0f4	-0.060288385
241	0x3dc3e014	0.09564224
242	0xbd0d1c5f	-0.034450885
243	0xbcd2987e	-0.02570748
244	0x3dce092f	0.100603454
245	0xbd0e9451	-0.034809414
246	0xbdedf12b	-0.11618265
247	0xbddaf2f8	-0.10690874
248	0x3cc24890	0.023716241
249	0x3d6781ba	0.0565202
250	0x3e71a408	0.23597729
251	0x3da607c4	0.0810695
252	0x3d61c2f7	0.055117574
253	0x3d351cd2	0.04421694
254	0xbc909731	-0.017650219
255	0xbe127f0b	-0.14306276

fc2.bias f4 [10]
0	0xbd2d9d91	-0.042386595
1	0x3db5c40e	0.08875285
2	0xbcf63f3a	-0.030059446
3	0xbd4a62b7	-0.049410548
4	0x3d6c1806	0.057640098
5	0x3d859f48	0.06524521
6	0x3d84fa27	0.06493025
7	0x3de7286b	0.11287006
8	0xbde2e1e4	-0.110782415
9	0x3d8eacfb	0.06966587
