Experiment/benchmark/cnn_small/onnx/simple_cnn_3x19.onnx (onnx, 164497 bytes, 6 tensors)

conv1.weight f4 [3, 1, 19, 19]
0	0x3dde9a9e	0.10869335
1	0x3d5286d8	0.05139813
2	0x3c8f9960	0.01752919
3	0x3cbabadf	0.022794185
4	0x3db51f51	0.08843864
5	0xbc693896	-0.014234683
6	0xbd087c5b	-0.03332172
7	0x3b8205ba	0.003967968
8	0xbc9deb8b	-0.019277355
9	0xbd731e2f	-0.059354957
10	0xbd5d705e	-0.05406224
11	0xbca1ee1c	-0.01976686
12	0x3d3ddf14	0.046355322
13	0x3d1386e2	0.036017306
14	0xbadc1768	-0.0016791644
15	0x3c939861	0.018016996
16	0x3c4a1189	0.012333282
17	0xbd0a87b8	-0.033820838
18	0xbbb50ff3	-0.005525583
19	0x3dc1126b	0.09427341
20	0x3d26e54f	0.04074603
21	0x3d54e3b0	0.051974952
22	0x3cb7f118	0.02245383
23	0x3c1d0f5e	0.009586183
24	0xbc891ff9	-0.016738879
25	0xbdaff4bf	-0.085916035
26	0xbc5e6cbe	-0.013575731
27	0xbdb7b11a	-0.08969326
28	0xbd2bd8d8	-0.041954845
29	0xbd7f7ed8	-0.062376827
30	0xbd023798	-0.0317913
31	0xbc9ab7dc	-0.0188865
32	0x3cf1045b	0.029421022
33	0x3d48a8bc	0.048989043
34	0x3d1478af	0.036247905
35	0x3d8d8342	0.06909801
36	0x3d964b58	0.073385894
37	0x3d936260	0.07196498
38	0x3d3bde03	0.045866024
39	0x3bbd6765	0.005780148
40	0x3d85b015	0.065277256
41	0xbc8a4b39	-0.016881572
42	0xbcc9b8bc	-0.024624221
43	0x3c5ab8ae	0.013349695
44	0xbd427730	-0.047476947
45	0x3ceecf93	0.029151713
46	0xbaf2b6c7	-0.0018517607
47	0xbd0b2b9b	-0.033977132
48	0x3b05dd04	0.0020425925
49	0x3bd0e033	0.006374383
50	0x3d8c4d34	0.06850663
51	0x3dec853e	0.115488514
52	0x3dcac4ea	0.099008396
53	0x3dacc77a	0.08436485
54	0x3dcc8a71	0.09987343
55	0x3df11b1a	0.11772747
56	0x3dd563e7	0.104194455
57	0x3d4c2e08	0.049848586
58	0x3c6df66e	0.014524085
59	0x3d2e5c17	0.042568292
60	0xbc5dbb17	-0.013533375
61	0x3da8b5fc	0.08237836
62	0x3ca294fe	0.019846436
63	0x3da1539a	0.07877274
64	0x3ca30aac	0.01990255
65	0x3d50d977	0.05098864
66	0xbbf591c8	-0.007494185
67	0x3da17880	0.07884312
68	0x3dc7e70b	0.09760865
69	0x3dd5dc86	0.10442452
70	0x3d81ab4d	0.06331501
71	0x3d3c118d	0.045915175
72	0x3c048f97	0.008090875
73	0x3dda9b95	0.10674206
74	0x3de71270	0.112828135
75	0x3dd17aee	0.10228525
76	0x3d815ad8	0.06316155
77	0x3d038314	0.032107428
78	0xbc314faa	-0.010822216
79	0x3d447c3c	0.04797004
80	0x3d7159da	0.05892358
81	0x3da46f0c	0.08028993
82	0x3e0d7aed	0.13816424
83	0x3dad65d1	0.084666856
84	0x3d43def6	0.047820054
85	0x3dd26acb	0.102742754
86	0x3dbeee78	0.09322828
87	0x3d5100f9	0.05102632
88	0x3ddac575	0.10682193
89	0x3cd59060	0.02606982
90	0x3db1ba85	0.08678154
91	0x3c8c3460	0.017114818
92	0x3d77508b	0.060379546
93	0x3dbcc1c2	0.09216644
94	0x3df6c21d	0.12048743
95	0x3c8dfcb3	0.01733241
96	0x3d0116ff	0.03151607
97	0x3d0226c1	0.03177524
98	0xbbedee1f	-0.0072610523
99	0x3d0fc8ba	0.035103537
100	0x3dac9ef0	0.084287524
101	0x3ddc47c5	0.107558765
102	0x3dac4fb9	0.084136434
103	0x3d5846ea	0.052802004
104	0x3c7d15c8	0.015447088
105	0x3d2cf394	0.04222448
106	0x3ba9d60c	0.005182987
107	0x3d320355	0.04346021
108	0x3d9bf686	0.0761538
109	0x3dc85111	0.09781087
110	0xbcc57c08	-0.024106994
111	0x3c46eaa4	0.012140904
112	0x3db8606b	0.09002765
113	0x3de596ab	0.11210378
114	0xbc647c31	-0.013945625
115	0x3d4e268c	0.05032973
116	0xbcd8eb0f	-0.026479272
117	0x3d100ddf	0.03516948
118	0xbd142f32	-0.03617782
119	0xbc8edabd	-0.017438287
120	0x3d3c58ca	0.045983113
121	0x3deaf9c5	0.11473421
122	0x3c4aa393	0.012368101
123	0x3cddc1c2	0.02706993
124	0x3dbd007a	0.092286065
125	0x3d9126d9	0.07087488
126	0x3dda5848	0.106613696
127	0x3de873de	0.11350225
128	0x3d467e67	0.04846039
129	0xbd5e59d3	-0.05428488
130	0xbdc5b51a	-0.09653683
131	0xbdb55269	-0.08853609
132	0xbd785949	-0.060632024
133	0xbd1ae3a2	-0.037814744
134	0xbcf04692	-0.029330526
135	0xbaaeacd8	-0.0013326658
136	0xbd8295bd	-0.063762166
137	0xbdad4270	-0.084599376
138	0xbc75e28c	-0.015007626
139	0x3c9c3348	0.019067422
140	0x3d049eca	0.032377996
141	0x3defeb43	0.117147945
142	0x3d838fa9	0.064238854
143	0x3db8f1cb	0.09030493
144	0x3d4e0908	0.05030158
145	0x3d27a340	0.04092717
146	0x3dfb3d5f	0.12267565
147	0x3c92abe5	0.017904231
148	0xbdde1784	-0.10844329
149	0xbdff4334	-0.1246399
150	0xbde7cc08	-0.11318213
151	0xbdfc8d41	-0.123316295
152	0xbdfebb70	-0.124380946
153	0xbd2ebc86	-0.04266026
154	0xbd433e28	-0.0476667
155	0xbd9356c1	-0.07194281
156	0xbd5a6881	-0.05332232
157	0xbcf776dd	-0.030208046
158	0x3ced997f	0.029003857
159	0x3de91dd3	0.11382642
160	0x3dfebc2e	0.12438236
161	0x3dd77c99	0.10521812
162	0x3cbbef96	0.022941392
163	0x3c176f99	0.009242916
164	0x3d382ce0	0.04496467
165	0x3d3e5a9a	0.046473123
166	0x3abf41cd	0.0014591754
167	0xbd8106d5	-0.06300131
168	0xbdc5640e	-0.096382245
169	0xbdcf8864	-0.10133436
170	0xbdff1528	-0.12455207
171	0xbdec769d	-0.11546061
172	0xbdc0170d	-0.093793966
173	0xbd85151d	-0.06498168
174	0xbdfd41ca	-0.12366064
175	0xbe0d0e31	-0.13774945
176	0xbdca6297	-0.09882086
177	0x3d9d67e9	0.07685835
178	0x3e16a965	0.14713056
179	0x3d88b837	0.06675761
180	0x3d0602c7	0.032717492
181	0x3d561d4b	0.05227403
182	0x3d706a49	0.05869511
183	0x3d32689e	0.043556802
184	0x3d835ae2	0.06413819
185	0x3bfff0d0	0.0078106895
186	0xbdd6162c	-0.10453448
187	0xbd8df978	-0.06932348
188	0xbda053c0	-0.07828474
189	0xbd99799f	-0.074939005
190	0xbe10462c	-0.14089268
191	0xbb9a22c3	-0.004703851
192	0xbd667e45	-0.056272764
193	0xbdb08e2d	-0.08620868
194	0xbdc4ba0f	-0.096058
195	0xbcf18978	-0.029484496
196	0x3bed0a5c	0.007233901
197	0x3e0adc42	0.13560584
198	0x3dfca3d9	0.12335939
199	0x3dba5fa9	0.09100277
200	0xbc628992	-0.013826745
201	0xbd0fce06	-0.03510859
202	0xbbeae299	-0.007168126
203	0x3d1c4261	0.03814924
204	0xbb8af551	-0.00424067
205	0xbd8be1d0	-0.0683018
206	0xbd56bb58	-0.05242476
207	0xbd68e677	-0.056860413
208	0xbcf85cad	-0.030317629
209	0x39d53313	0.0004066458
210	0xbc7e9ef6	-0.015540829
211	0xbd3260be	-0.04354929
212	0xbbec5b45	-0.0072130286
213	0xbd91d0b5	-0.07119886
214	0xbd9ce160	-0.07660174
215	0x3b8848b6	0.0041590584
216	0x3dbbde3c	0.09173247
217	0x3d1ffc0c	0.03905873
218	0x3ce051e6	0.027382802
219	0xbda93b8f	-0.08263313
220	0xbc7806a0	-0.015138298
221	0x3d93d9b4	0.07219258
222	0x3c98dc4c	0.018659733
223	0x3cfdef86	0.030998003
224	0xbcdfa333	-0.0272995
225	0xbd75b27a	-0.05998466
226	0x3c3c01d1	0.011475042
227	0xbdd9d7c8	-0.1063686
228	0x3b287704	0.0025705704
229	0x3c8eda10	0.017437965
230	0x3bec1129	0.007204194
231	0xbce34c3b	-0.02774631
232	0xbdb05e0e	-0.086116895
233	0xbd11e81e	-0.035621755
234	0xbd3d0494	-0.046146944
235	0x3c4dc1c0	0.012558401
236	0x3c864137	0.016388519
237	0xbd01e40a	-0.031711616
238	0xbdadcbd4	-0.08486143
239	0x3cc40b61	0.023931207
240	0xb9a87778	-0.00032132468
241	0x3d880c20	0.06642938
242	0xbcb0b2c8	-0.021569625
243	0xbcf5917c	-0.029976599
244	0xbd852955	-0.06502024
245	0xbd588f36	-0.05287095
246	0xbde85c7c	-0.11345765
247	0xbd9523a0	-0.072821856
248	0x3c353d09	0.011061915
249	0xbd3956ff	-0.04524898
250	0xbd09e452	-0.03366501
251	0xbce63c23	-0.028104847
252	0xbd7c8acf	-0.061655816
253	0xbd7305f4	-0.05933185
254	0xbccd5f16	-0.025069755
255	0xbd101352	-0.035174675

conv1.bias f4 [3]
0	0x3d0c301c	0.03422557
1	0x3d85a275	0.06525127
2	0x3c3eb57e	0.011639951

fc1.weight f4 [128, 300]
0	0x3c826015	0.015914956
1	0xbd8c755f	-0.06858324
2	0xbd1ceea9	-0.03831354
3	0xbd22c73f	-0.039740797
4	0x3d407476	0.046986066
5	0x3d13ad1c	0.03605376
6	0xbb538175	-0.0032273207
7	0x3d661daa	0.056180634
8	0x3d7043e8	0.05865851
9	0x3d85e97b	0.065386735
10	0xbc63e6a2	-0.013909968
11	0x3bcaae6d	0.006185344
12	0x3d2cc743	0.04218222
13	0x3caa03fc	0.020753853
14	0xbc8b324e	-0.01699176
15	0x3d21a6f3	0.039465856
16	0x3da76bd6	0.08174865
17	0x3dcb0657	0.099133186
18	0x3df4d294	0.11954227
19	0x3dd7af5b	0.10531493
20	0xbd2127fa	-0.039344765
21	0xbc6c8d78	-0.014438026
22	0xbd818a8d	-0.063252546
23	0xbd775b0b	-0.06038956
24	0x3cc3c4ff	0.023897646
25	0x3c8dda73	0.017316079
26	0xbc87542c	-0.016519628
27	0x3db23532	0.087015525
28	0x3d908d60	0.07058215
29	0xbccef011	-0.025260957
30	0xbdb57ffe	-0.08862303
31	0xbd6631e6	-0.05619993
32	0xbd8c5436	-0.068519995
33	0xbc83c656	-0.016085785
34	0x3ce049f3	0.027379012
35	0x3c6b4c53	0.014361459
36	0x3c5e4169	0.0135654
37	0xbd1ba5ee	-0.03800004
38	0x3d2f0dd2	0.04273779
39	0x3d79feef	0.06103414
40	0xbc80d7e9	-0.015727954
41	0x3c6c825d	0.014435378
42	0x3d67b7a3	0.056571614
43	0xbd5e5e4c	-0.054289147
44	0x3d04b699	0.0324007
45	0xbd956e1f	-0.072963946
46	0xbc9d9cb2	-0.019239757
47	0x3d059b85	0.032619018
48	0x3d9087ca	0.0705715
49	0x3d6e00d2	0.05810625
50	0x3c2173f8	0.009854309
51	0x3d3bb5f4	0.04582782
52	0x3ce23bee	0.027616467
53	0x3cf0563a	0.029337991
54	0x3c9da028	0.019241408
55	0xbd4e5f0d	-0.050383616
56	0xbcebb1d2	-0.028771315
57	0x3dae0014	0.08496109
58	0x3cf77f96	0.030212205
59	0x3d4b19a4	0.049585
60	0x3d1057dc	0.03524004
61	0x3cfc29a9	0.030781584
62	0x3d6bc9ca	0.057565488
63	0x3bf4f69a	0.0074756863
64	0xbd2814b4	-0.04103537
65	0x3da9f744	0.08299115
66	0x3db2344d	0.08701382
67	0x3c60f77a	0.013730878
68	0x3d771725	0.060324807
69	0x3cd75ec1	0.0262903
70	0x3d9802ff	0.074224465
71	0x3d3d64c8	0.04623869
72	0x3d7cc056	0.061706863
73	0x3d026b3e	0.031840555
74	0x3d0cb6bc	0.034353957
75	0x3be863f0	0.0070919916
76	0x3dc6dc76	0.09710018
77	0xbb421ccd	-0.0029619217
78	0x3b75f10b	0.0037527706
79	0x3d8cda6c	0.06877598
80	0xbbef5669	-0.007304002
81	0x3d015ee5	0.03158464
82	0x3d330db0	0.043714225
83	0xbbc441e4	-0.0059893
84	0xbbf05e09	-0.0073354286
85	0x3c99fd70	0.018797606
86	0x3cf803d0	0.030275255
87	0x3d052292	0.032503672
88	0x3ce7a953	0.028278982
89	0x3cbabc17	0.022794766
90	0xbc80920b	-0.015694639
91	0x3cc652cc	0.024209403
92	0x3cd9ffaf	0.026611177
93	0xbd6d49b6	-0.057931624
94	0xbc69bd37	-0.014266304
95	0x3d31a4fc	0.043370232
96	0x3ccd54ac	0.025064789
97	0xbd65d6a7	-0.05611291
98	0xbd57dd1e	-0.05270111
99	0x3d26c8d5	0.040718872
100	0x3d6a0814	0.05713661
101	0x3d95be87	0.07311731
102	0x3a7f5b11	0.0009741048
103	0x3d9b6168	0.07586938
104	0x3dbbad07	0.09163862
105	0x3c78eba5	0.015192901
106	0x3d17822b	0.036989372
107	0x3d83dac8	0.064382136
108	0x3bd76798	0.0065736286
109	0x3da1620a	0.078800276
110	0xbd30be10	-0.043150008
111	0x3d3475a2	0.044057496
112	0x3caaf018	0.020866439
113	0x3c0aea07	0.008478648
114	0x3c583925	0.013197218
115	0xbc90304f	-0.01760116
116	0xbcb54505	-0.022127638
117	0xbc86c568	-0.016451553
118	0xbd1dc5fc	-0.03851889
119	0xbc8d7514	-0.017267741
120	0xbd21f8b8	-0.039543837
121	0x3d08e9a9	0.03342596
122	0xbc839cab	-0.016065916
123	0x3d6d1e5d	0.057890285
124	0xbd2cb47b	-0.042164307
125	0x3d019dac	0.03164451
126	0xbd58e0a9	-0.052948628
127	0xbd88929b	-0.06668588
128	0x3cf8930e	0.030343559
129	0x3d5fe069	0.054657374
130	0xbd09abb2	-0.033611007
131	0xba7a5136	-0.00095488445
132	0xbd4a0da3	-0.04932941
133	0x3c928cc5	0.01788939
134	0xbd97405b	-0.07385322
135	0xbbf13653	-0.0073612123
136	0x3badee28	0.0053079315
137	0xbd5eedf5	-0.054426152
138	0xbd2f7bd9	-0.04284272
139	0x3d949868	0.07255632
140	0xbc6fb39f	-0.014630227
141	0xbd8fe6b0	-0.07026422
142	0xbd54061a	-0.05176363
143	0xbda574f6	-0.08078949
144	0xbd96b9fd	-0.07359693
145	0x3cb928ee	0.022602525
146	0xbba493e6	-0.0050225137
147	0x3c94a643	0.018145686
148	0xbd3d49f5	-0.04621311
149	0x3d1bcd20	0.03803742
150	0xbc1fe28e	-0.009758605
151	0xbd863c87	-0.065545134
152	0x3c6f4c1c	0.014605548
153	0xbcb2418c	-0.02175977
154	0xbda780ce	-0.081788644
155	0xbda30074	-0.07959071
156	0xbd692c2c	-0.05692689
157	0x3ae5ef00	0.0017542541
158	0xbd6fcfb8	-0.058547705
159	0x3caeda9c	0.021344475
160	0xbbeddd96	-0.007259081
161	0xbd0f3984	-0.03496696
162	0xbd049fb5	-0.03237887
163	0x3d430c1f	0.04761898
164	0x3d1d51e7	0.038408186
165	0xbd177d5d	-0.03698479
166	0xbd6d2a55	-0.0579017
167	0x3d176981	0.03696585
168	0xbca9d804	-0.020732887
169	0x3cbbfd97	0.02294807
170	0x3d548dfe	0.051893227
171	0x3d44f267	0.048082735
172	0xbd1dcbe3	-0.03852452
173	0xbccc8772	-0.02496693
174	0xbc09abec	-0.008402806
175	0x3d2c771a	0.04210577
176	0x3c8b1e9d	0.016982371
177	0xbce84259	-0.02835195
178	0xbc8e380d	-0.017360711
179	0x3d77f376	0.060534917
180	0x3cac2e1b	0.021018079
181	0xbcda90de	-0.026680406
182	0x3d912d91	0.07088769
183	0x3d2b460b	0.041814845
184	0xbc5e6caf	-0.013575717
185	0xbd512d7c	-0.051068768
186	0xbd829984	-0.06376937
187	0xba050f8a	-0.0005075863
188	0xbc8c4aa6	-0.017125439
189	0x3c8dff12	0.017333541
190	0x3d489bc3	0.04897667
191	0x3d334ac7	0.043772485
192	0x3d79c0cd	0.060974885
193	0x3d4817cd	0.048850823
194	0xbccdcc9c	-0.02512198
195	0xbdaa3529	-0.08310921
196	0xbda17574	-0.078837305
197	0xbd47c886	-0.04877522
198	0xbdb119ed	-0.08647523
199	0xbc530be1	-0.01288125
200	0x3d65fa5d	0.05614697
201	0x3d9cd504	0.07657817
202	0x3d34bc9b	0.04412518
203	0x3d9b3969	0.075793095
204	0xbbf1d582	-0.0073801884
205	0x3d175dc7	0.036954667
206	0x3d997a15	0.074939884
207	0x3d9978b9	0.07493729
208	0x3da15d90	0.07879174
209	0xbc33f976	-0.010984769
210	0xbcd689bf	-0.02618873
211	0xbc305edb	-0.010764803
212	0x3d896862	0.067093626
213	0x3d0a6c09	0.033794437
214	0x3d0f287a	0.03495071
215	0x3d795d84	0.0608802
216	0xbc718dc6	-0.014743274
217	0xbcb74fc5	-0.022376904
218	0x3d44914d	0.047990132
219	0xbd882987	-0.06648546
220	0xbd4adb4b	-0.04952554
221	0x3c3d1393	0.011540311
222	0x3ce898cf	0.028393177
223	0x3996c158	0.00028754282
224	0x3cca9765	0.024730394
225	0xbd3c884a	-0.046028413
226	0x3d51c1a7	0.051210072
227	0x3d2080d0	0.039185345
228	0xbb3dc764	-0.0028957957
229	0xbd9604f0	-0.073251605
230	0x3d12524f	0.035723027
231	0x3c1ab722	0.009443076
232	0x3d321f79	0.043487046
233	0xbd80575e	-0.06266664
234	0x3cdf22da	0.027238298
235	0xbcf4b8e8	-0.029873326
236	0x3d269bec	0.040676042
237	0xbcdba86d	-0.02681371
238	0xbd565c1f	-0.052333947
239	0xbdae681b	-0.0851595
240	0xbd83a892	-0.064286366
241	0xbb275cf4	-0.0025537582
242	0xbd56dc97	-0.052456465
243	0xbcacf774	-0.021114089
244	0xbd0ffb49	-0.035151754
245	0x3bc6bff9	0.0060653654
246	0x3d1122d1	0.035433594
247	0x3d4fb77d	0.050712097
248	0xbd6e2d31	-0.058148567
249	0xbc8c0b76	-0.017095309
250	0xbc693f91	-0.014236347
251	0x3d7e3263	0.06205977
252	0xbc95ecd2	-0.018301401
253	0x3cc1fd1d	0.023680264
254	0x3b7829e0	0.0037866756
255	0xbc5eed1d	-0.013606337

fc1.bias f4 [128]
0	0xbd74a74f	-0.05972987
1	0x3d9f7620	0.077862024
2	0xbd233fc7	-0.039855745
3	0xbd28f6ce	-0.041250996
4	0xbd08e1ac	-0.033418342
5	0x3d645bc6	0.055751584
6	0x3c83dc3e	0.01609623
7	0xbdae4eb5	-0.08511106
8	0xbb578173	-0.0032883554
9	0xbd0c8823	-0.034309518
10	0xbe0d27b4	-0.13784677
11	0xbc13e15d	-0.009025899
12	0xbd0ce276	-0.034395657
13	0x3d653c25	0.05596556
14	0x3da7e066	0.081970975
15	0xbd6bb8cb	-0.05754928
16	0xbd417a0a	-0.047235526
17	0xbd75c9f3	-0.060007047
18	0xbd260163	-0.040528666
19	0x3d756f35	0.05992051
20	0x3e088002	0.13330081
21	0x3c738188	0.014862426
22	0x3d485c5e	0.048916213
23	0xbc913fdb	-0.017730644
24	0xbc9f4edc	-0.019446783
25	0x3e14ca84	0.14530379
26	0x3d59f0da	0.05320821
27	0xbe0bd9e6	-0.1365734
28	0x3cca212d	0.024674023
29	0x3d227c68	0.039669424
30	0xbd889dae	-0.066707
31	0x3c43995c	0.011938419
32	0xba62a906	-0.0008646402
33	0x3d33c389	0.04388765
34	0x3dad54c0	0.084634304
35	0x3a89307b	0.0010466719
36	0x3d9d2484	0.076729804
37	0x3d5280d2	0.051392384
38	0x3d9ed051	0.07754577
39	0x3bfd4747	0.007729444
40	0x3dc46f2e	0.09591518
41	0xbc08024f	-0.008301332
42	0x3b0a75ed	0.0021127418
43	0xba71a2cd	-0.00092176796
44	0x3e00543e	0.12532136
45	0xbe015edf	-0.12633847
46	0xbd930713	-0.07179084
47	0x3d1fc2af	0.039004024
48	0x3d143891	0.03618676
49	0x3d25517c	0.040360913
50	0x3d08b563	0.03337611
51	0x3ca98c39	0.020696746
52	0x3db8589f	0.09001278
53	0x3cb3a15e	0.021927532
54	0xbd9f71df	-0.07785391
55	0xbcc07e06	-0.023497593
56	0xbd7e6375	-0.06210657
57	0xbd434555	-0.047673542
58	0x3d7361fe	0.059419625
59	0xbd5ff55a	-0.054677345
60	0xbd4dcb32	-0.05024261
61	0x3cca9b4b	0.024732253
62	0x3c25bb22	0.010115417
63	0x3df80293	0.12109866
64	0xbcf149ee	-0.029454198
65	0x3d149bfa	0.036281563
66	0xbda4651e	-0.08027099
67	0x3d9dee33	0.077114485
68	0x3d3c9769	0.046042833
69	0xbd5b67cd	-0.05356579
70	0xbd0c1221	-0.034196977
71	0x3ddce0e5	0.10785083
72	0x3c70828c	0.014679562
73	0xbdc12b41	-0.09432078
74	0xbd843f79	-0.06457419
75	0x3d165939	0.036706183
76	0x3c781549	0.0151417935
77	0x3d0dab37	0.03458711
78	0x3d74376b	0.059623163
79	0xbc8eca66	-0.017430495
80	0x3dc7ef5a	0.097624496
81	0xbcd24a44	-0.025670178
82	0x3b6a573f	0.003575757
83	0x3d55e810	0.052223265
84	0xbcd2cb89	-0.025731819
85	0x3dd2e061	0.10296703
86	0xbcd777cc	-0.02630224
87	0xbd39bd24	-0.045346394
88	0x3e0b627b	0.13611786
89	0x3c6e6118	0.014549516
90	0xbc7c4a1b	-0.0153985275
91	0xbb6ee13b	-0.0036450166
92	0xbb8bebb9	-0.0042700437
93	0x3decb436	0.1155781
94	0xbddd30c6	-0.108003184
95	0x3c1b5f0a	0.009483108
96	0xbcbc7d35	-0.023008922
97	0x3bd490d9	0.0064869937
98	0xbd69cd2c	-0.057080433
99	0xbde0ccd2	-0.109765664
100	0x3e19a7f7	0.1500548
101	0x3debfef8	0.11523241
102	0x3d30096c	0.042977735
103	0xbc9c1166	-0.019051265
104	0xbd85e31d	-0.06537459
105	0x3c0cf987	0.008604414
106	0x3db69fb5	0.089171804
107	0xbdb33b5c	-0.08751556
108	0xbe13e4de	-0.14442775
109	0x3d22750c	0.039662406
110	0xbd266d63	-0.040631663
111	0xbdd606e5	-0.10450534
112	0x3da91af8	0.08257097
113	0x3ba6caf3	0.0050901114
114	0xbccbcf33	-0.024879074
115	0x3cb497b0	0.022044986
116	0x3d141909	0.036156688
117	0xbc66df31	-0.014091299
118	0x3dc51b44	0.09624341
119	0x3bcc876a	0.0062417286
120	0xbd1bdbcb	-0.038051408
121	0x3d0903b7	0.03345081
122	0xbd5592b4	-0.05214186
123	0x3d85f5eb	0.06541046
124	0x3d785ba8	0.060634285
125	0xbd30a518	-0.043126196
126	0x3d8c9298	0.06863898
127	0x3daa34be	0.08310841

fc2.weight f4 [10, 128]
0	0xbccb2f74	-0.0248029
1	0xbdeb84ec	-0.11499962
2	0x3dc45a1c	0.095874995
3	0x3d3ea8e9	0.046547804
4	0xbdeb399e	-0.11485599
5	0x3da00d34	0.07815018
6	0x3d3bc19d	0.04583894
7	0xbd8475e2	-0.06467797
8	0xbae6af2d	-0.0017599814
9	0x3da9515f	0.082674734
10	0x3cca07a6	0.02466185
11	0x3ce872c0	0.02837503
12	0x3d92016b	0.07129177
13	0xbd86c410	-0.06580365
14	0xbe083056	-0.13299689
15	0x3bb3e40a	0.005489831
16	0xbd97a561	-0.074045904
17	0xbd2905b3	-0.0412652
18	0xbd6fd87c	-0.058556065
19	0xbe283624	-0.16426903
20	0xbd5e3988	-0.054254085
21	0xbd5f5295	-0.054522116
22	0xbddfaea8	-0.10921985
23	0x3d0842f0	0.03326696
24	0xbdaab3db	-0.08335086
25	0x3d49b71d	0.049246896
26	0xbdaefa52	-0.085438386
27	0x3de27271	0.11056984
28	0x3c7e4c9d	0.015521196
29	0xbd8a1aed	-0.06743417
30	0x3d7c75d7	0.06163582
31	0xbd8e92df	-0.06961607
32	0xbde9a552	-0.114084855
33	0xbd67817a	-0.056519963
34	0xbc9730d0	-0.018455893
35	0x3dc099c0	0.094043255
36	0xbcdaacf2	-0.026693795
37	0x3d92c8cf	0.071672074
38	0x3d8f4ae1	0.06996704
39	0x3dedbf12	0.116087094
40	0xbc1b2502	-0.009469273
41	0x3da8137f	0.082068436
42	0xbda74853	-0.081680916
43	0x3cc9103e	0.024543878
44	0xbdaf9544	-0.08573392
45	0xbc31879e	-0.010835556
46	0xbd535c6a	-0.051601805
47	0xbd09a495	-0.033604223
48	0xbc243c58	-0.010024153
49	0x3a6cdbc4	0.0009035433
50	0xbd01ceeb	-0.031691473
51	0xbcf7c9cf	-0.030247597
52	0xbdaf0dd6	-0.08547561
53	0x3bf451ed	0.0074560554
54	0xbd899dd5	-0.06719557
55	0x3c9d9a3a	0.01923858
56	0x3d4ec7d8	0.050483555
57	0x3d30e4de	0.043187015
58	0x3dd67187	0.10470872
59	0x3d8920be	0.06695698
60	0x3d967a50	0.07347548
61	0xbd4125bf	-0.047155138
62	0xbb485f8c	-0.0030574529
63	0x3d8c79c3	0.06859162
64	0x3dabcfc4	0.083892375
65	0x3d82e787	0.063918166
66	0xbd6b8707	-0.05750182
67	0xbe0a7f0e	-0.1352503
68	0x3c1e2e62	0.009654613
69	0x3d9d7fe6	0.0769041
70	0x3c8354f4	0.01603172
71	0xbc1f4058	-0.009719931
72	0x3bbced1f	0.0057655717
73	0x3d95e7cf	0.073196046
74	0xbd8eaf6f	-0.06967055
75	0xbe2ca3bf	-0.16859339
76	0x3db03aa8	0.08604938
77	0x3d8029f1	0.06258
78	0x3db492b4	0.08817044
79	0xbd90afc4	-0.07064775
80	0xbe0407e9	-0.12893642
81	0x3cd33128	0.025780275
82	0xbd441243	-0.04786898
83	0xbdd2fc29	-0.10302002
84	0xbcf9fe14	-0.030516662
85	0xbd3fdd1e	-0.046841733
86	0xbce3000d	-0.027709985
87	0xbc759271	-0.014988528
88	0xbdb32117	-0.08746546
89	0x3cd93c9d	0.02651816
90	0x3d87ebf7	0.066368036
91	0xbdbf706c	-0.09347615
92	0x3dfa4a8d	0.12221251
93	0x3d82af4b	0.06381091
94	0x3d04be5a	0.032408096
95	0xbdc2f6e1	-0.09519745
96	0x3ccc1c59	0.024915861
97	0x3dc7cc24	0.097557336
98	0x3df0fdfa	0.11767192
99	0xbd7694eb	-0.060200613
100	0xbd074744	-0.03302695
101	0xbce5a5b0	-0.028033108
102	0x3d4abb19	0.049494836
103	0xbda0b22b	-0.07846483
104	0x3d224d31	0.039624397
105	0xbdd0f0bd	-0.10202167
106	0xbd2cbc7f	-0.04217195
107	0xbe00f12c	-0.12592
108	0x3d67bf0b	0.056578677
109	0x3db47813	0.08811965
110	0x3cea0cd2	0.028570566
111	0x3d3fa215	0.046785433
112	0x3d2a6d1a	0.041607954
113	0xbd21f24d	-0.039537717
114	0xbcd17323	-0.025567597
115	0x3dfb7b9c	0.12279436
116	0x3cc6acf7	0.024252398
117	0xbda2b8e4	-0.07945421
118	0xbe2163a5	-0.15760668
119	0x3d36914e	0.044572167
120	0x3dc273d7	0.09494751
121	0xbdbb6c98	-0.09151572
122	0xbddad5b8	-0.10685295
123	0xbdd2cf32	-0.102934256
124	0x3d131225	0.035905976
125	0xbdaa618e	-0.08319388
126	0xbde0084f	-0.10939085
127	0x3d133a60	0.035944343
128	0x3c5618d4	0.013067443
129	0xbd73cfa6	-0.0595242
130	0xbb07c087	-0.002071412
131	0x3d8b8e9f	0.06814312
132	0x3d5bb1dc	0.053636417
133	0xbd7afa03	-0.061273586
134	0xbd218d21	-0.03944123
135	0x3de75d65	0.112971105
136	0x3d91d654	0.07120958
137	0xbe087c0b	-0.13328569
138	0x3bba32e0	0.0056823343
139	0xbe0712cf	-0.13190769
140	0xbd62e611	-0.05539519
141	0x3d9ebb91	0.07750619
142	0x3d7d32b8	0.061815947
143	0xbd1227b1	-0.035682384
144	0xbe1bdf9e	-0.15222022
145	0xbd485b39	-0.04891512
146	0xbd857499	-0.0651638
147	0x3ddcb645	0.10776953
148	0xbd9768c5	-0.0739303
149	0x3d919863	0.071091436
150	0xbb5066e5	-0.0031799611
151	0xbd9b28ea	-0.07576163
152	0x3df2c572	0.11854066
153	0xbd2b5ee1	-0.04183853
154	0x3cfffbdd	0.031248027
155	0xbdd966f5	-0.106153406
156	0xbdedd57e	-0.11612986
157	0xbe13fd9c	-0.14452213
158	0xbd9f2a39	-0.07771725
159	0xbe02a365	-0.12757643
160	0xbad71eed	-0.0016412415
161	0x3d1d5ad2	0.03841669
162	0x3dd1b04c	0.10238704
163	0xbd231e6d	-0.03982394
164	0xbdea7020	-0.114471674
165	0xbbace01a	-0.0052757384
166	0x3db28b22	0.08717944
167	0xbde17974	-0.110094935
168	0xbd79a779	-0.06095073
169	0x3c3003e5	0.010743116
170	0xbda0b079	-0.078461595
171	0xbddcba58	-0.1077773
172	0x3dde89e6	0.10866146
173	0x3d05d2d8	0.03267178
174	0xbe234e4a	-0.15947834
175	0xbdd951a4	-0.10611275
176	0x3da5441e	0.08069633
177	0x3d1eafce	0.03874188
178	0xbe227a81	-0.15867044
179	0x3dfecd00	0.124414444
180	0x3d1c2161	0.03811777
181	0xbce0de4c	-0.02744975
182	0x3d532c77	0.051556077
183	0x3a7dd18e	0.000968241
184	0xbcde0d33	-0.027105903
185	0x3d13d7a6	0.03609433
186	0xbe029160	-0.12750769
187	0xbd40ac65	-0.04703941
188	0x3d982bf6	0.0743026
189	0xbd838cd5	-0.06423346
190	0xbcf731ac	-0.030175053
191	0x3dac7d98	0.084223926
192	0xbd42a3e3	-0.047519576
193	0x3de4ccd8	0.11171883
194	0x3cf5e247	0.030015124
195	0x3d9b55cb	0.07584723
196	0xbc755cab	-0.014975707
197	0xbde4353f	-0.111429684
198	0xbd04f2dc	-0.03245817
199	0x3d1b0ef6	0.037856065
200	0x3d3b4fc6	0.045730375
201	0xbe1975c4	-0.1498633
202	0x3deb0354	0.11475244
203	0x3d882b18	0.066488445
204	0x3cb89191	0.022530349
205	0x3db1ff56	0.086912796
206	0x3c9bf996	0.01903991
207	0x3d4f46c6	0.050604604
208	0xbdf2b1b8	-0.118503034
209	0xbd4290df	-0.04750144
210	0xbe0ce8f3	-0.13760738
211	0x3d0dffb5	0.03466769
212	0x3d6de5ed	0.058080602
213	0xbdf6c1b8	-0.12048668
214	0xbe0a65fa	-0.13515463
215	0x3d00e0bc	0.031464323
216	0x3dd80923	0.10548618
217	0x3d9cabdf	0.07649969
218	0xbbe372f5	-0.006941194
219	0xbdf122b9	-0.11774201
220	0xbc9d53d3	-0.01920501
221	0x3ddfd7c9	0.109298296
222	0xbd95b169	-0.07309229
223	0xbdd9ef21	-0.10641313
224	0x3c7e3f55	0.015518029
225	0x3be92884	0.0071154255
226	0x3dd2acda	0.10286875
227	0x3dec0071	0.11523522
228	0x3c31f673	0.010861981
229	0x3dfbc72d	0.12293849
230	0x3d116dfb	0.035505276
231	0xbd713cb6	-0.05889579
232	0x3be882c5	0.007095667
233	0xbd48140e	-0.04884725
234	0x3db56374	0.0885686
235	0xbe0731b0	-0.13202548
236	0x3d0e0e1d	0.03468143
237	0xbd883c6a	-0.06652148
238	0x3ca223d9	0.019792484
239	0xbdfbee4e	-0.123013124
240	0xbdd015dc	-0.10160419
241	0xbac80b36	-0.001526213
242	0x3db07eb0	0.08617914
243	0xbe1ce790	-0.15322709
244	0xbe1191c7	-0.14215766
245	0x3d93cc72	0.07216729
246	0x3db682e8	0.08911687
247	0x3dbdf37f	0.09274959
248	0x3cd37f25	0.025817463
249	0x3cc32ae5	0.023824165
250	0x3d6f7779	0.058463547
251	0x3dac04c2	0.08399345
252	0x3d647eb3	0.055784892
253	0x3dd4725e	0.10373376
254	0xbd6fcc94	-0.05854471
255	0x3c89931a	0.016793776

fc2.bias f4 [10]
0	0x3d2826a2	0.041052468
1	0x3df41cf2	0.119195834
2	0xbdb40e22	-0.08791758
3	0xbbb6b1e3	-0.005575405
4	0xbbd5821b	-0.006515754
5	0x3dae4bdd	0.085105635
6	0xbbeecd02	-0.0072876224
7	0x3db534f4	0.08847991
8	0xbdf12c10	-0.117759824
9	0xbd703a66	-0.058649443
