Experiment/benchmark/cnn_small/onnx/simple_cnn_3x17.onnx (onnx, 231217 bytes, 6 tensors)

conv1.weight f4 [3, 1, 17, 17]
-0.0023114164 -0.06263633 -0.07623338 -0.09212998 -0.063812524 -0.021431098 -0.040953144 -0.07698018
-0.11502388 -0.11960729 -0.089381285 -0.045743022 -0.05330247 0.019735308 0.09038822 0.13850878
0.058124527 -0.03382731 -0.06608765 -7.786776e-05 -0.09572617 -0.0764317 -0.08591654 -0.050266612
-0.09131628 -0.11891912 -0.09565901 -0.070826456 -0.09889715 -0.052496415 -0.09315714 0.046649598
0.108918145 0.06868123 -0.021992043 -0.041264415 0.012126964 -0.06462273 -0.07114524 -0.00052288116
0.019852528 0.011459361 -0.07079848 -0.038513377 -0.09164746 -0.0050867475 -0.117787726 -0.058450308
-0.03603044 -0.015715387 0.054401435 -0.038193755 0.04891086 -0.014248035 0.06767525 -0.00690101
0.029986119 0.09576345 0.002471989 0.009846668 -0.03088212 0.06062098 -0.028423812 -0.06996622
-0.042695947 0.082545735 0.051516034 0.09015712 -0.045628157 0.044294313 0.06697384 0.013854113
0.016384088 0.09681605 0.10049975 0.1080852 0.071695335 0.06399647 -0.010952711 -0.059625193
-0.00068957685 0.015957776 0.0065622064 0.032470904 0.0073094117 -0.072624154 0.008847558 -0.019002326
-0.030758817 -0.013790499 0.03619428 0.06959674 0.08605777 -0.0029727519 0.035385802 0.039162844
-0.06328719 -0.022424327 0.020165414 0.103663675 0.06624904 0.0926744 -0.027929362 0.009700157
0.041267183 -0.04579283 -0.04003602 -0.039408494 -0.04237216 0.026541501 -0.010104744 0.002868043
-0.03999793 -0.08050602 0.012965763 0.089001015 -0.008638597 -0.012023992 0.08424647 -0.015740175
0.007360988 -0.01793523 -0.06406475 -0.049288053 -0.03782305 0.0018234233 -0.037226703 -0.05478927
-0.03623408 -0.003257397 -0.015016242 0.012869483 0.086503804 0.0066466904 0.07111154 -0.00082483195
0.0030255183 0.03479857 0.033716723 -0.027512467 0.035028152 0.031040909 0.037736032 -0.01606981
-0.044193365 0.03997402 0.022373065 0.042068493 0.08670967 0.09926454 0.06747885 -0.014673463
0.025910793 -0.010013567 0.035592474 0.057528816 0.046759475 -0.028368356 -0.02024251 -0.0009326246
0.01898233 0.063169934 0.11613363 0.10153416 0.07427212 0.03888219 0.09383608 -0.0046919603
0.0009927267 -0.01990021 0.07864242 0.01780286 0.065426774 0.049442705 0.03998848 0.08793151
0.055475447 0.04396037 0.03716332 0.13071503 0.16167407 0.15944761 0.10870002 0.03511501
-0.018048715 -0.03479365 -0.04565049 0.030007008 0.05185854 0.028937023 0.09294477 0.085846044
0.095908195 0.04301253 0.061232112 0.10863327 0.12706694 0.12112126 0.037549503 0.09171654
-0.02538677 -0.025472026 -0.08772216 -0.009819082 0.026963893 0.072500095 0.07244931 0.023068985
0.101329595 -0.009748399 0.10196852 0.06424327 0.028898759 0.036378324 0.0500813 -0.020723099
-0.056520578 -0.13522288 -0.06894446 -0.09298559 -0.026054213 0.08679469 0.10945805 0.12280338
0.08346224 0.030611917 0.022033172 0.06795352 0.0956806 0.05163721 -0.010539548 0.020794155
-0.13062967 -0.06291728 -0.095572926 -0.12488983 -0.10276437 -0.07806321 0.015314208 -0.012153307
0.060045004 0.03355205 0.009042446 0.03372103 0.057722673 -0.0069444594 -0.028373756 0.03043106
-0.11901802 -0.14935519 -0.15695699 -0.093619265 -0.056976225 -0.037052225 -0.12584415 -0.08834748
00000000: 227b 17bb 7a47 80bd 3f20 9cbd a5ae bcbd
00000010: 24b0 82bd 4590 afbc 7cbe 27bd c9a7 9dbd
00000020: a491 ebbd abf4 f4bd 890d b7bd 095d 3bbd
00000030: b153 5abd f1ab a13c 761d b93d 3fd5 0d3e
00000040: fc13 6e3d 818e 0abd f658 87bd ef4c a3b8
00000050: 150c c4bd 3988 9cbd 03f5 afbd 5de4 4dbd
00000060: 0804 bbbd de8b f3bd dfe8 c3bd 760d 91bd
00000070: 978a cabd 7b06 57bd 2cc9 bebd a613 3f3d
00000080: 7a10 df3d bfa8 8c3d a828 b4bc e004 29bd
00000090: 2cb0 463c ec58 84bd 98b4 91bd f611 09ba
000000a0: c5a1 a23c 0bc0 3b3c cbfe 90bd 34c0 1dbd
000000b0: aab1 bbbd bbae a6bb b13a f1bd 9769 6fbd
000000c0: a894 13bd 8ebd 80bc 0ad4 5e3d 0e71 1cbd
000000d0: c156 483d 9770 69bc 5299 8a3d de21 e2bb
000000e0: 73a5 f53c a11f c43d 1801 223b eb53 213c
000000f0: 80fc fcbc b44d 783d 0ed9 e8bc 734a 8fbd
00000100: f2e1 2ebd bd0d a93d 7a02 533d 4ca4 b83d
00000110: 97e4 3abd f46d 353d 9529 893d 5dfc 623c
00000120: ec37 863c 7e47 c63d d0d2 cd3d c65b dd3d
00000130: 01d5 923d 9510 833d 0073 33bc 8c39 74bd
00000140: b8c4 34ba e2b9 823c c707 d73b 3600 053d
00000150: ca83 ef3b f9bb 94bd 59f5 103c c4aa 9bbc
00000160: eaf9 fbbc 8cf1 61bc 7440 143d bc88 8e3d
00000170: 0e3f b03d 80d2 42bb b4f0 103d 3869 203d
00000180: b79c 81bd 39b3 b7bc f031 a53c 9f4d d43d
00000190: 94ad 873d 13cc bd3d 1ecc e4bc 68ed 1e3c
000001a0: c707 293d 4391 3bbd cffc 23bd cd6a 21bd
000001b0: 6e8e 2dbd 906d d93c 5e8e 25bc c7f5 3b3b
000001c0: dfd4 23bd 57e0 a4bd 5a6e 543c 2a46 b63d
000001d0: e788 0dbc 4700 45bc 6a89 ac3d 8af1 80bc
000001e0: 7134 f13b e7ec 92bc 6134 83bd 45e2 49bd
000001f0: 58ec 1abd efff ee3a 077b 18bd b76a 60bd
00000200: 306a 14bd 0e7a 55bb af06 76bc 86da 523c
00000210: e828 b13d 7bcc d93b eda2 913d 8939 58ba
00000220: c647 463b f288 0e3d 8c1a 0a3d d361 e1bc
00000230: ae79 0f3d 8149 fe3c 1991 1a3d d6a4 83bc
00000240: 1a04 35bd ccbb 233d b847 b73c 0350 2c3d
00000250: d794 b13d 354b cb3d 5a32 8a3d f768 70bc
00000260: df42 d43c f20f 24bc 6ac9 113d 56a3 6b3d
00000270: dd86 3f3d c164 e8bc 9fd3 a5bc 617b 74ba
00000280: d580 9b3c 3d5f 813d 78d7 ed3d 24f1 cf3d
00000290: fb1b 983d ee42 1f3d 212d c03d 04bf 99bb
000002a0: 611e 823a c405 a3bc 470f a13d 4ed7 913c
000002b0: 79fe 853d 6f84 4a3d f6ca 233d 6f15 b43d
000002c0: 393a 633d ca0f 343d 9138 183d 29da 053e
000002d0: e38d 253e 3c46 233e 1e9e de3d c2d4 0f3d
000002e0: e6da 93bc c983 0ebd 02fc 3abd 42d1 f53c
000002f0: 9f69 543d 560d ed3c d459 be3d 0dd0 af3d
00000300: 846b c43d e82d 303d 86ce 7a3d 1f7b de3d
00000310: d61d 023e 6c0e f83d 82cd 193d e2d5 bb3d
00000320: eaf7 cfbc b6aa d0bc ada7 b3bd 37e0 20bc
00000330: 62e3 dc3c ee7a 943d 4e60 943d 2bfb bc3c
00000340: e485 cf3d c0b7 1fbc dfd4 d03d fa91 833d
00000350: 17bd ec3c 7001 153d 0d22 4d3d 7dc3 a9bc
00000360: 1f82 67bd de77 0abe c132 8dbd 3b6f bebd
00000370: a56f d5bc 6ac1 b13d 8b2b e03d 5780 fb3d
00000380: 40ee aa3d d8c5 fa3c e97e b43c 372b 8b3d
00000390: 31f4 c33d 8a81 533d 11ae 2cbc 8158 aa3c
000003a0: c9c3 05be c6da 80bd bdbb c3bd 3dc6 ffbd
000003b0: 2076 d2bd 9bdf 9fbd 72e8 7a3c aa1e 47bc
000003c0: c0f1 753d e06d 093d c426 143c 101f 0a3d
000003d0: 9c6e 6c3d 598e e3bb 1470 e8bc 8f4a f93c
000003e0: b8bf f3bd 91f0 18be 55b9 20be 75bb bfbd
000003f0: e75f 69bd 13c4 17bd 4add 00be 86ef b4bd

conv1.bias f4 [3]
0.1134472 -0.046051864 0.09258556
00000000: 0157 e83d e1a0 3cbd 809d bd3d

fc1.weight f4 [128, 432]
-0.046359304 -0.026065314 -0.004464989 -0.028054984 0.037213244 0.07241847 0.016469426 0.035747394
0.051786043 0.06101818 0.035068687 0.024596462 -0.13920815 -0.04782416 -0.04858819 0.062245682
0.05218654 0.04440052 0.08530238 0.041455753 0.051822558 0.08928706 -0.00024311809 0.002835858
-0.035356544 -0.032108508 0.015380143 0.00031319796 0.0010756232 0.003186315 0.06348608 0.04284137
0.051622 0.07620708 0.055771846 0.06911957 -0.04664438 0.064086884 -0.02550919 -0.02700376
-0.015939178 -0.024002273 0.0038246627 0.03119364 0.019260552 0.05901625 0.041691054 -0.0005927175
0.03442586 0.089820035 0.0150696235 0.03528316 0.007050922 -0.054741804 -0.037358988 0.0021733353
-0.0075411885 0.019091247 -0.010871965 -0.018506026 0.10710647 0.085671015 -0.004788236 0.013853509
0.00234753 -0.030918011 -0.039673995 0.02043005 -0.0032561724 -0.066184245 -0.017635483 -0.051705454
0.08287321 0.037860345 0.03119037 0.02285884 0.05927498 0.06055898 0.03118424 -0.03874705
-0.011521776 -0.02002856 -0.042861074 -0.011352039 0.035279293 0.035977636 0.011120549 -0.010580074
0.0046615363 0.06895802 0.04273722 0.001340466 -0.042664442 -0.04300415 -0.048738237 0.005094074
0.02845612 -0.016226465 -0.018755851 0.03092279 0.02682637 -0.017278107 -0.013631036 0.034513306
0.0027994148 -0.07189984 -0.070892766 -0.05551653 -0.00880769 -0.09171299 -0.023227222 0.012759556
0.03785441 0.013858786 0.029789468 0.017314477 -0.055189226 -0.04261911 0.025349718 0.013478793
-0.04816349 -0.052926365 -0.036189806 -0.024463478 -0.012242785 0.02640037 0.022252856 0.026949931
0.037465103 0.021522585 0.031068776 -0.023089254 -0.029770164 -0.076672055 0.0050424025 0.0018579944
-0.026508734 0.03808623 0.050438304 0.009871792 0.07972757 0.008013272 0.071810655 0.04168867
0.027408734 0.08314558 0.009899287 -0.0145223485 0.042684563 -0.038814317 0.03561661 0.052663166
0.016097596 0.09178074 -0.006790818 0.0736304 0.04923974 0.042624347 0.038029157 -0.0064936588
-0.01908171 0.02568294 0.041361324 0.03944714 0.06317748 0.047980797 0.0027159213 0.06744673
-0.025360428 -0.02736275 -0.021777663 -0.007645614 -0.03665851 -0.028957859 0.029858956 0.0075588888
-0.014627721 0.063625485 -0.021644002 -0.030198894 -0.05706549 -0.0444671 -0.009244823 -0.0025054822
0.05170138 0.054089192 0.005843208 0.058202095 -0.028409835 -0.011032794 0.018678145 -0.0030838065
-0.027691884 -0.014728681 0.0054815197 0.00056399626 -0.015010977 0.03615625 0.01004643 0.029906457
-0.016516704 -0.0268952 0.005763402 -0.0056209443 -0.03341668 -0.03658378 -0.03929845 0.042368557
0.029012123 0.064041555 0.060127057 0.004645017 -0.035957586 -0.029044388 0.010709487 -0.07337995
-0.012715634 0.035701178 0.056223854 -0.0069996426 -0.006313151 0.04653245 0.06506891 0.027793206
-0.059247445 -0.07377213 -0.008364686 -0.021894554 0.088209935 0.06386492 0.036205288 -0.031161923
0.050142422 0.027129045 -0.016399333 0.01435301 0.0015560525 0.0007871752 0.01063106 -0.040691342
0.025352437 0.023372248 0.031717047 -0.015102815 -0.018704392 0.010152918 0.024225993 0.013723985
0.026569432 -0.06406212 -0.05733286 0.0021892134 0.09211991 0.108003765 0.041213326 0.082094766
00000000: 41e3 3dbd ed86 d5bc 0b4f 92bb 91d3 e5bc
00000010: ea6c 183d 2350 943d e4ea 863c dc6b 123d
00000020: 9a1d 543d 33ee 793d 2fa4 0f3d 857e c93c
00000030: 958c 0ebe 44e3 43bd 6904 47bd 54f5 7e3d
00000040: 8ec1 553d 52dd 353d 04b3 ae3d 82cd 293d
00000050: e443 543d 22dc b63d 84ed 7eb9 cdd9 393b
00000060: 06d2 10bd 3684 03bd fffc 7b3c b834 a439
00000070: edfb 8c3a 7fd1 503b fd04 823d 6f7a 2f3d
00000080: 9771 533d 7512 9c3d 0571 643d 908e 8d3d
00000090: 2d0e 3fbd fc3f 833d a6f8 d0bc fd36 ddbc
000000a0: e192 82bc 6aa0 c4bc 31a7 7a3b ce89 ff3c
000000b0: 4ec8 9d3c 06bb 713d 3dc4 2a3d 9960 1bba
000000c0: 2102 0d3d 91f3 b73d 95e6 763c 1385 103d
000000d0: 6c0b e73b f138 60bd bd05 19bd 846e 0e3b
000000e0: 131c f7bb 3f65 9c3c 5420 32bc f399 97bc
000000f0: a35a db3d 4974 af3d a3e6 9cbb d4f9 623c
00000100: 05d9 193b c547 fdbc 3381 22bd ec5c a73c
00000110: 8265 55bb 9b8b 87bd 4a78 90bc 19c9 53bd
00000120: 6eb9 a93d 7313 1b3d f282 ff3c 7642 bb3c
00000130: 52ca 723d b10c 783d 1776 ff3c 3ab5 1ebd
00000140: d5c5 3cbc ef12 a4bc 188f 2fbd e7fd 39bc
00000150: 0581 103d 495d 133d f732 363c 0c58 2dbc
00000160: cdbf 983b dd39 8d3d 390d 2f3d 93b2 af3a
00000170: e9c0 2ebd 1f25 30bd bfa1 47bd 31ec a63b
00000180: cf1c e93c 5ded 84bc dfa5 99bc ca51 fd3c
00000190: fac2 db3c d18a 8dbc b554 5fbc d35d 0d3d
000001a0: 6376 373b 3940 93bd 3a30 91bd 4d65 63bd
000001b0: 214e 10bc 05d4 bbbd 0447 bebc 750d 513c
000001c0: 3a0d 1b3d f60f 633c 0b09 f43c 17d7 8d3c
000001d0: 190e 62bd 6091 2ebd 36aa cf3c 28d6 5c3c
000001e0: 1447 45bd 51c9 58bd c33b 14bd a267 c8bc
000001f0: f695 48bc 9745 d83c 9f4b b63c 1ac6 dc3c
00000200: 0275 193d 2250 b03c f283 fe3c ad25 bdbc
00000210: 8fe0 f3bc 3d06 9dbd bd3a a53b f287 f33a
00000220: d828 d9bc 4f00 1c3d 6598 4e3d 4cbd 213c
00000230: 3548 a33d 194a 033c 7711 933d bdc1 2a3d
00000240: 4888 e03c 3b48 aa3d 9e30 223c 25ef 6dbc
00000250: 02d6 2e3d c3fb 1ebd b9e2 113d 55b5 573d
00000260: 1bdf 833c 8af7 bb3d 8385 debb 89cb 963d
00000270: 9caf 493d de96 2e3d 76c4 1b3d c2c8 d4bb
00000280: 3f51 9cbc 0765 d23c 7e6a 293d 5393 213d
00000290: 3263 813d 8387 443d 99fd 313b 8321 8a3d
000002a0: acc0 cfbc d927 e0bc 1267 b2bc 0f88 fabb
000002b0: 3c27 16bd 0839 edbc c59a f43c 8eb0 f73b
000002c0: 1ca9 6fbc 144e 823d c34e b1bc ac63 f7bc
000002d0: 81bd 69bd 2223 36bd 9977 17bc 0433 24bb
000002e0: d4c4 533d a18c 5d3d 6278 bf3b 5265 6e3d
000002f0: bebb e8bc e4c2 34bc e902 993c b019 4abb
00000300: 17da e2bc 9150 71bc 529e b33b 26d9 133a
00000310: 9af0 75bc 9318 143d c899 243c 63fe f43c
00000320: 0a4e 87bc 5353 dcbc ecda bc3b e62f b8bb
00000330: eedf 08bd e0d8 15bd 69f7 20bd a78a 2d3d
00000340: d5aa ed3c 3828 833d ca47 763d 3a35 983b
00000350: 4348 13bd 7fee edbc d876 2f3c 3a48 96bd
00000360: 3c55 50bc 663b 123d fc4a 663d 425d e5bb
00000370: 8dde cebb cf98 3e3d d942 853d 94ae e33c
00000380: 73ad 72bd d815 97bd 090c 09bc 355c b3bc
00000390: 69a7 b43d 9ccb 823d ff4b 143d 4a47 ffbc
000003a0: 2462 4d3d bb3d de3c e557 86bc e328 6b3c
000003b0: 75f4 cb3a 6f5a 4e3a e62d 2e3c f7ab 26bd
000003c0: eaaf cf3c 2877 bf3c bce9 013d cc71 77bc
000003d0: f439 99bc 6d58 263c 9775 c63c 91da 603c
000003e0: 23a8 d93c 0033 83bd dcd5 6abd e878 0f3b
000003f0: 5da9 bc3d 1431 dd3d 4ecf 283d 4d21 a83d

fc1.bias f4 [128]
-0.08265708 0.02626827 0.0132382745 0.045511626 -0.039431777 0.06614056 0.09036228 0.058034092
0.09947248 -0.0444532 -0.009572525 -0.029118259 -0.030899556 -0.011474649 -0.03782067 -0.013516971
0.017219309 0.06801202 -0.026315177 0.07525104 0.023610137 0.026767274 0.07621088 0.026410917
0.10244607 0.00864145 -0.021837657 0.014329477 -0.0010275741 0.105715565 0.0017276971 0.00605457
0.074215 0.0028681825 -0.06019491 0.043620914 0.03731349 0.06944156 0.09863171 0.013401588
0.041079372 -0.057429474 0.063644335 -0.03532963 0.073988944 -0.037584983 0.004691814 -0.037563246
-0.024065163 -0.016754543 -0.049655892 0.033237502 0.044389647 -0.010542359 -0.07647775 0.050053094
0.022825703 0.03376916 -0.048072346 -0.0016154665 0.029040325 -0.01195739 -0.00087593717 0.08976178
0.08694936 0.044904556 -0.089914516 -0.017796015 -0.045329403 0.0091155395 0.04198788 -0.014244172
-0.018236883 0.062331352 0.035830688 -0.029389583 -0.009730186 0.050370954 -0.008017596 0.04386963
-0.07192506 0.07417407 0.042601872 -0.052451927 -0.001043307 -0.006875894 0.006517025 0.011168645
-0.038243078 0.03707683 -0.065560676 -0.006217582 0.03745942 -0.079813495 0.06359019 0.056584783
-0.00304637 0.019038016 0.038302846 0.027573086 0.020863565 -0.065873705 0.031403683 0.078346156
-0.031527657 0.018078996 0.05186746 0.024732955 0.041661542 0.059522 -0.020782935 -0.0040795095
-0.10699504 0.066687 -0.044972844 -0.048362494 0.040009927 -0.0631746 0.039710578 0.028808264
-0.04365622 0.03612371 -0.010377784 0.013558564 0.036731105 0.03530431 -0.01138562 0.05348379
00000000: 1d48 a9bd 8e30 d73c 59e5 583c 666a 3a3d
00000010: 3783 21bd b474 873d dc0f b93d 28b5 6d3d
00000020: 3ab8 cb3d 8f14 36bd 14d6 1cbc 6a89 eebc
00000030: 1121 fdbc 2b00 3cbc d9e9 1abd 4976 5dbc
00000040: 820f 8d3c e349 8b3d ed92 d7bc 381d 9a3d
00000050: 0c6a c13c 0b47 db3c 7314 9c3d b55b d83c
00000060: 3fcf d13d de94 0d3c e3e4 b2bc 2fc6 6a3c
00000070: aaaf 86ba 6781 d83d e573 e23a 6a65 c63b
00000080: 09fe 973d 1ef8 3b3b f08e 76bd d8ab 323d
00000090: 08d6 183d 6037 8e3d 6cff c93d 5692 5b3c
000000a0: d842 283d 2b3b 6bbd f657 823d cdb5 10bd
000000b0: 8487 973d b6f2 19bd cabd 993b ebdb 19bd
000000c0: 4e24 c5bc d340 89bc fa63 4bbd 0c24 083d
000000d0: ebd1 353d dcb9 2cbc 5ea0 9cbd 7904 4d3d
000000e0: f8fc ba3c 8851 0a3d 82e7 44bd 10be d3ba
000000f0: fae5 ed3c eee8 43bc 269f 65ba 06d5 b73d
00000100: 8212 b23d d7ed 373d 1a25 b8bd f3c8 91bc
00000110: 53ab 39bd 5859 153c 7cfb 2b3d 6360 69bc
00000120: 8465 95bc 294f 7f3d 33c3 123d 6cc2 f0bc
00000130: 5c6b 1fbc c651 4e3d 3c5c 03bc a4b0 333d
00000140: 724d 93bd 93e8 973d 4d7f 2e3d d5d7 56bd
00000150: 93bf 88ba 2e4f e1bb c58c d53b b1fc 363c
00000160: c6a4 1cbd e0dd 173d ad44 86bd dcbc cbbb
00000170: 0c6f 193d 4275 a3bd 933b 823d 72c5 673d
00000180: 9ca5 47bb 9df5 9b3c 72e3 1c3d f4e0 e13c
00000190: 11ea aa3c cbe8 86bd 26a1 003d f373 a03d
000001a0: 2523 01bd 671a 943c f972 543d c49c ca3c
000001b0: 4ba5 2a3d 57cd 733d f940 aabc 68ad 85bb
000001c0: 3720 dbbd 3293 883d 7235 38bd c017 46bd
000001d0: 73e1 233d af61 81bd 8fa7 223d 4fff eb3c
000001e0: ddd0 32bd 75f6 133d 9507 2abc bd24 5e3c
000001f0: 5b73 163d 419b 103d c08a 3abc d211 5b3d

fc2.weight f4 [10, 128]
0.0646871 0.04391792 -0.0924056 0.10250643 -0.07407782 0.061934467 0.055552747 0.07344105
-0.04569791 0.047985934 -0.049263045 0.006896725 0.019064613 0.031926736 -0.097335115 0.027169088
0.07245612 -0.092969745 -0.012284427 0.04086046 -0.018243525 0.037082195 -0.08421077 0.04500422
0.24282208 0.0702408 -0.07932997 -0.039506383 -0.114687346 0.09551152 -0.07833125 -0.08142751
-0.12800278 0.07036299 -0.071409024 -0.1512205 -0.09413761 0.041323908 -0.04158554 -0.03849921
-0.10053787 0.09682028 -0.052632906 -0.0008009195 -0.031135341 -0.19314852 -0.068836115 -0.0574232
-0.00233798 -0.015819319 -0.03339981 0.11260197 -0.12234833 -0.024780761 0.026246708 -0.018276531
0.10997874 0.07452477 0.047805127 0.026486842 -0.09778703 -0.009240249 0.066831514 -0.12583962
0.035903804 -0.092300035 0.0617586 0.085491955 -0.0019208055 -0.019594776 -0.11395352 0.03522761
-0.01596746 0.072123654 -0.0047796182 0.071505494 -0.047037244 -0.12458514 0.09515545 0.027633775
0.011509005 0.07535039 0.02033265 0.010785857 -0.09163157 -0.013168001 0.09264416 -0.06292014
-0.09429151 -0.12841813 0.008005363 0.030881513 -0.0050011496 0.047741897 -0.09922966 0.0064035114
0.06502267 -0.051704373 0.059657957 0.04071149 0.0765299 0.07459151 -0.1401194 0.012508406
-0.124532074 0.0714672 -0.054769374 -0.17527568 -0.11060767 -0.10694454 -0.07431845 -0.020646185
0.105533674 0.003312277 0.02687532 0.087841146 0.080658555 -0.119372375 0.028989349 0.040455654
0.05536815 -0.0742253 -0.027524943 0.08834192 -0.011588128 0.08549431 0.0061362935 0.0017059298
-0.094476044 -0.051532317 -0.13976431 -0.091836154 0.09449656 0.10456771 -0.13421829 0.109420866
0.11628993 -0.06750127 0.14641708 -0.076241955 -0.0013641219 0.12075665 -0.12022872 -0.014010578
-0.011019354 -0.07123907 0.063758455 0.057982218 0.10462647 -0.09886005 0.11003628 0.028214958
0.12887059 -0.12686197 0.020842182 -0.092161156 -0.00871298 -0.013025203 -0.12691163 0.05959876
0.033108458 -0.0005611267 0.0066828122 -0.01706831 -0.082099475 -0.03766476 0.05069305 -0.07336923
0.116161406 -0.10156802 0.045546085 0.03927595 -0.06161451 0.054170847 -0.052388556 0.08601143
-0.017258028 0.056659386 -0.051751733 -0.08267882 0.04781792 -0.12659138 -0.084711246 -0.038294025
-0.0417828 0.11623235 0.04272078 -0.036114484 -0.027820366 -0.051837604 -0.0764214 0.046018533
0.119304046 -0.11308314 0.083657086 -0.11804403 -0.085452475 0.0050983825 0.10731725 -0.123620056
0.014184988 0.06659691 -0.03988258 -0.10023278 0.051001284 0.093731865 -0.08588282 0.040551625
-0.12374989 -0.08731473 0.08842296 -0.002244376 0.11346113 0.15866409 -0.085476145 0.06599079
0.09526908 -0.0578874 -0.07133478 0.11594606 -0.0033008677 -0.09032238 -0.060652234 -0.093750484
-0.07696045 0.08303949 0.011571893 -0.10728369 -0.1203122 0.03725633 0.12677631 0.021272114
-0.053726982 0.0037789638 0.055111263 0.011420196 -0.113666266 0.08866289 0.04172501 0.10307155
-0.050029583 0.119565725 0.06943522 0.08905667 0.1553796 -0.09662737 0.011628793 -0.11403843
-0.04458224 -0.13821633 -0.05148071 -0.11832145 0.057281133 -0.083126605 0.08657047 -0.05723833
00000000: ac7a 843d 47e3 333d 263f bdbd e4ee d13d
00000010: 1db6 97bd ffae 7d3d 478b 633d 4368 963d
00000020: bb2d 3bbd e68c 443d 0cc8 49bd ecfd e13b
00000030: 642d 9c3c 9cc5 023d a257 c7bd b591 de3c
00000040: e063 943d ec66 bebd 9f44 49bc 4c5d 273d
00000050: 7273 95bc 80e3 173d b276 acbd 5856 383d
00000060: 5aa6 783e 69da 8f3d c077 a2bd 72d1 21bd
00000070: 33e1 eabd 8b9b c33d 226c a0bd 77c3 a6bd
00000080: 2913 03be 791a 903d e53e 92bd 8cd9 1abe
00000090: 38cb c0bd 4243 293d 9955 2abd 59b1 1dbd
000000a0: cce6 cdbd b649 c63d 9a95 57bd ccf4 51ba
000000b0: 8b0f ffbc bac8 45be f3f9 8cbd 9734 6bbd
000000c0: cc38 19bb 8497 81bc 3dce 08bd dd9b e63d
000000d0: c391 fabd 0601 cbbc 5603 d73c aab8 95bc
000000e0: 893c e13d 71a0 983d 4fcf 433d effa d83c
000000f0: 9144 c8bd 6a64 17bc f6de 883d 1adc 00be
00000100: de0f 133d cd07 bdbd 96f6 7c3d 6816 af3d
00000110: 8ac3 fbba 3985 a0bc 7760 e9bd d44a 103d
00000120: 31ce 82bc 91b5 933d 589e 9cbb 7971 923d
00000130: 20aa 40bd 7e26 ffbd dce0 c23d 3a60 e23c
00000140: 4490 3c3c 4e51 9a3d a890 a63c 2ab7 303c
00000150: 55a9 bbbd 99be 57bc 39bc bd3d 46dc 80bd
00000160: e81b c1bd 0b80 03be ed28 033c 3afb fc3c
00000170: afe0 a3bb 028d 433d ec38 cbbd 8cd4 d13b
00000180: 9b2a 853d f7c7 53bd e75b 743d 17c1 263d
00000190: b5bb 9c3d 6fc3 983d 767b 0fbe 0ff0 4c3c
000001a0: ac0a ffbd 655d 923d da55 60bd 787b 33be
000001b0: 4686 e2bd bd05 dbbd 4634 98bd 3022 a9bc
000001c0: 0a22 d83d c912 593b a229 dc3c 0fe6 b33d
000001d0: 5030 a53d 8179 f4bd 127b ed3c d4b4 253d
000001e0: b7c9 623d 6f03 98bd fd7b e1bc 9cec b43d
000001f0: 22dc 3dbc a417 af3d f612 c93b 8199 df3a
00000200: a87c c1bd 8d13 53bd 601e 0fbe 9814 bcbd
00000210: 6a87 c13d 9827 d63d 8570 09be 0c18 e03d
00000220: 6a29 ee3d 1b3e 8abd 5cee 153e be24 9cbd
00000230: 56cc b2ba 434f f73d 7a3a f6bd a08c 65bc
00000240: 858a 34bc cae5 91bd cb93 823d c37e 6d3d
00000250: 6746 d63d 2377 cabd b35a e13d 0e23 e73c
00000260: a7f6 033e 1be8 01be 39bd aa3c fdbe bcbd
00000270: e3c0 0ebc a967 55bc 1ff5 01be d41d 743d
00000280: bc9c 073d 9318 13ba 7efb da3b d7d2 8bbc
00000290: c523 a8bd 5d46 1abd 84a3 4f3d 9b42 96bd
000002a0: 08e6 ed3d e502 d0bd 888e 3a3d d2df 203d
000002b0: 7f5f 7cbd 40e2 5d3d 6295 56bd c326 b03d
000002c0: b560 8dbc ac13 683d a0f9 53bd 8353 a9bd
000002d0: b9dc 433d 2ca1 01be 177d adbd 32da 1cbd
000002e0: 7124 2bbd 3a0b ee3d fcfb 2e3d c8ec 13bd
000002f0: 89e7 e3bc ab53 54bd d382 9cbd ee7d 3c3d
00000300: ae55 f43d 2298 e7bd 6854 ab3d 12c1 f1bd
00000310: b501 afbd 5510 a73b 25c9 db3d 832c fdbd
00000320: 2768 683c f663 883d eb5b 23bd d846 cdbd
00000330: b9e6 503d 7ef6 bf3d 55e3 afbd 7619 263d
00000340: 9570 fdbd 11d2 b2bd 1917 b53d 6216 13bb
00000350: 4f5e e83d d778 223e 1e0e afbd 2e26 873d
00000360: 6f1c c33d 571b 6dbd f817 92bd 2175 ed3d
00000370: 5f53 58bb f1fa b8bd 7a6e 78bd 4100 c0bd
00000380: 719d 9dbd 9c10 aa3d 0998 3d3c 8db7 dbbd
00000390: 3e66 f6bd 189a 183d a6d1 013e db42 ae3c
000003a0: d310 5cbd 7ea8 773b 59bc 613d c61b 3b3c
000003b0: dcc9 e8bd e494 b53d d8e7 2a3d 2d17 d33d
000003c0: d2eb 4cbd e0de f43d 0d34 8e3d 5863 b63d
000003d0: d41b 1f3e 92e4 c5bd b186 3e3c fb8c e9bd
000003e0: de9b 36bd 9588 0dbe 70dd 52bd 8452 f2bd
000003f0: 9f9f 6a3d 483e aabd dc4b b13d bd72 6abd

fc2.bias f4 [10]
-0.117353424 -0.041512277 -0.058840472 0.058365475 -0.05467539 0.12463236 0.042064615 0.08405613
-0.029159067 0.051737323
00000000: fe56 f0bd c708 2abd b502 71bd a310 6f3d
00000010: 4df3 5fbd 403f ff3d f24b 2c3d 9f25 ac3d
00000020: ffde eebc 84ea 533d
