Experiment/benchmark/fnn_small/onnx/mnist-64x4.onnx (onnx, 254680 bytes, 10 tensors)

layers.1.weight f4 [64, 784]
00000000: ebdc 05bd 8250 363b a789 d6bc 6d7a f8bb
00000010: 6f2b c63c 9fca e2bc d0aa da3b 1201 f33c
00000020: e4f9 013d 6ee4 04bb 9666 0bbd d3b2 b03c
00000030: a313 293b 6401 16bd 6d86 71bb c752 6fbc
00000040: e75f 7abc a5ae 0b3d bad9 f6bb c399 b73c
00000050: 730f e2bc 6f19 84bc 3a71 0d3d baca 013d
00000060: 300e 8fbc ef52 12bc 2750 093d c3b9 b2bc
00000070: 56ee 053d 9791 43bb cb42 17bc c0b0 e83c
00000080: e538 af3b dd08 a33c a93c ddbc f2ff 73bc
00000090: ba91 77bd fa0d 59bc 0db4 4dbd d87a f9bc
000000a0: 9193 edbb 4d42 4ebd 2ad1 64bc 071c 3fbd
000000b0: 03ab 34bd 141a a1bd e923 c8bc bced 46bd
000000c0: 3102 79bd dd2d e8bc 2621 adbc 7865 0ebd
000000d0: bfa5 513c 74b5 b13c 480a 433c e0d2 10bd
000000e0: fdff bb3a 1e87 8cbc 7f28 4b3b 5fad 5fbd
000000f0: 3ce8 4bbd 5133 043c e66c 18bd ab08 01bd
00000100: 27a6 ccbc f4c6 1ebd c8c6 a8bd 84a9 f2bd
00000110: 3a81 01be 620c dabd 525e b8bd 1022 e8bd
00000120: 6bcf ffbd abc9 92bd aa29 52bd 6bcd c0bc
00000130: 8ba6 6cbc 38e8 97bd 1374 f4bc 502f c6bd
00000140: 3050 b1bd 9db0 a3bd 7bbd a53c 0abd 0cbd
00000150: 279b cebb 1f04 afbc 0821 3bbd ec69 75bd
00000160: abed 03bc 0b52 39bd 4c86 3bbd bff8 d9bd
00000170: d383 18be 5a3c 07be b499 01be e27b 0cbe
00000180: 7af3 12be 6d33 15be 617f 0cbe 6d8f f5bd
00000190: a599 90bd c81b bcbd 25e9 c5bc 72e9 3ebd
000001a0: 535c 88bc 3ad1 df3b 3552 8e3b a772 a33c
000001b0: 7ca2 943c dc52 da3c 7848 01bc b321 d1bc
000001c0: d681 a6bb 9725 ab3b 70e2 1d3c ffe4 82bd
000001d0: 5867 863c ce08 3ebd 60e8 bdbd fc88 c1bd
000001e0: 6bf9 66bd 2759 20bd 58ef 1cbd 64e6 2dbc
000001f0: 4fa3 843b c4bf febc 7485 db3c ee00 1c3d
00000200: a930 1f3d 6773 de3c d2dd d03c fa91 033d
00000210: 59b1 f53c 57f9 eebc 3616 4dbb bd51 923c
00000220: 84c8 c43d 1154 b63d a293 a13d cc2b 943c
00000230: a029 403c c7b2 bb3c f7d2 c03c 0521 87bc
00000240: 437c 5abd c528 bcbd 869b babd ebe0 d5bc
00000250: 049d abbd f117 09bd 9baa 96bc 2eff 263d
00000260: 3e0a 423d c3a6 733d 6845 9d3d b3aa 6c3d
00000270: ad09 373d fb20 0c3d ba2a 0d3d 4cae 553d
00000280: a767 393d f3e8 653d 31b6 943c 9281 203c
00000290: 2494 013d 9c64 a63d 921b ee3c cae2 a63c
000002a0: 5c17 bbbc 2f95 58bd 60c9 59bc c496 c1bd
000002b0: 779c 8fbd eed5 e5bd 4498 9fbd 0620 59bd
000002c0: f889 ccbc 99fc 30bd 4ba7 efbc 87ae cc3c
000002d0: eac4 b93c 4013 713d a976 963d 56b7 af3d
000002e0: 804b 663d 9268 313d b7b3 6a3d 3376 643d
000002f0: c179 743d bada 813d fb1f 393d daf9 7e3d
00000300: 29b7 a73d de92 f03d a771 a13c d0b4 abbb
00000310: 9e2e 7dbc fe25 1fbd cd39 34bd 9230 cbbd
00000320: 702e e9bd 97db aebd 86ba 82bd 2316 02bd
00000330: 7a4e 023c 5264 9dbb 24ef 89bb dd01 1e3d
00000340: 1cdd e63c 978a 623d 0cc2 bd3d 87e7 e53d
00000350: ba77 743d c5ab df3c c389 5b3d 97c6 2e3d
00000360: 0dcc 9d3c 49c8 db3c 8012 a13c 3025 9b3d
00000370: 1a66 093e b20a a63d 71e1 f13c cec1 063d
00000380: 1ddd 20bc 81af 62bd 9ae8 72bd 9ed9 8abd
00000390: cf5a cdbd ef87 72bd 001a a5bc 7b5e a6bc
000003a0: 76a3 b4bc 0bf8 163d ea62 9cb9 ade0 713d
000003b0: c1f3 b23d 0f07 903d 14a0 653d cb41 013c
000003c0: a091 d53c 35a5 2f3d 99db ed3c 32a5 c63c
000003d0: 38ad c13c 6c18 9e3c 7553 263d 7a46 943d
000003e0: 004a c83d 3ac3 a43d e3a0 ac3d 6019 5c3d
000003f0: 12fb fcbc d667 a0bd ccae a0bd 81a9 cdbd
-0.032681387 0.0027818982 -0.026188685 -0.0075829537 0.024190633 -0.027684508 0.0066731945 0.029663596
0.031732455 -0.0020277756 -0.03403338 0.021569645 0.0025799058 -0.03662242 -0.0036853806 -0.014607138
-0.015281654 0.0341021 -0.0075332792 0.022412186 -0.027595257 -0.016125409 0.03453181 0.031687476
-0.01746282 -0.008930906 0.033523705 -0.021817094 0.032697998 -0.0029841417 -0.009232233 0.028404593
0.0053473585 0.019901687 -0.027006464 -0.014892565 -0.06044171 -0.013247961 -0.050220538 -0.030454084
-0.0072502573 -0.050356198 -0.013965884 -0.04665759 -0.044108402 -0.07866302 -0.024431186 -0.048566565
-0.060793106 -0.028342182 -0.02113397 -0.034764737 0.012795865 0.021692969 0.011904307 -0.035357356
0.0014343258 -0.017154273 0.003099948 -0.0546087 -0.049782023 0.008068875 -0.03721323 -0.031502407
-0.024981571 -0.038763955 -0.082410395 -0.11848739 -0.12646952 -0.10646893 -0.09002365 -0.11334622
-0.12490734 -0.07167371 -0.051309265 -0.02353545 -0.014444004 -0.07417339 -0.029840505 -0.09676993
-0.08657873 -0.07992671 0.020231953 -0.03435997 -0.0063051167 -0.02136427 -0.045685798 -0.059915468
-0.00805227 -0.045244258 -0.045782372 -0.10643148 -0.14894037 -0.13206616 -0.1265629 -0.13719133
-0.14350691 -0.14570399 -0.13720466 -0.11990247 -0.07060555 -0.09184986 -0.024159024 -0.04660935
-0.016645586 0.0068303617 0.004343296 0.019952131 0.018143885 0.026650839 -0.007890813 -0.025528764
-0.0050813956 0.005222987 0.009636506 -0.06391334 0.0164067 -0.046395116 -0.09272838 -0.09449956
-0.056390207 -0.039147522 -0.038314193 -0.010614011 0.004047788 -0.0310973 0.026797034 0.038086824
0.038864765 0.027154638 0.025496397 0.032121636 0.029991793 -0.029171629 -0.0031293756 0.017861241
0.09608558 0.08902753 0.07889487 0.01808729 0.011728674 0.022912396 0.023538096 -0.016495237
-0.05334116 -0.09187464 -0.09111695 -0.026108226 -0.08379558 -0.033470098 -0.018391898 0.040770702
0.04737305 0.05948521 0.07679254 0.05777998 0.044686962 0.03421114 0.034464575 0.052168176
0.045264866 0.05613036 0.018153282 0.009796517 0.03163542 0.081246585 0.02906588 0.020371813
-0.022838287 -0.052876648 -0.01329264 -0.094525844 -0.07012265 -0.112224445 -0.07792714 -0.053009056
-0.024968132 -0.043209646 -0.029254576 0.024985565 0.022676904 0.05885625 0.073468514 0.085798904
0.056224346 0.043312617 0.057300296 0.055776786 0.059686426 0.06340547 0.045196515 0.062249996
0.08189232 0.11746763 0.019707514 -0.0052400604 -0.015453009 -0.03885459 -0.044000436 -0.099213734
-0.113858104 -0.08537977 -0.06383233 -0.031759392 0.007953281 -0.004803219 -0.004209416 0.038575996
0.028181605 0.05530795 0.09265527 0.11225801 0.059684493 0.027303586 0.053598177 0.04266986
0.019262338 0.026828902 0.019662142 0.07575452 0.13417855 0.08107509 0.029526444 0.03289967
-0.0098183425 -0.055343155 -0.059303857 -0.067797884 -0.10027086 -0.059211668 -0.020154 -0.020308724
-0.0220506 0.036857646 -0.00029828335 0.05905216 0.087378986 0.07032596 0.056060866 0.007889221
0.026070416 0.042882163 0.029035376 0.024248693 0.023642167 0.019298755 0.040606935 0.07240005
0.097797394 0.08045049 0.08429124 0.053735137 -0.030881438 -0.07832305 -0.0784584 -0.10042096

layers.1.bias f4 [64]
00000000: 4340 41bd a3c5 e8bc fcd1 7a3c 51cf 893d
00000010: 37f7 7a3d bb6b 653d bd23 18bd ff7f 55bb
00000020: ce71 983d 1b2d c2bc adce 453d 4d09 333d
00000030: 0b4e 373d 9ccc 733d 11cf 193d 75a8 33bb
00000040: 5fa5 7d3c 9366 433c cea8 c63c a33d ef3d
00000050: 1e5c acbc 5490 643b 1344 c63d b958 a33d
00000060: 25f0 a83d 69cf 923d 27c8 523d f845 263d
00000070: 7926 b33d e3db d53c b3e6 343d 9d0d 84bc
00000080: 53f4 693c 129b 913d 5e5a c73c b3c4 013c
00000090: d5fb 6e3d 2b97 24bd 1ed1 063d 2a1d ce3d
000000a0: 8051 603c 572a e13b 1e44 1ebd 44d2 863d
000000b0: f79c d8bb b534 913d e097 593d 2f50 4e3d
000000c0: 9e4e cd3d 7a80 803d 26d5 ebbc 6753 bc3c
000000d0: f4e1 193b 3944 ef3a 06dc f53c fb9f 943b
000000e0: 2bcd 913d dce2 2bbb 79a1 373d eaf1 963c
000000f0: 60ad 743d 0fe4 0ebd 786b 8e3d 4c28 553d
-0.047180425 -0.028414553 0.015308853 0.067289956 0.06127092 0.056010943 -0.037143458 -0.0032577512
0.074435815 -0.023703149 0.048292805 0.04371004 0.044752162 0.059521303 0.03755099 -0.002741364
0.015481322 0.011926311 0.024250414 0.11681678 -0.021040019 0.0034876065 0.09680953 0.07975907
0.08248929 0.071684666 0.05146041 0.04059407 0.087475725 0.026105827 0.044165324 -0.016119773
0.014279443 0.071096554 0.024335083 0.007920432 0.058345634 -0.040183228 0.032914273 0.10064156
0.013691306 0.0068715024 -0.03863918 0.06583074 -0.0066105085 0.07090131 0.053123355 0.050369438
0.10024761 0.06274505 -0.02878816 0.022988988 0.0023480626 0.0018254585 0.030012142 0.0045356727
0.07119211 -0.0026227748 0.044831727 0.0184259 0.059735656 -0.034885462 0.06954092 0.052040383

layers.3.weight f4 [64, 64]
00000000: db5e 03bd 746e dcbd a8a1 443e 9744 5d3d
00000010: ada7 5c3e f106 b83a e420 6abc de07 213d
00000020: e96b a0bd 75a8 203d 8870 c5bd 32f4 373e
00000030: fb98 083c 20de 84bd c4e8 24bc f3e1 073e
00000040: 0ebf 983d 178a 1cbd e8f7 a6bd d2b0 6fbd
00000050: c4ad 17bd ceb2 ca3d f7fc c83d 54f7 b1bd
00000060: 4e34 c13d b9f8 84bd a00d bdbc 8523 b43d
00000070: 9067 cabd 8f7a 21bd 2df5 bf3d 520f 1f3d
00000080: 00b0 b03d 2c74 ef3d 4912 bd3d 0cee 48bd
00000090: 40f7 193d d994 393d 39fd d3bc 50a1 b5bd
000000a0: 071a 31be cb4d 863d b2de c6bb 4009 e4bc
000000b0: 39aa 19bd 112b 45be c4b8 043e 92b3 00bd
000000c0: cf9e 163b 814a cc3c 702e ed3d bcf0 773d
000000d0: d9c7 003e 9991 023e a652 6e3d c7e1 233e
000000e0: 3886 b43d 1e33 eebd d7e0 6bbd ca77 353c
000000f0: fb34 333d 5f1d 32bc cebb 4a3b 03e0 243e
00000100: 6a86 033d 50e3 023b 540c e13c ba6a 8cbc
00000110: 5c05 9bbd 6d78 0a3e 336f b63d 21ee 2a3e
00000120: 7127 563d 3243 233d a52d 0d3c a6e7 1cbe
00000130: 2530 123e 6b63 ed3d f96c d73d 93de c43d
00000140: e642 e5bd 6385 92bc c4c7 33be 90cc 3bbc
00000150: 2640 bb3d 9395 c23c 45da ce3d 6d19 e5bc
00000160: 0cbd 78bd cff0 7abe 943a 9abd caef 4ebd
00000170: b862 1d3e ff9c be3d b90c 073d 7e6a 9abb
00000180: 205f cfbd 90bd 0c3d 0023 063d 0fba 223e
00000190: 90ef 173e 0ba2 a43c ee65 b23d fdeb 6b3d
000001a0: 3bf8 523e 75a0 983d 1524 943c 6f82 6d3c
000001b0: 9cec 2b3e 8901 08bd 549a a7be 2683 f8bd
000001c0: fa9b 27bd 5fd0 03be d65c 253b 2c87 f3bc
000001d0: b2d7 053e 4077 1c3e 04aa 233e b6c4 973d
000001e0: 5384 cabd 88bd 053e c3a9 74bd 6d3b 18be
000001f0: 5b9e b93d 0142 aabc 1e63 0dbe 6952 2fbd
00000200: 7499 d43d 15c1 9cbc da62 4b3e aa84 33be
00000210: 8947 9fbc 435c 07be 74f8 babd e438 453e
00000220: 80b8 ec3d 8567 8d3d 62d2 7b3d 2a48 acbd
00000230: 6f41 053e 0020 593e 6547 dd3d a3c3 e23d
00000240: 439b 4d3e dfa8 163e 3060 703d a3f9 d03c
00000250: aaec b33d f4e7 333d f7f5 113e eaca 063c
00000260: c325 e53d 689e d33d 42b6 fe3d 57ab c83d
00000270: 1adf 793d 8ab1 d63b 4a1b fe3d 385f fabc
00000280: faa3 4fbd a2f3 363e 3db2 0e3e 41ca fb3d
00000290: 9fb7 e73c d29b 45bd 6ea8 c5bc 8009 983d
000002a0: 93ce 4abe d877 eebd 9b6d 603d 175e acbd
000002b0: 3a53 d7bd 855a e73d 6376 7dbc fb0e 36be
000002c0: 7b36 94bd 6f90 76bd a7d1 623b c3fc eb3c
000002d0: 87ad 2a3e 7c30 dcbd be39 d53d e1df 323d
000002e0: a324 373e c0ef b93d 4997 1bbe 3b9a f6bc
000002f0: 369a 76bc 43b8 3e3d 8910 e03d b3bc ef3d
00000300: e23a 6e3d e2a5 7ebb ff97 253e e2c5 bc3c
00000310: 31df b83d cb20 f63d a767 543e f62a 27bd
00000320: fed2 b3bd 826c 2a3e 3c65 193e 1710 1c3e
00000330: 23e0 abbc a1c4 dabd 1e2a ed3c ced0 833d
00000340: 315c e3bd 4def 8a3d ade0 9e3d 6146 293e
00000350: cfd1 953d 2cc2 8c3c 344e 83bd 8565 3c3d
00000360: 062a a43d 058f 55bd b0d7 08bc eae4 483d
00000370: 0e26 6abc 3412 253d b2c8 963d 0caf 933c
00000380: 0b4b 063e 0b20 ff3d 55cb 083e 4a55 babc
00000390: a0f9 813a f2de dfbd a0e9 afbd 7f58 213d
000003a0: 7431 89bd 1e24 aabc 27de 873c b079 2f3e
000003b0: 67e9 193b facf 36be e7ad 1ebe 2b98 153e
000003c0: e092 363e 168c ebbd 9907 e8bd 6f30 273d
000003d0: 3c10 f93d 3219 c4b8 6ad9 963d ca9c 02be
000003e0: 7565 063e e21f 573d a381 443e 1af1 623d
000003f0: a700 243e 5af1 0cbe 2fce 913b 6291 fc3c
-0.032072883 -0.10763255 0.19202292 0.05402049 0.21548338 0.0014040155 -0.014290068 0.039314143
-0.07833082 0.039223153 -0.09640604 0.17964247 0.008337255 -0.064876795 -0.010065261 0.13269787
0.07458316 -0.03821763 -0.08152753 -0.05851824 -0.03703095 0.098973855 0.09813874 -0.08689752
0.094338045 -0.064927526 -0.023077786 0.08795837 -0.09883034 -0.03942352 0.093729354 0.03883297
0.08627319 0.1169208 0.09232003 -0.049055144 0.03758931 0.045307968 -0.025877582 -0.088686585
-0.17295085 0.065578066 -0.006069028 -0.027836442 -0.037515853 -0.1925471 0.12961107 -0.03142125
0.002298284 0.02493787 0.11581123 0.060532317 0.12576236 0.12750854 0.05818429 0.16004096
0.08814663 -0.116308436 -0.05758747 0.011075923 0.043751698 -0.01087126 0.0030934694 0.16101079
0.03211061 0.0019971915 0.027471699 -0.017140735 -0.075693816 0.13522501 0.08907928 0.16692401
0.052283708 0.039859004 0.00861684 -0.15322742 0.14276178 0.11591228 0.10518832 0.09612765
-0.111944005 -0.01788587 -0.17556673 -0.011462346 0.09143095 0.023752963 0.10100225 -0.027966226
-0.060727164 -0.24505924 -0.07530704 -0.05052165 0.1536969 0.093072884 0.032971118 -0.004712402
-0.101255655 0.03436047 0.032748222 0.15891288 0.1483748 0.0200968 0.08710848 0.057598103
0.20602505 0.0745248 0.018083612 0.01449643 0.16789478 -0.03320459 -0.3273493 -0.121343896
-0.040920235 -0.12872456 0.0025232336 -0.02972754 0.13070562 0.15279865 0.15982825 0.074105665
-0.0988852 0.13060582 -0.05973221 -0.14866419 0.09063407 -0.020783426 -0.13807341 -0.0428032
0.10380831 -0.019135037 0.19861928 -0.17531076 -0.01944329 -0.13218789 -0.0912942 0.19259983
0.11558628 0.069045104 0.061479934 -0.08412202 0.13013242 0.21203613 0.10804633 0.11072471
0.20078759 0.14712857 0.05868548 0.025509661 0.087853745 0.04392238 0.14253984 0.008227089
0.11188843 0.10332948 0.12437107 0.097983055 0.06100378 0.006551926 0.12407549 -0.030562982
-0.05069349 0.17866376 0.1393518 0.12294436 0.0282858 -0.048244305 -0.024128165 0.07423687
-0.19805364 -0.11643952 0.054792028 -0.08416384 -0.10513921 0.11296562 -0.01547012 -0.17779152
-0.07236954 -0.060196336 0.0034609826 0.02880705 0.16667758 -0.10751435 0.10411404 0.04367054
0.1788507 0.09078932 -0.1519443 -0.03010284 -0.015051415 0.046562444 0.10940654 0.117059134
0.058161624 -0.0038856198 0.16171263 0.023043577 0.090269454 0.120179735 0.20742665 -0.040812455
-0.08780478 0.16642955 0.14980024 0.15240513 -0.0209809 -0.10682035 0.028950747 0.06436311
-0.111015685 0.06783924 0.07757697 0.16530754 0.073154084 0.017182432 -0.064114004 0.045995254
0.08015828 -0.052138347 -0.008352205 0.049046434 -0.0142912995 0.040300563 0.07362498 0.018027805
0.13114564 0.124572836 0.13358815 -0.022745747 0.0009916313 -0.10931195 -0.08589482 0.039391037
-0.066988856 -0.020769175 0.016585423 0.17136264 0.0023485066 -0.17852774 -0.15496026 0.14608829
0.17829466 -0.11501329 -0.11329574 0.040817674 0.121612996 -9.350701e-05 0.07365687 -0.12755123
0.1312464 0.05252064 0.19190077 0.055405714 0.16015874 -0.13763943 0.004449628 0.030831043

layers.3.bias f4 [64]
00000000: c20f 193e c01c cdbc afc5 16bd 8d38 6c3b
00000010: 7f8f 47bd ac2b f73c b328 14be 908e 233d
00000020: d39b 263e b537 8abd 5aa9 833d a5a4 2b3d
00000030: 3253 87bc 9180 903d 61ed 0fbe 55fe d43d
00000040: 6dd7 bd3d de8d eabd bffe ed3d fc5a 893d
00000050: 9158 763d a563 8dbd c7c0 f33d 1836 3ebd
00000060: cf38 c33d fd92 d4bb 411b dc3d f3b3 6dbd
00000070: b932 b9bd c501 5f3d 2e1f 133e 31d5 3ebd
00000080: 0925 2abe 91f1 c03d 1520 0c3e 2ba8 efbd
00000090: 9f91 96bd f8f9 ab3d 2151 cb3d d86e 92bd
000000a0: 8e11 b83d 039c 0a3d 5295 d0bd 8100 4abd
000000b0: 873f 963d 95cf cd3b d11d 883d 95bd 92bd
000000c0: 48ee fdbd d866 8fbc d112 89bd 9f15 d93d
000000d0: 84a9 ebbd 03b2 023e c9f1 c23d 4da5 81bd
000000e0: 8d64 ae3c 74e5 c03d a9fc da3c 4120 843d
000000f0: 8107 d4bd 9201 c53d f0dd d9bd 7836 c83d
0.14947417 -0.025038123 -0.03680962 0.003604445 -0.048720833 0.030172192 -0.1446865 0.03993088
0.1627038 -0.067489065 0.064287856 0.041905064 -0.016519163 0.07055772 -0.14055397 0.104000725
0.09269605 -0.1145284 0.116208546 0.06706807 0.060143057 -0.06903771 0.11902004 -0.046438307
0.0953232 -0.006487249 0.10747386 -0.05803294 -0.09042878 0.054445047 0.14367363 -0.046590034
-0.1661569 0.09421075 0.13684113 -0.11701997 -0.07351994 0.08397287 0.099275835 -0.07150048
0.08987723 0.03384019 -0.101847306 -0.049316887 0.07336336 0.006280849 0.06646312 -0.07165066
-0.12398964 -0.017505094 -0.06693042 0.10599827 -0.11506942 0.12763219 0.09518773 -0.06330357
0.02128818 0.09418765 0.026731806 0.064514644 -0.10352994 0.0961944 -0.10638034 0.09776014

layers.5.weight f4 [64, 64]
00000000: a893 873d 0546 a4bd 459a 98bd af7c 643d
00000010: d1fe 0abd 0b5a a6bd 82f8 10bd 734d 383d
00000020: f7be ab3d e23c 5cbc 9da3 f3bd 28c3 553d
00000030: 14b4 24bd a6e1 52bc 1d9f 893a 4b2c acbd
00000040: 75a3 02be 1c6e 5bbb 5e60 44bc 82ad 6dbd
00000050: 5e04 dabd 1ec0 ddbd c067 82bd 1dd7 203d
00000060: 9792 9abd 054c 563d ddd5 373c ef64 553d
00000070: 7ec3 e5bc 875d eb3d 2706 a53d 7ed6 403d
00000080: ed00 31bd 680c 85ba 2925 ccbd 2fc4 4abd
00000090: e108 de3d dbfd e1bd 317d 0d3d ef85 4fbd
000000a0: 21ec 6b3d 5716 983d c86b f33c 31f6 d5bd
000000b0: b04c 78bd 01e8 a2bc 5d1a 363d 9399 ddbd
000000c0: abe0 93bd d50f 943d df7b 9cbd 6a5c bc3c
000000d0: b827 173c de7d 203c 39fd 84bd b696 93bd
000000e0: f616 f13d cb69 d93d 1742 97bd 8b10 9c3d
000000f0: 0af5 85bd ed62 233c 322f 14bd 356e eabd
00000100: f469 0c3e 9063 b03c d436 d03d 6f70 b4bd
00000110: 73a1 ddbd 302b 9cbc 5acb c23c 0fbf 12be
00000120: bcbb 953d 5820 d63d 3af6 ed3d 396e 893c
00000130: c053 753b 85fb e23d 654b da3d bdbd f1bd
00000140: 72f5 b9bd 00b9 4fbd 5310 893d 8357 5fbd
00000150: 3334 1ebe 5595 a7bd 9a26 89bd 712a 773d
00000160: 3eb9 6d3d f315 64bb 9547 063e eaf6 023d
00000170: 1103 fcbd 4885 52bd 8233 1dbd 9155 8bbd
00000180: 566f 8ebc 4491 c23d dbf5 e23d 221d b73d
00000190: 3ab8 45bd 7481 213e 7717 1e3d 3e5e a33d
000001a0: 8caf 38be 1ddc de3d f0e7 95bc 2266 6d3d
000001b0: 6ecf 173e 934f 543c d048 42bd fbc5 16be
000001c0: d50c bd3d a72e 663d 8689 403c 072b 1c3e
000001d0: 6546 d8bd cad0 213e 8507 d6bc d202 d5bd
000001e0: dfd4 1fbe f068 02be 6a4b 4abc 932f c33d
000001f0: dd46 ca3d 7cfb a93d dff5 d63d 9fa9 003e
00000200: f332 aa3d b749 47be 5801 cb3b b44b 433d
00000210: 6368 2a3e a9b9 503a c72f f7bc 8859 be3d
00000220: 13a3 ba3d e460 be3c e1f7 4d3d 967b 1dbe
00000230: 0f98 44be 8177 9c3d 9033 513d 6d30 4c3d
00000240: 32a0 003e fe3e 88bd cf7d cdbd df16 983d
00000250: 634b ed3b 82c3 a13d 1aa9 2f3d 08df 2cbe
00000260: 93b2 c63d 9a70 c2bd c054 34bd e4e3 0bbe
00000270: 1f1c 953d eb6e 343e 397c bc3d 7a7b 5d3d
00000280: 4260 203d 1c29 f53d bb46 143e 09b3 29be
00000290: d022 063e 3107 f2bd e109 153d 0583 cdbd
000002a0: 9fe8 03bc 0295 c7bd e230 46bc 1d03 2cbe
000002b0: 1ea0 5d3d 1a98 b83d da2f 083e 74ad 553e
000002c0: bf3c 0ebe 0ca4 8bbd 23f6 2ebc 7bfa 61be
000002d0: 3a6e 58bd 050f 99bd b798 71bd 5368 a43d
000002e0: 7f20 39bd 1f95 053e f25a cd3c 10de 5d3d
000002f0: 91a0 3dbd f1bf 7abe ad41 9cbd 77ca 06be
00000300: c8a2 3abe bf11 cf3d 3a0a 1f3e b946 01bc
00000310: 13be 0fbd 1b5b 70bc 9423 013e 7a5e c0bd
00000320: 2024 b73d b5b7 21be 8307 e6bc 021c 703d
00000330: a6ce eebd 09e2 45be 510b f53d 040a 233e
00000340: a639 b63d 3a83 0a3d d033 90bb 6a85 253e
00000350: 3af2 b8bd 7ae0 473e 74ba 313e 4594 efbd
00000360: e74d 823d 9ba1 91bd 1eb9 3bbc a489 d83d
00000370: 1c02 b73d 5d70 703d c423 0e3d f0fb 91bd
00000380: cb90 4a3d d86b b33d a8b7 f73d 9c21 5dbe
00000390: 0d2a 7d3b c0f1 debc 6789 6d3d f57a abbd
000003a0: abf3 8b3d 8d96 d3bd ae22 ac3d 91fe c73d
000003b0: 5d53 bcbc e85a 9d3b 041a f3bd 495b d0bd
000003c0: 6100 c23d 6603 08bd 089b 06be 3aeb 0a3d
000003d0: e0a2 883d 6a43 b93d 4707 663c 7c33 003e
000003e0: 41ab a33d ec6a cc3d d8a1 003c 223b 9ebd
000003f0: fffe c2bc d5c3 7dbd 72a9 59bd baba 3ebc
0.0661996 -0.08021168 -0.074512996 0.05578297 -0.033934418 -0.08122643 -0.035393246 0.044995736
0.08386033 -0.01344225 -0.11896441 0.05218807 -0.0402108 -0.012871182 0.001049969 -0.08406886
-0.12757666 -0.0033482378 -0.011985866 -0.058026798 -0.10645364 -0.10827659 -0.06367445 0.039267648
-0.07547491 0.05231859 0.011220423 0.05209821 -0.02804732 0.11492448 0.08057814 0.047079556
-0.043213774 -0.0010150792 -0.09968025 -0.0495035 0.10841537 -0.11034747 0.03454322 -0.05066484
0.057598237 0.07426136 0.02971448 -0.10447348 -0.06062001 -0.019886019 0.044458736 -0.108203076
-0.072205864 0.07229582 -0.07640814 0.022993285 0.009225778 0.009795634 -0.06493611 -0.0720648
0.117719576 0.106158815 -0.073856525 0.07620343 -0.06540878 0.009972316 -0.03617782 -0.114468016
0.13712293 0.02153185 0.10166708 -0.088105075 -0.108218096 -0.019063562 0.023778606 -0.14330696
0.07311198 0.10455388 0.116192296 0.016776191 0.0037433952 0.1108313 0.106589116 -0.11803768
-0.09080018 -0.05071354 0.06692567 -0.054526817 -0.154496 -0.0818278 -0.06696816 0.06034321
0.05803799 -0.0034803122 0.13113244 0.031973757 -0.12305272 -0.05139664 -0.0383792 -0.0680343
-0.017387073 0.095003635 0.110820495 0.089411035 -0.048271395 0.15772039 0.038596597 0.0797696
-0.18035716 0.10881827 -0.018299073 0.05795873 0.14825222 0.012958425 -0.04743272 -0.14723961
0.09230963 0.056196835 0.011751538 0.15250789 -0.10560302 0.15802303 -0.026126632 -0.104009286
-0.15608548 -0.12735343 -0.012347082 0.095305584 0.09876797 0.0829992 0.10496115 0.12564705
0.08310499 -0.19461714 0.0061952285 0.047679618 0.16641383 0.0007962236 -0.03017415 0.092944205
0.09113135 0.02323956 0.050285224 -0.15379176 -0.19198631 0.07639981 0.051074564 0.04985087
0.1256111 -0.0665264 -0.10033762 0.07426237 0.007241653 0.07898618 0.042885877 -0.16881955
0.09702029 -0.09494133 -0.044026136 -0.13661152 0.07280754 0.17620437 0.09203381 0.054072835
0.0391543 0.119707316 0.14480107 -0.16572203 0.13099217 -0.11817778 0.036386374 -0.100347556
-0.008051067 -0.09745218 -0.0120966155 -0.16798063 0.054107778 0.09013386 0.13299504 0.20866948
-0.1389036 -0.06818399 -0.010678801 -0.22068207 -0.052839495 -0.07473568 -0.05898353 0.08027711
-0.045197006 0.13045166 0.02506778 0.054166853 -0.046295706 -0.24487282 -0.07629714 -0.13163172
-0.18226159 0.10110807 0.15531245 -0.007890397 -0.03509338 -0.014670159 0.12611228 -0.0939302
0.08942437 -0.15792735 -0.028079754 0.05862046 -0.11660509 -0.19324507 0.11965049 0.1592179
0.08897714 0.033816554 -0.004400708 0.16164175 -0.09030576 0.19519225 0.17356282 -0.11698202
0.06362515 -0.07110902 -0.01145771 0.10573128 0.08935949 0.058700908 0.034702078 -0.071281314
0.04945449 0.08760804 0.120955765 -0.21594852 0.00386298 -0.027214885 0.057992365 -0.083730616
0.06833585 -0.1033145 0.08405052 0.097653516 -0.02298897 0.0048020966 -0.118701965 -0.10173661
0.094727285 -0.033206366 -0.13145077 0.033915736 0.06671691 0.09046061 0.014039821 0.1251964
0.079916485 0.09981331 0.007851087 -0.077261224 -0.023803232 -0.061954338 -0.05314011 -0.011641199

layers.5.bias f4 [64]
00000000: a168 1abd 65c1 143e c5cf 103e 21ea 603d
00000010: 00a8 223b 084c 1bbc c447 dc3d 47f8 c93d
00000020: 839e 06bd 2e62 253e ea18 ff3a 5d41 7d3c
00000030: 0506 19be 6d7f 753c 2d33 1c3e 5025 c9bd
00000040: 1463 423e 1f79 a5bb e090 2e3d fd96 1ebe
00000050: bc47 103e 67e0 58bd 8858 c3bc fada 6bbd
00000060: 19ab 3a3c 2c8e 053e 4c96 9bbd cee7 c9bb
00000070: 0d92 a5bd b0d2 34bd eed9 e2bd c3db f6bd
00000080: 226e 6b3d afe3 26bd e419 8d3d 8f93 c33c
00000090: 9fcd c7bd 1033 123d 119c 8c3d 8c3a f8bc
000000a0: af86 93bd 656d aa3d 98f6 c93d 04b4 ae3d
000000b0: bbb4 71bc 2f74 57bd 60a4 cebd 1606 a83d
000000c0: 0ef6 163a 3000 4abd 2aeb cdb9 1980 733d
000000d0: 0ca1 9f3d baae 82bd c788 293c f880 2c3e
000000e0: 9f38 3cbd f176 2c3d 315a d43d 21f8 063e
000000f0: 2a59 48bd 352b 593d 4d16 0ebc 735e de3d
-0.03769744 0.14526899 0.14141758 0.054910783 0.0024819374 -0.0094785765 0.10755876 0.09861808
-0.032866012 0.16150734 0.0019462381 0.015457478 -0.14943703 0.014983994 0.15253897 -0.0982157
0.18983108 -0.005049839 0.042618632 -0.15487285 0.14089864 -0.05294838 -0.023845926 -0.05758188
0.011393332 0.13042516 -0.07597026 -0.0061616665 -0.080844976 -0.04414624 -0.11076723 -0.12053635
0.057478078 -0.04074448 0.06889704 0.023874072 -0.09756016 0.03569323 0.06865705 -0.030301355
-0.07203423 0.083216466 0.09861487 0.08530429 -0.014752562 -0.052601036 -0.10089946 0.08204286
0.0005758711 -0.049316585 -0.00039275858 0.059448335 0.07794389 -0.06380983 0.010347552 0.16846073
-0.045952436 0.04210562 0.10368765 0.13180591 -0.04891316 0.05301972 -0.008672309 0.108578585

layers.7.weight f4 [64, 64]
00000000: bcf0 4dbd 35d1 0a3e 6252 a5bd 307b 763d
00000010: 9624 eabd 9294 043e eeb0 1c3b 8470 0ebe
00000020: ab4a b63d dd59 e3bd ac4f 903d 24c0 cabd
00000030: 4742 fd3c acf1 52bc d304 10be 72df e93d
00000040: 304d 4ebd 7022 08bd 6ce1 9abd 8751 1a3e
00000050: efa4 97bd 4ed4 86bc 4f0f 3b3d 949a 17ba
00000060: 6b04 2b3c 7b25 9ebb 30a0 8a3c eec3 b6bc
00000070: 2289 cfbd 6d58 2fbd 95d9 2c3d 5d17 853d
00000080: 5b31 ec3d 4c88 91bd 8431 3abd 59ce 1c3d
00000090: 1b5d bebd 5b6d febc bf65 d2bd 9d88 b5bc
000000a0: 3667 cb3d 08e5 86bd 9789 ab3d 1f0b bf3d
000000b0: 4cf8 0a3d dd97 f7bd 30e2 ed3d 2129 d13d
000000c0: b4b0 64bd 4494 9dbd e443 bebd 7a19 32bd
000000d0: 6d5a 643c d523 763d 648c d13d 254c 823d
000000e0: 6f75 853c f44e 9cbc ab0b ca3d 360a 173e
000000f0: c5e2 b8bd 9cd9 413e 9447 013e e1bb 56bd
00000100: 3991 77bc 52ae 0dbd 1f21 c6bd 9303 7a3d
00000110: 7bdb ef3c d1e1 3dbc 5bbd bc3c 0ec1 94bd
00000120: 3ef6 143e 7dd9 ab3d 2f0f 1a3e 43e4 cf3c
00000130: 317a c2bd 6786 a2bd 220b f1bd 7e2a 533e
00000140: ca7c 0c3e 2f27 48bd 2e82 cf3d 9f29 b4bb
00000150: a453 3fbe 3a30 9b3d ba16 823d 84a9 f63c
00000160: d1fc 233e 47de 65be 9011 9dbd 799f 77bd
00000170: da83 4a3d 4f7e 00bd c749 ca3d e07c 513d
00000180: bcd9 ee3d 20f1 e2bd c5fb e0bd 8b1d 153e
00000190: a7f6 bf3c b9b7 33be e6ab 3abe e784 1abd
000001a0: 538d 79bd 8f84 453b f8f2 b9bd 5d87 113e
000001b0: 6c54 423e a594 2a3d 0f0a 153e 9850 db3d
000001c0: b507 01be 2590 5abb b2f3 253d 79d6 0a3e
000001d0: b56d afbb cf39 433d 5fee 803c 9117 df3d
000001e0: bdfc db3d 80b7 66bb 0baa adbd c8bb fe3d
000001f0: 4047 e93d 26d4 2b3e cc0f 5b3d 1318 e23d
00000200: 3f04 e8bc 37ae 92bc 7c1c 9d3d 79fa acbd
00000210: 6cd8 91bc 8adb 1bbd dd4d b8bd be57 2bbe
00000220: b1dd 9fbc 2888 49bc b502 9c3a 7769 71bd
00000230: 343d 90bd 07cb 3fbe 91b2 0c3e 062b 31bd
00000240: 0e44 ed3c a259 7fbe ee21 c03d 0469 573e
00000250: f71b c33c b7f4 333d 7450 da3d c8da 8b3d
00000260: aac4 be3c 9bc7 c5bc 7555 0bbe 29ac 903d
00000270: 7ce4 d63d 4965 253e d6a6 5abd d6a1 8f3d
00000280: f1ef 4e3d 35b3 203d 44a9 f5bd ab54 1e3e
00000290: b857 e3bd ab5e 963d 4b04 bd3d f9e9 083e
000002a0: 0c42 97bd 7890 4fbd 3e45 98bd b9c9 96bd
000002b0: 26be 4e3e 491b fdbc 52a3 a23d e632 a43c
000002c0: 1246 e6bd f01b 8dbd ebbc fd3d a433 913d
000002d0: 5f79 233e 4f4f f03a 620b 3e3d c91c 243d
000002e0: a352 ac3c 575e 553d ff50 9d3d 95d0 0c3e
000002f0: 37e3 9bbd 2357 2f3c 016f 2dbe 3bcf 183d
00000300: a248 21bc 39d8 203d 03be c5bd ede4 97bd
00000310: 3689 36bd 0a20 fb3d f42e fb3d d580 e43a
00000320: 0c17 cfbd af95 0c3e d100 b9bc 78b9 53bd
00000330: b79a 173e 1956 493b 70ce 693d 6fcf a8bd
00000340: 01e4 1cbe f73e dabd 9b02 0c3e 4d90 b83d
00000350: 9e2f 7fbd 59e2 313e c855 d73d 0f28 a8bd
00000360: c5b5 ec3d b16f 99bd e6f1 51bd af54 2fbd
00000370: f355 1a3d 92e4 e93d d63e 90bd 2411 76bb
00000380: e678 d5bc 4c90 893d 2209 aebc 7917 5d3d
00000390: e6fc 0dbd 8b7b bebd 6586 8cbd fbee 063e
000003a0: f7db cbbd c8e8 c93c 5e9d 953d 3c0e 0ebe
000003b0: f945 fe3c 0442 94be 0d7f 6b3c 497c b63d
000003c0: 612e 343d 46df 95bd 6030 dabb 553c 833d
000003d0: 30f7 bebd 9180 e5bc daf7 a83d 436a 04be
000003e0: b550 45bd 9692 043c 78c6 06be 63f8 ebbd
000003f0: 9a87 cebd 0c5e c1bd 99cb a7bd 8f6d 34bd
-0.05027841 0.13556369 -0.08072354 0.060176075 -0.114327595 0.129473 0.002390917 -0.13910109
0.089009605 -0.111011244 0.07046446 -0.09899929 0.030915393 -0.012875002 -0.1406434 0.11419572
-0.05036658 -0.033235967 -0.07562527 0.15070163 -0.074045055 -0.016458657 0.045668896 -0.0005783227
0.010438065 -0.0048262454 0.016922086 -0.022310223 -0.10133578 -0.04280894 0.04219969 0.06498597
0.11532851 -0.07106075 -0.045457378 0.038282726 -0.09295102 -0.031058004 -0.10273313 -0.022159869
0.09931795 -0.06586653 0.083758526 0.09328293 0.0339282 -0.120895125 0.116154075 0.10212923
-0.05583258 -0.07694295 -0.09290293 -0.043481328 0.013937575 0.060092766 0.102318555 0.0636218
0.016291348 -0.019080617 0.09865507 0.14749989 -0.09027628 0.18930668 0.12624961 -0.05242527
-0.015110307 -0.034590073 -0.09674286 0.061038565 0.029279461 -0.011589483 0.02303951 -0.07263385
0.14547059 0.08391092 0.15044855 0.025377398 -0.094959624 -0.079357915 -0.117697015 0.20621678
0.13719478 -0.048865493 0.10132252 -0.0054981257 -0.1868425 0.07577558 0.06351991 0.030110128
0.1601441 -0.22448073 -0.076693654 -0.06045482 0.04944215 -0.031370457 0.09877353 0.05114448
0.11662623 -0.11081147 -0.10985521 0.14562051 0.023433043 -0.17550553 -0.18229637 -0.0377244
-0.060925793 0.0030138826 -0.09079546 0.14211793 0.18977517 0.041645665 0.14554618 0.107087314
-0.12600596 -0.0033350077 0.04051561 0.13558377 -0.0053536543 0.047662552 0.015738664 0.10893167
0.107415654 -0.003520459 -0.08479699 0.1243816 0.11390543 0.16780147 0.053481862 0.11039748
-0.028322337 -0.017905338 0.076714486 -0.08446211 -0.017803393 -0.038051166 -0.08999226 -0.1673269
-0.01951489 -0.012300529 0.0011902662 -0.05893847 -0.070429236 -0.18729793 0.13739993 -0.04325392
0.028963115 -0.24936536 0.093814716 0.21036154 0.023817046 0.04393455 0.106598765 0.068288386
0.023287136 -0.02414303 -0.13606818 0.07064087 0.10492799 0.16151918 -0.053381763 0.0701329
0.050521795 0.039233405 -0.119951755 0.15461986 -0.111007154 0.07342275 0.092293344 0.13370503
-0.07385644 -0.050674886 -0.07435082 -0.07362694 0.20189723 -0.0308968 0.07941307 0.020043802
-0.112438336 -0.06890094 0.12389549 0.07089928 0.15964268 0.0018334183 0.046397574 0.040066514
0.021035498 0.052091923 0.076814644 0.13751443 -0.07611697 0.010701927 -0.16936876 0.037307005
-0.009843977 0.039268706 -0.096553825 -0.07416711 -0.04456445 0.1226197 0.12264815 0.0017433414
-0.10111818 0.13728975 -0.022583397 -0.05169055 0.14805113 0.0030721484 0.05708164 -0.0824269
-0.15321352 -0.10656541 0.13672869 0.09011898 -0.06230127 0.17371501 0.10514408 -0.082107656
0.11558107 -0.074920066 -0.051256083 -0.04280537 0.037679624 0.114205495 -0.07043235 -0.0037546838
-0.026058625 0.067169756 -0.02124459 0.053977463 -0.03466501 -0.09300908 -0.06861571 0.13177101
-0.09954064 0.024647132 0.07305406 -0.13872617 0.031039225 -0.28956616 0.014373553 0.08910424
0.043989543 -0.07317977 -0.006658599 0.06407992 -0.09324491 -0.028015407 0.08250399 -0.1293116
-0.04817267 0.008091589 -0.13161647 -0.115219854 -0.10084458 -0.09441766 -0.0819313 -0.044049796

layers.7.bias f4 [64]
00000000: a490 e73d 5a77 873c 091f a53d 8846 37bd
00000010: 79d8 8cbd 94a6 943d c099 0b3c 4848 c43d
00000020: 5c2b 093d 729e 993c 88cd 763c 04e0 2c3e
00000030: 4c79 3abd 6274 e83d d4f3 9e3d cf6e ab3d
00000040: 2624 193c 35bb 373b 8e4c b33b ac37 bc3d
00000050: 9a36 ca3d 9a0e 99bd 4502 193d ca24 af3d
00000060: 693a 443d 85d0 f13c e119 e03d 31be 133d
00000070: 107a c23d 90b1 a23d c33f c13d eb78 03bb
00000080: a579 97bd 1816 0a3e 6c32 ca3d 4402 76bd
00000090: 4b73 c53d 36ad 443c 311e 58bd 6402 ce3d
000000a0: 93e3 703d b645 3dbd 1f3c 993d 0316 7f3d
000000b0: 8a1d 7fbd 3aea bfbd 88db e13d cb78 7ebd
000000c0: bd50 bf3c 0f28 813d 6765 96bc 4dd0 27be
000000d0: bc4e 17bd 6dda 1fbc 511b 233e 325a f23d
000000e0: be81 843d 510e d93d d548 93bb 2e2c c03d
000000f0: 4057 273c 041b ef3d a8d1 8b3d 0551 1a3e
0.11306885 0.016536403 0.0806256 -0.044745 -0.068772264 0.07258335 0.008520544 0.09584099
0.033488616 0.01875231 0.015063651 0.1688233 -0.045525834 0.11350323 0.0776135 0.083707444
0.009346997 0.0028035168 0.0054717725 0.09190306 0.09873696 -0.07473488 0.03735568 0.08551939
0.047907267 0.029518375 0.10942436 0.036070053 0.09495938 0.079440236 0.0943599 -0.0020061086
-0.07396249 0.1348499 0.098728985 -0.060060754 0.09641131 0.012004187 -0.052763168 0.1005905
0.05881078 -0.04620906 0.0748217 0.06227685 -0.06228403 -0.09370847 0.110282004 -0.062126916
0.023353929 0.06306469 -0.0183589 -0.16388054 -0.03694032 -0.009756667 0.15928389 0.1183361
0.06470059 0.10598434 -0.0044947662 0.093834266 0.010213673 0.11675075 0.06827098 0.15069969

layers.9.weight f4 [10, 64]
00000000: 0945 023e 95e8 183d 7f6c 85bd f95d f6bd
00000010: 73ed 6f3d 670c c13d 1859 67be 9050 2ebe
00000020: ffec e93d 3dab 16bd 58d9 ccbd 431e 9bbc
00000030: 1ed9 02bd df85 cd3d ceeb 583c 1d01 eb3d
00000040: 670e 08be b3d8 f6bd eb92 14be 39fe 42bd
00000050: 961f babd 1e92 403d feb7 8e3c 5072 0cbc
00000060: 743e 02bd e377 35be d199 b83c 1518 b53d
00000070: e245 5a3c 7df0 64bd 0d85 07be d841 d6bd
00000080: 34a3 943d 94d8 4ebc 78c0 9dbd 4b52 ab3c
00000090: 1728 31be 2e91 06be 4f7e a33c ecb7 893c
000000a0: a7ec b03c 5725 f3bd 98ce 183e 0d23 33be
000000b0: ee7c 103e d686 43bd 9e31 a13d f8ca 603d
000000c0: 6515 e13d bcb2 20bd 4719 f4bc 1323 143e
000000d0: bfd8 0c3e 5156 e23d 82e9 84bd b233 23be
000000e0: e8c2 97bd c2b9 9dbd 4b42 97bd 6aa8 a2bd
000000f0: 5917 ccbd 9c80 143e 7e50 f83d 87db a33d
00000100: 76c3 953d 5dd6 4dbc 2607 30be 9d77 ed3b
00000110: 2c02 4f3c ef46 293e 5d0e 98bb ad33 1db9
00000120: 76fd 16be 8224 123e 6012 d7bd b83a 22be
00000130: 4e39 f2bd 6347 f9bd 5925 f03d 52ba 243e
00000140: 2449 31be 45ed 133d 6dde af3d 46ac 6bbd
00000150: ac71 fb3d 614f c3bd 93c3 c7bd a74c c23d
00000160: be4a f3bd e08a 2b3e f6a9 2e3e 4893 013b
00000170: 976e df3d 3c73 2c3e 6160 ff3d 9126 75bd
00000180: 9569 d4bd 5758 193e 591f f53d 2822 f8bd
00000190: ee2d c53d b1b0 f8bb 71b0 2cbc 9cc6 e9bd
000001a0: 1210 dabd 424c ea3d a1aa 27be e4ff 313e
000001b0: ddce dcbd 6822 7cbd 824f 35be 2f1a 8f3d
000001c0: 8d6e 333c 4815 d9bd 4aaf b33d dee2 843d
000001d0: f6f0 f5bd 43b2 0abe 9497 9dbd 2092 d13d
000001e0: 8fdd 32be ee21 413d 7af7 61bd 04ac 27be
000001f0: 0086 2a3d 9c5b 3bbd b666 26be f29a 0fbe
00000200: 2a0b 9f3d 8cfa c13d a4da a93d 71ec 843d
00000210: 890c dbbd 32fe d6bd 029b 6c3c d949 61bd
00000220: 97aa 5fbd 840e c9bd 8a59 263c 160d 20bc
00000230: c39c 513d 00fc b23d f367 c63c 445c 5bbe
00000240: 8e47 fa3d bb05 8a3c 4958 7a3d 45e6 8bbd
00000250: defa 203e 0a92 a2bd 4f99 583d f16a b7bc
00000260: eeeb 823d b97b 9fbd 952a 94bd 0a43 093d
00000270: 95ff 283e e8aa 21be e3a9 d0bd ca3a b9bd
00000280: c61d ecbd 2c21 bbbd a8cc 283e 18ca 5b3d
00000290: c82e f13c c1dc e13d 1363 253d e939 d3bb
000002a0: 50c8 1e3e e611 733d 507d df3c 475d 55bd
000002b0: ed78 96bd 7839 d7bc 9614 08be f1ef 673d
000002c0: 0b5f eabd bd84 2abd 8a15 bd3d daef 46bd
000002d0: 0c6c f83d 4311 c8bd 117f df3d 798b 0dbe
000002e0: 0a29 853d ff22 693d 2594 8b3d 9d22 f4bc
000002f0: 8275 10bd e57e 073e c28b 9f3d 179f 1b3e
00000300: 29b8 213d 4782 1bbd 9322 283d dd1f 0d3d
00000310: 0039 babc 1284 843d fc46 353e b081 273e
00000320: a420 92bd 3bec 57be fa75 4fbd ffbd 44be
00000330: c60b e53c a260 05bd 91ed 3bbd c4c0 753d
00000340: 7d3a 5abd 5c8f b63d f68e 9f3d 9cfa edbc
00000350: 0fbe 9f3b 944e c0bd 8cc1 dcbd 54f1 ddbd
00000360: 2224 453d 55ab 053d f3d4 94bd 2704 ebbd
00000370: cf85 26bc c559 1a3e a031 873d 6960 283e
00000380: 62cf 2e3d af46 8c3d 2632 84bc 149f 813d
00000390: dd08 f13d f5a2 363e 759e 5cbd 2fff e7bd
000003a0: 4c21 35bb b2d6 c3bd f4ac 90bd a2c0 89bc
000003b0: c792 02bd d423 5dbe d9e3 acbc 546d 173e
000003c0: b647 8bbc 5d5c 98ba a797 9cbd 1465 10be
000003d0: ec02 debd ad6b d73d 9d3a 2abe 57a8 bebd
000003e0: 87b7 e63d 011a a83d e798 e7bb 41ce 18be
000003f0: d293 923d f502 d5bd e66e 4ebe 404e e33d
0.12721647 0.037331183 -0.065148346 -0.120296426 0.05857606 0.09426194 -0.2259258 -0.1702292
0.114221565 -0.0367844 -0.100023925 -0.018935328 -0.03194534 0.100352995 0.013239814 0.11474822
-0.13286744 -0.12053051 -0.1450917 -0.047605727 -0.09088056 0.04701435 0.017421719 -0.008572176
-0.03179784 -0.17721514 0.022534283 0.08842484 0.013322325 -0.05589341 -0.13234349 -0.104617774
0.07257691 -0.012624878 -0.07702726 0.020913264 -0.1730045 -0.13141319 0.01995769 0.016811334
0.02159722 -0.118723564 0.1492256 -0.1749384 0.14110157 -0.04773601 0.07870792 0.054881066
0.10990409 -0.039232954 -0.02979721 0.14466505 0.13754557 0.1105162 -0.064898506 -0.15937689
-0.07410222 -0.07701446 -0.07385691 -0.07942279 -0.09965391 0.14502186 0.12124728 0.08000856
0.07312672 -0.012563315 -0.17190227 0.007246925 0.012634795 0.16530965 -0.004640384 -0.00014991937
-0.14745125 0.14271739 -0.10501552 -0.15842712 -0.11827336 -0.12171819 0.117258735 0.160867
-0.17313057 0.03611495 0.08587346 -0.05753734 0.122775406 -0.09536625 -0.097541 0.094872765
-0.1187949 0.16752195 0.17057022 0.0019771624 0.10909765 0.16840833 0.12469555 -0.059851233
-0.10371701 0.14975105 0.1196887 -0.1211589 0.09627901 -0.0075894226 -0.010540114 -0.11414835
-0.106475964 0.11440326 -0.16373684 0.17382771 -0.107816435 -0.06155625 -0.17706111 0.06987416
0.01095165 -0.10599762 0.08773668 0.06488584 -0.1200885 -0.13544564 -0.07694927 0.10232949
-0.1746733 0.0471515 -0.055167653 -0.16374213 0.0416317 -0.045741662 -0.16250119 -0.1402395
0.07765801 0.09471616 0.082936555 0.0649041 -0.1069575 -0.10497703 0.014441254 -0.055002067
-0.054606047 -0.09817222 0.010153184 -0.009768745 0.05117489 0.087394714 0.024219489 -0.21421915
0.12220679 0.016848436 0.06111935 -0.0683103 0.15720698 -0.07938011 0.05288058 -0.02238986
0.06392656 -0.0778727 -0.072346844 0.0335112 0.16503747 -0.15787852 -0.10188653 -0.09044416
-0.11529116 -0.091371864 0.1648432 0.05365953 0.029441252 0.110284336 0.040377688 -0.0064461124
0.155061 0.05934324 0.027281433 -0.05209091 -0.073472835 -0.02627252 -0.13289103 0.05662531
-0.11443909 -0.041630495 0.09232624 -0.048568584 0.12129983 -0.097689174 0.10912908 -0.13822736
0.06501968 0.05691814 0.06815366 -0.029801661 -0.035268314 0.13232 0.077903286 0.15197407
0.03948227 -0.03796604 0.041048598 0.034454215 -0.022732258 0.06470503 0.1770286 0.16358066
-0.07135132 -0.21086209 -0.05064962 -0.19213103 0.027959716 -0.03256286 -0.045880858 0.05999829
-0.053278435 0.089140624 0.077909395 -0.029050164 0.0048749517 -0.093899876 -0.10779104 -0.10837045
0.048130162 0.032634098 -0.07267179 -0.11475401 -0.010163738 0.15073307 0.06601262 0.16443028
0.042678244 0.06849419 -0.016137194 0.0632917 0.11769269 0.178356 -0.053862054 -0.11327969
-0.0027638255 -0.09562434 -0.07064238 -0.016815487 -0.03187826 -0.21595699 -0.02110474 0.14787799
-0.017001968 -0.0011624206 -0.07646113 -0.14101058 -0.10840401 0.105185844 -0.16623922 -0.09309452
0.11265474 0.08208085 -0.007067788 -0.1492243 0.07157101 -0.10400955 -0.20159492 0.110989094

layers.9.bias f4 [10]
00000000: e523 e6bc 1c53 bd3d 8253 bbbb 9b7f 143d
00000010: b538 a9bd 9b73 cd3d 7f39 503d 091b 243e
00000020: 630c b43c 2c2a 413c
-0.028093288 0.092443675 -0.005716742 0.036254507 -0.08262769 0.100318156 0.050836083 0.16025938
0.021978563 0.01178984
