Experiment/benchmark/fnn_small/onnx/mnist-32x4.onnx (onnx, 115666 bytes, 10 tensors)

layers.1.weight f4 [32, 784]
00000000: 0041 b83c b25a c53b 0dc2 cabc d580 c8bc
00000010: c44e 803b c22e efbc 2314 d4bc 032f 2fbc
00000020: e5e3 0f3b f1da ce3c eb41 953a 4c40 07bd
00000030: edcf 903c 7b17 293b d0ea 3fbd 07f0 d2bc
00000040: 92be 3e3c 2f46 82bb e518 743c 435d de3c
00000050: 5652 61bc ebbc 89bc 2c94 7fbc ffd9 473b
00000060: 8fae b23c a09e f33c f853 3a3a 5f97 2e3c
00000070: 8f8b f73c 04cd 0cbd 3d79 053c 13ab bbbb
00000080: cf2e 17bd 5762 9bbc 2f95 cbbc 9942 26bd
00000090: c0eb 44bd 9651 a0bd 0b68 e7bc 4a85 bbbd
000000a0: 4db6 a8bd d67e 97bd 6372 04bd 9123 2fbd
000000b0: 65b8 99bd d729 cebd b01f 64bd abf6 fabc
000000c0: 9fda 34bd 0265 1dbd ab6c 37bd 2cb9 0ebc
000000d0: 1b0c bc3b aa01 d03a 6a96 82bc 9653 fabc
000000e0: 364d 0bbd dce5 9d3c 38b5 bcbc e999 65bd
000000f0: 69c3 75bd 1e68 fdbc 9161 46bd 14de adbd
00000100: f884 d9bd e33f 5abd 89f4 b8bd 5bf4 d5bd
00000110: f00f 12be f77c edbd 79de 56bd 439b 80bd
00000120: ef9a 31bd 000c afbd 3ed7 15bd e593 b9bc
00000130: 34d3 60bd 398f 4dbd 7c13 2bbd e17c 86bd
00000140: 609c 3fbd 6771 78bd c919 0e3d c51c 2c3c
00000150: 4e1a 1e3c 96ec a23b ec4a e3bc d179 8fbd
00000160: c1f2 2a3c 1f07 93bd 7fcd 13bd a1c0 f0bd
00000170: ed2c 1ebe 7356 debd 40e8 13be 6c7e 1cbe
00000180: 15df 21be a06b 11be 1827 22be 6d6a b8bd
00000190: 67c9 a0bd 13b5 69bd d364 67bd cabd 7dbd
000001a0: 73f7 4cbd a8a4 3ebd d152 473d 79ba 173b
000001b0: 51df 42bd 4ee6 8cbd a8dd e4bb 296d 283b
000001c0: b7fb 66bc 25fe 85bb d708 1c3d 378b a9bd
000001d0: 77c9 843c 2454 57bd b332 2ebd 6aee 8dbd
000001e0: df8e f5bd e98a 13be 7cd5 dbbd 7718 0bbe
000001f0: 183a 9fbd 4b53 1abc 1df3 633c 4fe2 14bc
00000200: cb6d 763c b448 91bc 4a4f 44bc 825b 8f3c
00000210: fc75 bcbb 9706 833c 5fc2 983c 2a9f 223c
00000220: c43f 97bc ee01 0b3c 7a7c 3abc 3a45 a0bd
00000230: 8d9d 87bc 4a69 fabc c8f4 aebc c84a fbbc
00000240: 354e 74bd 58a4 2fbd 6466 9dbd 5476 d8bd
00000250: 1b8f 01be f193 ecbd 2532 60bd 8341 cabc
00000260: 1db4 503c fafd e3bb b582 09bc e81f 703d
00000270: 191d 84bc 9f9b 273c be0e 613b e63c d0bb
00000280: 626a b9bc 5804 0abd b46d 133d 6286 f63b
00000290: c4b1 9e3c 2c3e 51bd f399 14bd 95a6 94bc
000002a0: 77b6 b63c 3bd6 33bd 9d9c 0ebd b9d8 53bd
000002b0: 40df c0bc 81d5 bbbd 2770 65bd 6f9e c5bd
000002c0: 4089 54bd 20de cbbd 40eb 7abd 4a40 57bd
000002d0: 249f c6bb 9980 693c 00df 2d3d 1fb0 3b3d
000002e0: 59c9 213c 7609 383d 3bad 233d 7536 813c
000002f0: 1ad0 f13c 49d5 fdbc 57f7 ecbc 02be cb3c
00000300: 025d a9bc 69d5 2c37 4ec3 6639 8ffe 09bb
00000310: 0801 2abc e3c2 1fbd a120 573c 259e 85bd
00000320: 70a8 9ebd ac20 87bd d8b8 69bd 6043 a9bd
00000330: d7f1 77bc 3dad 73bd a67e 42bd 790a ffbb
00000340: c750 96bc 28aa 4a3d 7556 773d 30fb f63d
00000350: 0b22 a33d be74 f63c ecb5 683d 9675 fcba
00000360: 7586 c3bc acf8 3a3b 0fc8 9f3c feed a4bc
00000370: 9ffc cdb8 9c06 1bbd 698a 00bc 56e1 fabc
00000380: 4410 82bd d17b 8bbd 5c16 26bd c312 7fbd
00000390: 1621 a2bd 92c3 abbd 1bb4 1bbd fa31 47bc
000003a0: 80dc 1cbb 946c 1d3c f0c4 19bc 0690 da3c
000003b0: b0e2 743c 95d2 7a3d 037d 063d 0f13 ab3d
000003c0: 1193 353d acb4 513c 9ba5 1b3a 5ee6 023c
000003d0: 20d9 9bbb f4f4 203d 5f6e 8f3c 25f9 bcbb
000003e0: 6e03 d83c fd55 c5bc b135 8b3c 8377 1abc
000003f0: ce19 14bc 8853 25bd 4c07 c2bc 9e2c 81bd
0.022491932 0.0060227746 -0.024750734 -0.024475494 0.0039156396 -0.0291971 -0.025888508 -0.010692361
0.0021955904 0.025250884 0.0011387443 -0.033020303 0.017677272 0.002580135 -0.046854794 -0.02574922
0.011642115 -0.0039756517 0.014898513 0.02714408 -0.013752541 -0.016813716 -0.015599292 0.0030494926
0.021811752 0.029738724 0.0007107849 0.010656207 0.030217914 -0.034375206 0.008146581 -0.0057271807
-0.036909875 -0.01896779 -0.02485141 -0.040590856 -0.04807639 -0.07828061 -0.028247854 -0.09156282
-0.08237896 -0.07397239 -0.03233565 -0.04275853 -0.075058736 -0.10066574 -0.055694282 -0.030635199
-0.044153806 -0.038426407 -0.04478137 -0.008711141 0.005738748 0.0015869637 -0.015940864 -0.030557435
-0.03400918 0.019274645 -0.02303563 -0.056054983 -0.06000081 -0.030933436 -0.04843289 -0.08489624
-0.10621065 -0.053283583 -0.090310164 -0.10446998 -0.14263892 -0.11596101 -0.05245826 -0.06279614
-0.043360647 -0.08547211 -0.036582224 -0.02265353 -0.05488892 -0.050185416 -0.04176663 -0.065667875
-0.04677999 -0.060655024 0.03469256 0.010504906 0.009649826 0.004972051 -0.027745686 -0.070056565
0.010433854 -0.071790926 -0.03608465 -0.11755491 -0.15446825 -0.10856333 -0.14444065 -0.15282601
-0.15807755 -0.14201212 -0.15835226 -0.09004674 -0.078509144 -0.05705745 -0.056492638 -0.061948575
-0.050040673 -0.046543747 0.048662964 0.0023151918 -0.047576252 -0.06879865 -0.0069844313 0.002569983
-0.014098099 -0.0040891343 0.038094368 -0.08278506 0.016209347 -0.052570477 -0.04252882 -0.069302395
-0.11990141 -0.14408459 -0.10734078 -0.13583551 -0.077747524 -0.009419273 0.013912943 -0.009087159
0.015040825 -0.017734863 -0.011981795 0.017499689 -0.0057513695 0.015994353 0.01864737 0.009925643
-0.018463023 0.008484347 -0.011382217 -0.07825704 -0.016554618 -0.030567784 -0.021356955 -0.030675307
-0.059644897 -0.04288134 -0.07685545 -0.10569444 -0.12652247 -0.11551655 -0.05473532 -0.024689442
0.012738255 -0.0069577666 -0.008392979 0.05862418 -0.016127156 0.010229974 0.0034341062 -0.006354916
-0.022633735 -0.03369555 0.035993293 0.007523344 0.019371875 -0.051084682 -0.03627963 -0.018145839
0.022303803 -0.043905478 -0.034817327 -0.051720355 -0.023543954 -0.09171582 -0.05601516 -0.096493594
-0.051888704 -0.09954476 -0.061259508 -0.052551545 -0.0060614515 0.0142518515 0.042448997 0.04582226
0.009874665 0.044930898 0.039960127 0.015773037 0.029518176 -0.030985491 -0.028926535 0.024870876
-0.020674232 1.0301687e-05 0.00022007266 -0.002105627 -0.010376222 -0.039004218 0.013130338 -0.06524304
-0.07746971 -0.065980285 -0.057061046 -0.08264804 -0.015133343 -0.059491385 -0.047484063 -0.007783231
-0.018349065 0.04947868 0.060385186 0.12059629 0.079654776 0.030084964 0.05681412 -0.0019261118
-0.023867825 0.0028529568 0.019504575 -0.020133015 -9.822216e-05 -0.0378481 -0.0078455 -0.030625027
-0.06350759 -0.068107255 -0.040548667 -0.062273752 -0.07916467 -0.083869115 -0.03801356 -0.012157911
-0.002393514 0.009608407 -0.009385332 0.026680004 0.014946625 0.061235983 0.032834064 0.083532445
0.044329707 0.012799423 0.0005937458 0.007989494 -0.004756108 0.039296106 0.017508684 -0.005767005
0.026368823 -0.024088854 0.016993375 -0.009427908 -0.009039355 -0.040362865 -0.02368512 -0.06307338

layers.1.bias f4 [32]
00000000: 4c1c 333d 220b 7f3d 472f 273d c3c5 f13c
00000010: 5c7e a03c 8639 043c 1051 f7bb 2ea2 db3d
00000020: ce02 8f3d 721f 9e3d 50b8 36bc ccb2 1ebd
00000030: f1c2 d33c 5d38 10bb 7350 23bd 320d 0c3d
00000040: c830 643d 97d9 df3d c4c9 cb3d 84ec 97bd
00000050: 1390 4e3d 6ead bfbb 69b6 3c3d 746c 6e3d
00000060: 92f9 e03b 12ae e63d 22e6 b13d 89dc f93d
00000070: dcf1 a53c 9e49 903d b886 03bd de61 b4bc
0.043728158 0.062266476 0.04081657 0.029513245 0.019591503 0.008070355 -0.007547505 0.10724293
0.06982957 0.077208415 -0.011152342 -0.038744733 0.025849791 -0.0022006251 -0.039871644 0.03419227
0.055710584 0.10930174 0.09950593 -0.07418159 0.05043037 -0.005849532 0.046072397 0.058208898
0.0068656886 0.1126367 0.086864725 0.12200267 0.02025693 0.07045291 -0.0321109 -0.022019323

layers.3.weight f4 [32, 32]
00000000: afeb 293e 3668 c1bc 7d78 5b3e 480f f4bd
00000010: b257 2dbe f5c3 cabd 9d89 94bd 8272 823d
00000020: 604c 8f3e 1fa8 743e 138b 6fbd 030a f2bd
00000030: d2ec 5a3d 40e4 21be a691 00bd 6a15 ca3d
00000040: 2b9e 60bd db8d 9abd d5bc 103e d668 633c
00000050: 1696 56bd 0e3f ab3e a36a 38be 60fc 19bc
00000060: fc9f 8abc 5b4f 303e cb04 34be a01c 123e
00000070: 095c a13e 405b b83d 6b55 14bd 3476 ad3c
00000080: eca0 4bba 563e bf3c 81eb 063c 8c20 503e
00000090: a5a0 57bd 828b 803e 52d5 893e cd02 4f3e
000000a0: 7838 1cbe ad50 86be 12c3 27bd c9af fa3c
000000b0: 374d e33d a464 393e c8a5 15bc 7881 2dbe
000000c0: 8d6e 7fbd d73b 2abd 266d bc3d 1cd4 873d
000000d0: 2e64 273d 7f04 c8be 7074 453d 085d 8e3e
000000e0: 2c76 95bd 9f68 ebbc 0fa8 193e 13ac bbbd
000000f0: e258 d4bc 491c 093e 97be 0e3e f444 663e
00000100: bf45 16bd f547 2dbd 918f ddbd 24df 21bd
00000110: d2cf a2bd 1ed5 7bbd e3c5 d0bc 5116 a2bc
00000120: 4eff 2e3e 669f 1d3e 81b3 47bc 4fc2 a33d
00000130: 2c16 dc3d ece9 afbd 95d1 253e c30e 933d
00000140: ec08 4fbe a2b1 7a3e d8e6 2b3d 9f8e 183c
00000150: 2dc3 133e fb47 233e 86f5 713d ef20 c93d
00000160: d2c7 5e3c fccd ffbd fbc5 a2bd fd9f 5d3d
00000170: 9a7e 7a3e 1020 8dbd aa6c 9a3d 6b6e 663d
00000180: 2e48 173e 05e8 0f3c 602f 703d 873f 863d
00000190: 06ec 65be 2968 c93d 4657 5f3d 8197 6bbe
000001a0: a3e7 4c3e e099 2ebd a5c0 ad3d a003 cf3d
000001b0: 84e8 8b3d 135e f03d 1eec b7bd 76d8 083e
000001c0: 4537 8dbe 3063 823e e293 bdbc 39c8 403e
000001d0: 8734 ec3d 9d0f 963e 0c73 293d fc58 e33d
000001e0: b0b7 383e ce9a c73d 4f7b 18be 6659 893e
000001f0: 5517 253e abb8 efbb b3ee 743e d300 afbc
00000200: b9b6 4ebe b3a2 363e 9165 b63c d3e1 a3bd
00000210: c9f7 563e 773c 07be 0d36 8b3d bc49 69bd
00000220: 1567 64be 6d03 163e 4f41 793d b3a9 4f3e
00000230: 0f57 4c3e a8be a53d 11dc 8b3e 3036 e5bb
00000240: 73a3 4e3d bb8d 793d 4679 4c3e 3d2a ca3d
00000250: 03cc 5abe 4ffd c3be 6860 533e 7d34 75bd
00000260: d0be 18bd 836c 27be 3fbe 1a3e ec8a 823d
00000270: 6384 3ebe ca4a 5cbd 1492 98bd 3c6e 853d
00000280: 2352 b2bc a271 d6bd 0662 bb3d 36ac b83d
00000290: 1d5b 393d 0fcd 2ebc 0372 1e3e 195b 1a3e
000002a0: c575 613d 5389 af3c a991 3dbd c7e1 033e
000002b0: 57dd 0c3e 7790 913d 3038 743e 1b78 8e3e
000002c0: 5183 ce3d 3a68 d53d a598 ebbb 016f e0bd
000002d0: c2da 9d3d bb92 c0bd 9933 36bc 7958 0d3e
000002e0: 223c 6d3e bddc 0d3d 3d56 f23d 1648 603c
000002f0: e5ca 2f3b 82e7 333e 8d53 013d b377 703c
00000300: 7cae 09be 61a2 563d a0c0 79be af63 863c
00000310: 3a49 6e3e 131f ecbc 2706 583d a8ae 993d
00000320: 463c 733d d134 123d f1ce 0fbe 1c74 433e
00000330: 1f6b 543d 28f8 d93d 77fe 763e efc7 fc3d
00000340: 9fae 113e 4d2b 1dbe 9989 083e 0661 2b3c
00000350: 74dd 89bd e0db 8ebe 6730 5d3e fee1 d5bd
00000360: ba4c f13d 9504 00be c3db 843e 8f86 2b3e
00000370: a6cd a7bc 3623 4b3e 039e c1bd d332 113e
00000380: 3f6e ea3d fc26 083e 1c43 96bd 7500 58be
00000390: f65f bdbd 1129 6fbd 3aca 93bd 75cc 12bd
000003a0: 6757 fd3d 365c 52be 72d8 d33d b620 39bd
000003b0: c636 803d c87f 80be 41eb b13a ad0b 60bd
000003c0: 137b 11be e0d6 803e afe8 2b3c b377 c5bd
000003d0: 0bbe 103e fa7e a63e b9f7 4c3d 6503 bb3d
000003e0: d06c 4a3e 20c3 993d a3c7 bebd 0543 cb3d
000003f0: eb43 543e ea47 193e 05a8 97bd 45ad 43bd
0.16593812 -0.023609262 0.21432681 -0.11916977 -0.16927984 -0.09900657 -0.0725281 0.06369497
0.27987957 0.23892258 -0.05848224 -0.11818316 0.053448506 -0.15809727 -0.0313889 0.09867366
-0.05483834 -0.07546588 0.14134534 0.013879975 -0.052389227 0.33446544 -0.18009429 -0.00939855
-0.01692199 0.17217772 -0.17579953 0.14268732 0.3151553 0.090017796 -0.036214273 0.021174528
-0.00077678147 0.023345154 0.008234859 0.20324916 -0.052643437 0.25106436 0.26920563 0.20215912
-0.15255916 -0.26233426 -0.040957518 0.030601399 0.11098712 0.18104798 -0.009133764 -0.1694392
-0.06236129 -0.041560974 0.09200506 0.066322535 0.040867023 -0.3906593 0.048206747 0.27805352
-0.0729793 -0.02873641 0.15005516 -0.0916368 -0.025921289 0.13389696 0.13939892 0.22487241
-0.03668761 -0.04230495 -0.10818399 -0.039519444 -0.07949795 -0.06148254 -0.025484985 -0.019786032
0.17089579 0.15392837 -0.012188793 0.07996046 0.107464164 -0.08589539 0.1619323 0.0718055
-0.20218247 0.24481824 0.041968197 0.009311347 0.14429922 0.15945427 0.05907204 0.09820735
0.013597446 -0.1249046 -0.07947918 0.054107655 0.24462357 -0.06890881 0.07540257 0.056257647
0.14773628 0.008783345 0.05863893 0.06555086 -0.22453317 0.0983432 0.05452659 -0.23007013
0.20010237 -0.042627215 0.0848401 0.10108113 0.06831458 0.11736693 -0.08980583 0.13363823
-0.2758123 0.254663 -0.023141805 0.18826379 0.11533456 0.29308787 0.041369483 0.11100957
0.18038821 0.097463235 -0.14890788 0.26826018 0.16122182 -0.0073157153 0.23919182 -0.021362698
-0.2018689 0.17835502 0.022265228 -0.08002057 0.2099296 -0.1320666 0.06797419 -0.056955084
-0.22304948 0.14649744 0.0608533 0.20279579 0.19955085 0.080930054 0.27316335 -0.006994985
0.050448846 0.06092618 0.19968137 0.098713376 -0.21366887 -0.38279197 0.20642245 -0.05986451
-0.037291348 -0.16349988 0.15111636 0.063741535 -0.18605189 -0.053782262 -0.07449737 0.06515166
-0.021767681 -0.104708925 0.09149556 0.09017222 0.045252908 -0.010669007 0.1547318 0.15073813
0.055043954 0.021427786 -0.04628149 0.12879096 0.1375631 0.071076326 0.23849559 0.27826008
0.1008364 0.1042027 -0.0071898275 -0.10958672 0.0770774 -0.094029866 -0.0111207 0.13803281
0.2316747 0.03463434 0.11832855 0.013689062 0.0026823815 0.17568782 0.03157382 0.014676976
-0.13445467 0.05240095 -0.24389887 0.016404955 0.23270121 -0.028823411 0.052740242 0.07504016
0.059383653 0.0356949 -0.14043786 0.19087261 0.05185997 0.10643035 0.24120508 0.12342822
0.14226769 -0.15348549 0.1333374 0.010460144 -0.06731692 -0.27902126 0.21600495 -0.10443495
0.117822126 -0.12501748 0.25948915 0.16750549 -0.020483803 0.1983765 -0.094539665 0.14179544
0.11446809 0.13296121 -0.07337019 -0.21093924 -0.09246819 -0.058388773 -0.07216306 -0.035839517
0.12370186 -0.20542988 0.10344018 -0.04519721 0.06260447 -0.2509749 0.001357414 -0.054698635
-0.14207105 0.25163937 0.010492488 -0.096419714 0.14134996 0.3251875 0.050040934 0.09131507
0.19768071 0.0750792 -0.093154214 0.09924892 0.20729034 0.1496884 -0.07405094 -0.047772665

layers.3.bias f4 [32]
00000000: b0ea 333e ab90 32bc 32aa 7b3d 9874 79bd
00000010: d723 bc3d 59f2 e63a eb0b bc3d f980 c03d
00000020: 6646 86bd 050c 463e fcc3 93bd e943 01be
00000030: 866d 333e b2fd 353e 7aa0 fdbc 25e3 413e
00000040: b88f 4d3e bce4 373c 3d7b 053e d05a b93d
00000050: 5033 913d dcb9 a93d 702d 3dbd aa8c 923e
00000060: 1785 25bb 4b56 673e 7d9e 40bd 69da 283e
00000070: 38d0 ee3c 55fb c53d 7b88 d6bc 3616 573e
0.17569995 -0.010898749 0.061441608 -0.060902208 0.091865234 0.0017619833 0.09181961 0.093995996
-0.06556396 0.19340523 -0.072151154 -0.12623562 0.17522249 0.17772558 -0.03096031 0.18934305
0.20074356 0.011223968 0.13035293 0.09050524 0.07089865 0.08287403 -0.04618591 0.28622943
-0.002525633 0.22591512 -0.047026146 0.16489567 0.02915202 0.096670784 -0.026188126 0.21004567

layers.5.weight f4 [32, 32]
00000000: 667d 27be a1d5 4a3e 958a 50be e692 d53d
00000010: f414 22be 58dd 4b3e 9e61 b2bd 46af 17be
00000020: 47e2 ca3d 7986 c3bc 56a0 d13d 4dac 153e
00000030: c0c4 21be 6f24 0f3e 5737 8d3e ee94 e43d
00000040: da48 8e3d 17f8 9c3e d1b6 65bd d89c 243e
00000050: 374b 873d 9112 4c3e 72ad 9dbc 5122 5b3e
00000060: b632 18be 6a4a 86bd 3a4e ecbd dd1c 753d
00000070: a763 a83d 99ec ce3d 25bc 2abe 90cf 703e
00000080: 9e5b 31be b89e 473e f384 133e a4bc 1a3e
00000090: 5f69 7a3e 5a6f 403e 8242 3f3e 28a9 f9ba
000000a0: fc49 aabd 2b5f 143d 91b0 8bbe ac96 1ebd
000000b0: b736 533e 9d9f b63c 9a6a 9b3d 407f 20be
000000c0: ed52 bf3d 6e50 60bd 8c7f 763e 6fad ec3c
000000d0: 1ddb 9fbc c656 72bd cd1a 7a3d dad5 68be
000000e0: ca3c d53d 5161 ffbd 23ab 12bd e99d 95bd
000000f0: f940 ef3d 7112 a5bd ff79 a5bc 4b29 94bc
00000100: 8dcd 8a3e 2047 233d 05a5 14be 73c6 28be
00000110: 9778 c6bd 728c d23d 9e5c 8b3d 12a5 ecbd
00000120: c5d0 d8bd 3b62 46bd 2f05 8cbd 69b8 ef3b
00000130: 9817 b13d 6222 8dbd 2181 b5bd 23ec 5cbe
00000140: 27d6 0c3e 4940 0b3e 8321 32be 0963 23be
00000150: 042c 9f3d 75de 643e 0dec 98bc 79cd 833e
00000160: 31ec 493d 1acd 5b3e 4eff 113e 2c11 463e
00000170: d119 173d 5a3c 493e 3035 65be 8f35 823e
00000180: ff97 133e 2b5d a23c 7269 8cbd 5100 ba3d
00000190: e73a 08be 4d23 d4bd ceb9 333d f56c 4b3e
000001a0: e081 3a3e 6533 8ebd 5ae6 e2bd a031 1b3e
000001b0: e1f5 11be 26ad 803e c569 133e 6aa5 6dbc
000001c0: ad6c 823d fbd4 4b3d e3f8 813c 3bec 7f3e
000001d0: 1850 1a3e 5c9f 713d c160 20bd 9268 1e3e
000001e0: 4cce 5cbd 9619 253e 3df7 5cbe 36c1 ef3d
000001f0: c309 223e 8a20 5bbe 0a02 19be 6f65 31be
00000200: cd56 053e 95d7 10be e2ff 763e 2644 ef3b
00000210: 1054 2bbe 31df 1fbd ec31 88bd 0c10 afbc
00000220: 5f82 fe3d 39fd a33d 95ad 153e bc70 b8bc
00000230: c9ef fd3d a329 433e 4918 4c3d ca11 973e
00000240: de26 a4bc bc56 e5bd f4bd debd ec10 943e
00000250: b8d8 86bb 69db e3bd f365 11be aacc 3d3e
00000260: 5191 343e 763c 433e 3836 c3bd 67e9 273e
00000270: d24e 55be 1a30 503e 3c94 a73d 7d3a 1b3d
00000280: 7b89 db3d 64b8 1a3e 7c10 a13d f02c 843e
00000290: a1c9 4ebe 8649 9a3d 6b50 1bbe 71ce 2a3e
000002a0: d4b2 1ebd 9e00 813e c9d4 b03d 3af5 67bd
000002b0: 3548 4d3e e65d e93d 4de8 283e ac4b 3f3e
000002c0: 3f39 23be 78c7 d03c da05 3e3e c2f8 053d
000002d0: 0ca5 83be 9887 6f3d a541 58be f996 8c3c
000002e0: acc9 f03d 208a 343e c4cb 643d 2534 f63c
000002f0: 3c5f 8fba d2bb 673e 66a9 db3d efd7 313e
00000300: f8ac 8cbd 5810 f23d f2d6 313d efbe 763e
00000310: 7373 0bbd 2640 eb3c a073 ba3d e661 46bd
00000320: 77eb a73d 1a73 613e 4b40 27be 324e 22be
00000330: 2737 483e 9743 de3d b499 17bd 71d1 ddbd
00000340: 8a4d b83d 0e7e 5ebb 75e0 283e a5e7 6cbe
00000350: f91e 62be 9455 dcbd 80b4 ecbd c82d 433d
00000360: 5215 f93d b4bf 32bd 5489 773e 745b 80bd
00000370: 414b a13d 1f13 773e c8cd 8e3e 2189 d1bd
00000380: 1a64 0dbd ef39 56bd 1e45 183d ecbd 183e
00000390: 35df 6fbd b534 d33d cbb0 8dbd bf7e f33d
000003a0: 55f3 8c3d c20b cd3c 1747 9e3c b6de cebb
000003b0: 2e89 1d3d 1e66 6938 a044 90bd 3ee9 38be
000003c0: f6bf b13c 88cb 883e 8881 64be 81b1 3d3e
000003d0: 5c86 fd3d 5d3c 583e 29ce 053e bfd0 343e
000003e0: 0b5b 07bc ef6b c43d 51ac 7d3d 1c0a 833e
000003f0: ea10 3c3c 7dc3 683e 2d97 88be 94eb 793e
-0.1635643 0.19808055 -0.20365365 0.10428409 -0.15828305 0.19908655 -0.08710025 -0.14812955
0.0990644 -0.023867832 0.1023566 0.14616509 -0.1579771 0.13978742 0.27581283 0.111612186
0.06947489 0.30658028 -0.05608255 0.16075456 0.06606143 0.19928958 -0.019247744 0.2139981
-0.14863095 -0.06557162 -0.11538358 0.05984198 0.08222132 0.10103721 -0.16673334 0.23516679
-0.17320105 0.1949414 0.14406185 0.15111023 0.24454258 0.18792477 0.18677714 -0.0019047605
-0.08314893 0.03622357 -0.27283147 -0.03871791 0.20626341 0.022292906 0.07588692 -0.15673542
0.09341989 -0.054764204 0.24072093 0.028891293 -0.019513661 -0.059164785 0.061060715 -0.22737828
0.10411985 -0.124697335 -0.03580774 -0.073055096 0.116823144 -0.08060158 -0.020199774 -0.018086096
0.27109948 0.039862752 -0.14516075 -0.16481952 -0.096909694 0.10280694 0.06804775 -0.11554922
-0.10586695 -0.048433524 -0.06836926 0.0073156846 0.08647078 -0.068913236 -0.0886252 -0.21574454
0.13753568 0.13598742 -0.17395596 -0.15955748 0.07772067 0.22350486 -0.018667245 0.257427
0.049297515 0.21464959 0.14257547 0.19342488 0.036889855 0.19651929 -0.2238357 0.25431487
0.1441345 0.019819817 -0.068560496 0.090820916 -0.1330372 -0.103582956 0.04387837 0.19865783
0.18213606 -0.069433965 -0.11079092 0.15155649 -0.14253952 0.25132102 0.14395817 -0.01450477
0.063683845 0.04976366 0.015865749 0.24992459 0.15069616 0.058989868 -0.03915477 0.15469578
-0.053907678 0.16123042 -0.21578689 0.11706774 0.15824036 -0.21399131 -0.14942184 -0.1732385
0.13021393 -0.14144738 0.24121049 0.007301825 -0.16731286 -0.03903121 -0.06650147 -0.021369956
0.1242721 0.08007283 0.14616998 -0.022514693 0.12399251 0.19058852 0.049827848 0.2950576
-0.020038065 -0.11198184 -0.108760744 0.2891916 -0.0041151904 -0.111258335 -0.14199047 0.18535104
0.17633559 0.19066033 -0.09531826 0.1639763 -0.20830849 0.2033085 0.0818257 0.037897576
0.10719582 0.15109402 0.07864472 0.25815535 -0.20194103 0.07533555 -0.15167396 0.16680314
-0.038744763 0.25195783 0.086343355 -0.05663035 0.20047076 0.11394863 0.16494866 0.1868121
-0.15939806 0.02548574 0.1855692 0.032707937 -0.25711858 0.05847892 -0.21118791 0.017161833
0.11757216 0.17630816 0.05585839 0.030054161 -0.0010938416 0.22630242 0.107256696 0.17367528
-0.06868929 0.118195236 0.04341788 0.24096273 -0.034045648 0.028717112 0.09104085 -0.048433207
0.08199208 0.22016564 -0.1633312 -0.15850142 0.19552289 0.108527355 -0.037011817 -0.108309634
0.089991644 -0.0033949646 0.16491874 -0.2313524 -0.22082128 -0.1075851 -0.11557865 0.047651082
0.1216227 -0.043639854 0.2417348 -0.06267443 0.07875682 0.24128388 0.27891374 -0.102312334
-0.034519292 -0.052301344 0.03717529 0.149162 -0.058562476 0.103127874 -0.06918486 0.11889409
0.068823494 0.02503002 0.019321008 -0.0063131703 0.038460903 5.5646633e-05 -0.07044339 -0.18057725
0.02169798 0.26717782 -0.22315037 0.18524744 0.12379143 0.21116777 0.13066925 0.17657755
-0.008261452 0.09590899 0.06193191 0.2559365 0.011478642 0.22730823 -0.26677838 0.24406272

layers.5.bias f4 [32]
00000000: 684c 9cbd 468d c43c 4d35 573e 9045 40bc
00000010: 5c24 803e 8e7e b33d cdaf 663d 457e b83d
00000020: 8f24 843e 36a9 2b3e 6007 ba3d b50e 5f3d
00000030: 1870 af3d d671 dbbc b3fc 1ebe f95e f73d
00000040: 7423 113b 55c5 153d abff d23d 53d7 c1bd
00000050: 1afe 0a3d e8f1 f9bc 0a8a fabd 3c18 d0bc
00000060: 76a4 4e3b 931c 24be f6e4 133e ce81 efbd
00000070: 33a6 b1bb 8684 26be 9453 76bc 581b 4a3e
-0.07631761 0.023993146 0.21016426 -0.011735335 0.2502774 0.08764373 0.05632 0.09008459
0.25809142 0.16763768 0.09083438 0.054457385 0.08566302 -0.02678768 -0.15526085 0.120786615
0.0022146376 0.036565144 0.10302671 -0.09464898 0.033933736 -0.030510858 -0.1223336 -0.02540218
0.0031531132 -0.16026525 0.1444281 -0.1169468 -0.005421424 -0.16261491 -0.015034575 0.19736993

layers.7.weight f4 [32, 32]
00000000: a8ad 20bd 5157 31bd d341 283e ea4d a4bd
00000010: 8f7c dfbd cfd3 8dbd 9316 943d bd51 f9bd
00000020: 2fb3 623e b7d5 d3bd b46d 4cbe 6c58 273e
00000030: dd4e d33d b60d 3d3e b6c9 39bd f686 093e
00000040: c0ca a93d a3c2 883d 8832 9abe d7d8 94bd
00000050: d616 803e 9d00 903d 7393 023e 6438 2abe
00000060: c950 8f3d 58c1 5f3d 143c f33c b97b 153d
00000070: 37e1 4e3e 2bab 2d3e f8de ab3e 07f3 4fbe
00000080: b2c3 29be 7232 5f3d 8a55 19be 3263 373e
00000090: 51fe 90bd 9a10 9d3c db45 623e c9bd 543d
000000a0: d7f7 733e 00ed 923e 068e 133e 1da7 b13c
000000b0: 60d4 13be 3b7b 543e 3476 e7bd 474c 8a3e
000000c0: 308b e43c 9aee 66be ecd8 8cb8 146f 81bd
000000d0: 8d4c 1b3d 91a7 113e bd7a 6ebd b9c8 4d3d
000000e0: 9154 fdbd 1c24 d23d 1e1b b23d 18e2 f6bd
000000f0: 50ee 9dbc 075d dcbd 635b 4f3e 2312 2c3e
00000100: 0aad 393d d0ac 9ebd e19e 303e 68f7 02be
00000110: 70ac 58bd 9122 04bd 6aab d23c 36c8 543d
00000120: f38d 4a3e 52ad cd3d 6424 03be f614 2cbb
00000130: 45e8 22bd ca28 163e 1411 e93c f76f f53d
00000140: 659f 023e 8c01 a23d 2120 a1bd 86a0 59be
00000150: 7bd5 f33d f1e6 8ebd c167 24be 35e5 573e
00000160: b226 55bd 7fd4 d03d 8f39 8b3c c2e0 263e
00000170: 7028 0cbe fde1 6cbc b689 9f3c 0f01 c23d
00000180: ef7b 00be ca80 c3bd c8ff 683e 4712 0bbe
00000190: d2c4 353e e6fe 163e f0f4 3d3e 00b1 613e
000001a0: 5ae2 e73c 9b38 0abe b3d3 60bd dd26 5ebd
000001b0: 2267 52be ccce b73d dc1f 1bbd 40ba 6ebe
000001c0: 9432 6e3e 7ba8 633e adb1 c23d f974 2cbe
000001d0: f85d ecbd 8082 3c3e 0160 403d 5fb6 433e
000001e0: 2b67 f1bd cdb4 873b 16d0 d2bd 60d5 7fbc
000001f0: f43c 263d 128b 073c ca36 a6bc 0b76 b23d
00000200: 4c11 fcbb d670 5e3e d154 3bbd 9ed5 48be
00000210: ea2d 963d b8a8 c13d 9e68 723d 353b a5bc
00000220: f754 ad3d 92ec 053d 8768 0d3e 0559 873d
00000230: 2c28 e2ba cf6a 1ebe a900 06bc 9875 cebc
00000240: 7e6d 333e 870a c8bd 4e60 e3bc d4c2 a5bd
00000250: 711e 183e 74d1 1ebd 325e d0bd 98dc 0dbe
00000260: d3c1 89bd 7da6 083c c944 23be c468 f33d
00000270: 05d6 85be bbd6 243d a967 01bd 8a7f c33e
00000280: fb9d b63d d60a c93d 25e1 07be 5e5a a13c
00000290: 2581 ce3d 64c8 37be cfb1 813c a8e0 01bd
000002a0: 5ab1 22be 0167 943d c6e3 823d 49e7 aa3d
000002b0: 644b e9bd beda 8c3d 3af7 f63c 92e6 e23d
000002c0: 442d c03c 4597 693d b8f6 3abe 8df3 c6bd
000002d0: 3a77 03bd 112b 49be 09c9 a9bd 0d4a da3c
000002e0: c736 b9bd cda1 05bd 8066 26be b193 e4bd
000002f0: 1ad7 17bd 2662 a93d 700d 933d 56d0 05be
00000300: e4df 27bd 0396 0dbd 545f 13bd 0ec2 62be
00000310: 9bca f8bb f3a2 ba3d 1c19 133e d763 30be
00000320: c8f9 843e ebe5 d7bd 95ef b43d 17b1 de3d
00000330: d731 9abd 988e 1bbe 915d 53bd 1834 783d
00000340: e74a c83d 0fdc 403e 19a8 a3bd 19e8 09be
00000350: c681 123e 5696 083e a003 09be 00c9 06be
00000360: c04e 153d 2d07 a8bd be78 78be d341 043d
00000370: b5bc f33d bcd6 2dbe 7c30 8cbd b4db c5bb
00000380: 97be 723e 939d 14be 2662 b63d 75d2 823e
00000390: 9b79 483e 53f2 ca3d ff0c 2bbe c65d f0bc
000003a0: d0a9 8cbd 84b4 60be ec31 163e 548f c9bd
000003b0: d2b8 a9bd 037d d93d 2705 d3bd 0f25 4d3e
000003c0: 501c 0e3d 7144 4bbe 1603 4f3c c98d 9bbb
000003d0: 1f51 59be e21b 5e3e dcc9 80bc aaab 873e
000003e0: f5bc db3d ce44 c13d fc69 9f3d 9737 253d
000003f0: 7bd2 923d cdbe 403d 1c57 96be ba60 5f3d
-0.03922811 -0.043296162 0.1643136 -0.080226734 -0.109124295 -0.06925165 0.07230868 -0.121737935
0.22138666 -0.10343497 -0.19963723 0.16342324 0.10317776 0.18462262 -0.045358382 0.1343039
0.082906246 0.06677749 -0.30116677 -0.072679214 0.25017422 0.07031367 0.1275156 -0.16623074
0.069978304 0.054627746 0.029691733 0.036494944 0.202031 0.16959827 0.3356855 -0.20307551
-0.16578558 0.054491468 -0.14974037 0.17908934 -0.07079757 0.019172955 0.2209696 0.051938806
0.23825012 0.28696442 0.14409646 0.021686131 -0.14436483 0.20750134 -0.11301842 0.2701132
0.027898401 -0.22551957 -6.716125e-05 -0.063200146 0.0379148 0.14224078 -0.05822252 0.050240252
-0.123696454 0.102607936 0.086965784 -0.12054843 -0.019278675 -0.10759931 0.20249705 0.16803794
0.04533104 -0.07747805 0.17248107 -0.1278969 -0.052898824 -0.032259528 0.025716502 0.05194875
0.19780712 0.10042824 -0.1280685 -0.002625761 -0.03977229 0.14663997 0.028450526 0.11984246
0.12756117 0.07910451 -0.07867456 -0.21252641 0.119059525 -0.06977642 -0.16055204 0.2108353
-0.052038856 0.101967804 0.01699522 0.16296676 -0.136873 -0.014458177 0.019474845 0.09472858
-0.12547277 -0.09546049 0.22753823 -0.13581191 0.17750862 0.14745674 0.18550467 0.22040176
0.028306175 -0.13498156 -0.054889392 -0.05423628 -0.20547155 0.0897499 -0.03787218 -0.23313236
0.23261482 0.22232239 0.09506545 -0.16841497 -0.115413606 0.18409157 0.046966556 0.19112538
-0.11787256 0.004141426 -0.102935955 -0.015614837 0.040585473 0.008272903 -0.020289797 0.08713921
-0.0076924916 0.21722731 -0.045735184 -0.19612738 0.07332976 0.09456009 0.059181802 -0.020169834
0.084634714 0.032696314 0.13809405 0.06608776 -0.0017254404 -0.15470432 -0.008178868 -0.025202557
0.17522237 -0.09767633 -0.027755883 -0.08093801 0.14855362 -0.03877397 -0.10174216 -0.13853681
-0.06726422 0.008340475 -0.15944208 0.11885217 -0.26139846 0.040243845 -0.031593 0.38183242
0.08916851 0.0981652 -0.1326948 0.01969641 0.10083226 -0.17947537 0.015831856 -0.03170839
-0.15887967 0.07246209 0.063911006 0.083448954 -0.11391333 0.06877659 0.030147184 0.11079134
0.023459084 0.057029027 -0.18258178 -0.097144224 -0.032096125 -0.19645335 -0.082902975 0.026646638
-0.09043651 -0.03262501 -0.16250038 -0.111609824 -0.03707037 0.082706735 0.071802974 -0.13067755
-0.040985003 -0.03456689 -0.035979584 -0.22144338 -0.007592512 0.09113111 0.14365047 -0.17225586
0.25971818 -0.105419 0.08834759 0.10873621 -0.075290374 -0.15191114 -0.051602904 0.060596555
0.097799115 0.18833946 -0.079910465 -0.13467444 0.14307317 0.13338599 -0.13380289 -0.13162613
0.036452055 -0.08204494 -0.2426481 0.032289337 0.119012274 -0.16976446 -0.06845185 -0.0060381535
0.23705517 -0.14513235 0.08905439 0.2555119 0.19577639 0.09909501 -0.16704176 -0.02934159
-0.06868327 -0.21943861 0.14667481 -0.09841791 -0.08287205 0.10619547 -0.10303717 0.20033668
0.03469497 -0.19850327 0.012635013 -0.0047471267 -0.21222351 0.21690324 -0.015721254 0.26498157
0.107294 0.094369516 0.07783887 0.040336218 0.07169052 0.04705696 -0.29363334 0.054535605

layers.7.bias f4 [32]
00000000: a8c1 353d bf0c 723e 9de2 253e 4895 6d3e
00000010: 8d3c 73bd c86a 00be ca49 853d 722c 2e3e
00000020: 65ee 903b 7467 3e3e 0284 adbd 1aa3 afbd
00000030: 24bb 543c 5fdd 603e 4d1b 3d3d b83f 353e
00000040: a863 c4bd 8a0b cbbd e318 983d def6 093b
00000050: b5f3 e3bd 6d82 a3bd 7602 9e3d fd0b 0dbe
00000060: ec40 013d 0d90 073e aeaa b2bd 3477 56be
00000070: ea53 403e 966c b7bd 262a 0f3e f1ff 5d3e
0.044374138 0.23637675 0.16199727 0.23201478 -0.059383918 -0.12540734 0.06508215 0.17009142
0.00442295 0.18594152 -0.08472444 -0.08576031 0.012984071 0.21959446 0.046168614 0.17700088
-0.095893204 -0.0991431 0.07426622 0.0021051685 -0.11130468 -0.07983861 0.07715313 -0.13774104
0.031556055 0.13238545 -0.08723961 -0.2094391 0.1878201 -0.08956258 0.13980922 0.21679665

layers.9.weight f4 [10, 32]
00000000: 1947 463e 0067 d83c 7df0 693e e7ae 293e
00000010: 871d 66be 18dd 31be 35bf d43d 57e1 2cbe
00000020: 0a8c e8bc 9758 d5bb 7bfa cfbd f818 ed3d
00000030: 20f2 3b3e 103c 1a3e ee7c 91be 4e58 96bc
00000040: 7c8e 3c3e 4855 3b3e 13c9 db3c 0b18 7cbd
00000050: b3c3 b8bd f056 56be 1b56 9bbe 2043 9ebd
00000060: 853c 1cbe 863b a9bd c3b1 cd3b 227c b13c
00000070: 1bc7 8a3d 0017 c83d b805 bfbd 8a2e 4cbe
00000080: c821 9f3d a827 943e e1b3 7e3b a7ff ad3d
00000090: 5a39 943d ba9d a3bd c164 363d 1686 103e
000000a0: 89af 9bbd 1db7 23be 6b03 a1bc 1a30 1fbe
000000b0: fd26 69be c1d6 10be ed40 3e3e 2e7d 92be
000000c0: 623b 97be a075 22be 18f1 bdbd 7efc a5be
000000d0: b989 f83c be73 2a3e c310 29be 3e2b ea3c
000000e0: a903 a9bc b852 923e 5302 6bbe aabe 09be
000000f0: 9c91 5dbe 3a98 a7bd 3a30 f2bd b86b 8dbd
00000100: 701d e6bd 5d12 40be cfae 34bd 1d1f 173e
00000110: 0af0 1e3e be6c 113e e727 e53d 1bd1 7abe
00000120: 6a0f 9f3d 4690 083e e8b8 263e b113 ecbd
00000130: 7da9 5c3c 376e f8ba d4f5 31bd 9386 403e
00000140: 0b01 6ebe 3b7c 363d 4b25 903e 780c 3cbe
00000150: ae69 173d 837e ab3d 5b4a 323e f92d ac3d
00000160: d513 acbd a4fe 0d3d f9c8 053e 2dca 5b3d
00000170: e4a3 58be 34d0 3c3e d473 2b3e 321d cc3d
00000180: 34f4 c8be 10c2 a0bc 422e 0f3e 4c27 34be
00000190: 816f 483e 84c9 cabc ae96 1a3d bc13 833c
000001a0: 6609 52be 2849 193e 9b58 d33d 26df ff3b
000001b0: b0be 35be e23c eabd bd86 24be 8930 4e3e
000001c0: 1b6f 5e3d 0928 71be 00ba d83d 259f 80bd
000001d0: c589 7cbe 1306 b9bd fdac 863d 59a9 1dbe
000001e0: 9afa 313e 01b3 203e 1dc9 593e 67bc 3a3e
000001f0: b808 513e 7af1 143e 48fa 0abe bce4 1ebe
00000200: ec73 de3c 4a52 8abe 0d0c 5ebe 3bee 31bd
00000210: a53c c73b 2665 93bd afd6 d4bd b3f5 453e
00000220: c4da 7b3e 1208 83bd 6062 88bd 9d0b a0bd
00000230: ea10 583d 2c42 ea3d 5790 673d 0463 6fbe
00000240: 5eaa 84be 7f3e a43d f6b5 b2be 3e40 0c3e
00000250: c640 453d 3d87 2cbe 7fdb 2f3e c05c c93c
00000260: e557 013e d5d9 55be 66d6 8abe fb63 363c
00000270: aa72 f53d dd0c 783c 40cd 2d3e 089c 5a3d
00000280: aa6c 62be 6db3 e33d 60d0 373e 14bb 563e
00000290: 2d22 1d3e e98b 023e 18a6 07be 4e27 243e
000002a0: 6e2f 30be 53fd 14be d9e6 0c3e 334a a63d
000002b0: 80a9 00be 33b5 b0ba 79c4 9fbd 577a 09be
000002c0: 1eee 6b3e f913 193e b1ba ffbd 7577 08be
000002d0: 5d2c 6bbe 61f4 d3bd 9cff e63d 84e7 89bd
000002e0: d368 063e bb4d efbd 31bf cbbc fe2f a5bd
000002f0: 2259 5c3e 4570 213e 8fac 56be 0133 f73d
00000300: bdb5 4ebd 70da c0bd bb47 573d decf 373e
00000310: 5db8 88be cafe 033e 9294 7c3e 988c c8bd
00000320: 58ba 59be d9f6 673e 618b d93d ac16 063c
00000330: 826c 48bd e15b fc3d debe 36be 9d55 4ebe
00000340: d572 d33d 7751 e1bd 4114 083d 8660 08bd
00000350: d70b 423e abfd 733d 8c74 9d3c 9768 81bb
00000360: a678 39be 8ed7 32be e545 8dbe 1330 f93d
00000370: 629a 27be 11b0 e8bd 68c7 233e 5f58 883e
00000380: 5885 ae3e 1284 f23d 148a 193d 92bc 7cbe
00000390: 5137 07bd 506f 373d 3e4f bdbd 1542 93bd
000003a0: 6255 3a3e 21cc e63c 9363 273e 0e9e d7bd
000003b0: 3f03 863b 45aa 56be ba96 503d 04cc 1f3e
000003c0: 84d7 83be fb08 43be 6b21 963e f20d 07be
000003d0: b88b 01be a34d 8abd ef5d 883e c4ef 0e3d
000003e0: 06c9 873c 1310 68bd 849e f73d 34ba 3fbe
000003f0: d707 483e 179a 7a3d c676 9b3d 077a a2bc
0.19363059 0.026416302 0.22845645 0.16570626 -0.22472201 -0.17369497 0.10388032 -0.16882835
-0.028387088 -0.006510805 -0.10155197 0.11577028 0.18354082 0.15061975 -0.28415626 -0.018352654
0.18413728 0.18294251 0.026829278 -0.061546367 -0.09021702 -0.20931602 -0.3033913 -0.07727647
-0.15257461 -0.08263306 0.0062772944 0.021665636 0.067762576 0.09770012 -0.09327263 -0.19939628
0.07770115 0.28936505 0.003886454 0.084960274 0.072375014 -0.07989068 0.04452968 0.1411365
-0.0760184 -0.15987821 -0.01965495 -0.15545693 -0.22768779 -0.14144422 0.18579455 -0.2861113
-0.29537493 -0.15865183 -0.092745006 -0.324192 0.030339109 0.16645715 -0.165103 0.028585073
-0.020631628 0.28578734 -0.22950105 -0.13451639 -0.21637577 -0.08183332 -0.11825605 -0.06905311
-0.112360835 -0.18757005 -0.044112023 0.14757963 0.15521255 0.14201638 0.111892514 -0.2449383
0.07766612 0.13336286 0.16281474 -0.11527193 0.0134681435 -0.0018953745 -0.04344733 0.18801336
-0.23242585 0.04455207 0.28153452 -0.18364131 0.03696602 0.083737396 0.17411177 0.08407206
-0.0840222 0.034666672 0.13064946 0.053659607 -0.2115627 0.18438798 0.16743404 0.09966506
-0.39248812 -0.019623786 0.1398249 -0.17593116 0.19573785 -0.024754293 0.037741356 0.016000621
-0.20511398 0.14969313 0.103196345 0.007808584 -0.17748523 -0.11437394 -0.16067024 0.20135702
0.054305177 -0.23550428 0.10582352 -0.062803544 -0.2466193 -0.09034362 0.06575964 -0.15396632
0.17380753 0.15693285 0.21268125 0.18235932 0.20413482 0.14545241 -0.13572037 -0.15516943
0.027154885 -0.27015907 -0.21684285 -0.043440085 0.0060802274 -0.07197027 -0.1039251 0.19332008
0.24595171 -0.06398024 -0.066593885 -0.07814715 0.052750506 0.114384025 0.056534138 -0.23377615
-0.2591123 0.08019733 -0.3490445 0.13696381 0.048157476 -0.16848464 0.17173575 0.02458036
0.12631185 -0.20883878 -0.27116698 0.011132236 0.11984761 0.015139786 0.16972828 0.05337146
-0.22111765 0.11118207 0.17950583 0.20969802 0.15345068 0.12748684 -0.13246953 0.16030619
-0.17205593 -0.1454976 0.13759936 0.08119621 -0.12564659 -0.0013481736 -0.07801146 -0.13425575
0.23040053 0.14949025 -0.124867804 -0.13326819 -0.22966142 -0.10349346 0.11279222 -0.06733611
0.13125925 -0.11684748 -0.02487144 -0.080657944 0.21518376 0.15765484 -0.20964263 0.12070275
-0.050466288 -0.09416664 0.052558642 0.17950389 -0.26703158 0.12890163 0.2466605 -0.09792441
-0.21262491 0.22652759 0.106222875 0.008184116 -0.048931606 0.12322212 -0.17846248 -0.20149846
0.10324637 -0.11001866 0.03322244 -0.033295177 0.18949829 0.05956809 0.019220613 -0.0039492357
-0.1811243 -0.1746504 -0.27592388 0.121673726 -0.16367486 -0.11361707 0.15994036 0.26629922
0.34086108 0.11841597 0.037485197 -0.24681309 -0.03301174 0.04478389 -0.0924363 -0.071903385
0.18196633 0.028173508 0.16346578 -0.105281934 0.0040897424 -0.2096339 0.050924994 0.1560517
-0.25750363 -0.19046395 0.2932237 -0.13188913 -0.12650955 -0.06753089 0.26634166 0.034896627
0.016575348 -0.056655955 0.12090781 -0.18723375 0.1953424 0.061182108 0.075910136 -0.019833578

layers.9.bias f4 [10]
00000000: 469e 1b3d 1177 353e fc02 1fbe 42e4 0d3e
00000010: 63e6 bb3d 0127 ac3d 75d0 9ebd eb1a 523e
00000020: 3735 b43b 165d e1bd
0.03799274 0.17721201 -0.15528482 0.13856605 0.09174802 0.08405877 -0.07754604 0.20518081
0.0054995078 -0.11004083
