Experiment/benchmark/fnn_small/onnx/mnist-32x2.onnx (onnx, 106784 bytes, 6 tensors)

layers.1.weight f4 [32, 784]
000000 37 ca 3c bc db e0 de 3c ab d4 72 bc 61 e6 7d bc
       -0.011522821 0.027206829 -0.014821212 -0.015496821
000010 44 76 a4 3c fb b3 b6 bc 50 57 26 3c 1f a2 c5 bc
       0.020075925 -0.022302618 0.010152653 -0.024125157
000020 ee 34 40 bc f0 9a 59 3a f2 0f d7 bc 50 bc 36 3c
       -0.011731369 0.00083009806 -0.02625272 0.011153296
000030 45 20 08 3b ee 30 6a 3c 59 d7 d7 bc 44 1b 3c bd
       0.0020771187 0.014293892 -0.026347803 -0.04592444
000040 61 e7 d9 3c 40 99 08 bd 76 47 0c 3d 3d 96 46 3b
       0.026599588 -0.033349276 0.034247838 0.0030301951
000050 e3 5b 39 3a 6e df 6b 3b d2 09 d4 bb 7f 3c b1 bc
       0.0007070882 0.0035991329 -0.0064708972 -0.021635292
000060 f5 21 fb 3c fe c2 b9 bc 38 4c 2c 3c 2e ea 02 3d
       0.03065584 -0.022675987 0.010516219 0.031961612
000070 2d 30 e2 3c 6f 97 3f 3a c3 2e a8 3c fd 19 86 bb
       0.027610863 0.0007308637 0.02053011 -0.0040924535
000080 f9 29 95 3c a5 14 46 bb f4 f3 a1 3d 79 b0 53 3d
       0.01820849 -0.0030224707 0.079078585 0.05168197
000090 85 d3 8c 3d ad d7 3f 3d 62 22 75 3d b9 3e c8 3d
       0.06876282 0.046836544 0.059847243 0.097775884
0000a0 81 61 b6 3d f8 29 d1 3d 02 13 8e 3d 49 42 66 3d
       0.08905316 0.10213083 0.06937219 0.05621556
0000b0 99 53 bb 3d 56 60 c0 3d da 0c 26 3d 5a 41 d0 3d
       0.09146804 0.093933746 0.0405396 0.10168715
0000c0 55 f9 7e 3d f7 ca 2a 3d 70 c5 91 3d 1f 53 86 3d
       0.0622495 0.04169747 0.07117736 0.06558823
0000d0 e9 63 ae 3c fe 4e e5 3c 4d 59 77 bc 61 5c d4 bc
       0.021287875 0.027991768 -0.015096975 -0.025922956
0000e0 a9 b3 af 3c 3e 74 39 bb b7 ea df b9 59 db 90 3b
       0.021447973 -0.0028298046 -0.0004270875 0.0044206795
0000f0 08 52 35 3d 9f 58 6a 3d bc 18 a4 3d 4a 37 f4 3d
       0.044267684 0.057213422 0.0801253 0.11924608
000100 e4 a8 0b 3e 07 06 17 3e a8 da 0a 3e 4b 6d 22 3e
       0.13638645 0.14748393 0.13559973 0.15862004
000110 43 80 25 3e c8 53 0c 3e 04 02 27 3e 81 c4 16 3e
       0.16162209 0.13703835 0.16309363 0.14723398
000120 a5 75 15 3e c2 d4 cb 3d 9f 15 ad 3d f6 66 f9 3d
       0.14595659 0.0995269 0.084513895 0.12177841
000130 2f e8 a9 3d a1 52 13 3e 19 61 0a 3e 00 e1 69 3d
       0.08296239 0.14386989 0.13513602 0.057099342
000140 1b c4 c7 3c 24 3d 0f bd 85 2b c1 bc f3 e3 8d 3c
       0.024385503 -0.034970418 -0.023580322 0.017320609
000150 59 13 db 3b 27 f3 7b 3c 8a b1 a4 bc df 24 7a 3d
       0.006685656 0.015377796 -0.020104188 0.06107032
000160 27 ce 80 3d 66 84 98 3d 7e a9 c5 3d fb 16 df 3d
       0.062893204 0.07447128 0.09651469 0.10893055
000170 6f 3e d9 3d dd fe 1e 3e b4 08 14 3e 0f 3d 19 3e
       0.106076114 0.1552691 0.14456445 0.14964698
000180 58 1f 19 3e 96 11 14 3e 4e 3b 0e 3e 8f 7e 1c 3e
       0.14953363 0.14459834 0.1388981 0.15282653
000190 a9 ef b7 3d 84 0d fd 3d 00 c5 a3 3d ac c5 af 3d
       0.089812584 0.123560935 0.07996559 0.08582625
0001a0 73 62 fc 3d 25 62 a7 3d d3 c2 ed 3d 6b 7a 74 3d
       0.12323465 0.081730165 0.116094254 0.05968706
0001b0 66 c2 10 3d 94 5b f7 3b 1d 8c 7f 3c e5 e1 99 3c
       0.035341643 0.0075487588 0.01559737 0.018784473
0001c0 46 11 7e 3a df f6 0d 3d 31 c6 a5 bb 1a 02 c5 3d
       0.0009691905 0.034659263 -0.0050590266 0.096195415
0001d0 9e 9b 87 3d 81 a1 c2 3d 00 01 25 3e a8 29 cc 3d
       0.066214785 0.09503461 0.16113663 0.09968883
0001e0 b2 4b 0e 3e ee ac 16 3e 9f 05 b8 3d 7d 79 cb 3d
       0.13896063 0.14714405 0.08985447 0.099352814
0001f0 e6 e5 e4 3d 22 6d a3 3d 24 9e 00 3d 8e 81 6b 3d
       0.11176662 0.079798 0.031400815 0.0574966
000200 f0 a5 87 3d 32 63 6d 3d 7f 9d a9 3d b1 98 b4 3d
       0.06623447 0.05795593 0.08281993 0.08818186
000210 f5 c6 b1 3d 35 ea cb 3c 79 c8 99 3c 5b 3e 86 bc
       0.08680526 0.024891952 0.01877235 -0.016387155
000220 95 32 fb bc 2f 9a 96 bd 03 03 4e bc ec 73 c1 3b
       -0.030663768 -0.07353627 -0.01257396 0.0059037115
000230 de 75 ea 3c 4a cc 7c bc ce d3 a8 3d bc 7b 76 3d
       0.028620657 -0.015429566 0.082435235 0.060176596
000240 2f 85 1a 3e ff 6d 26 3e 7e 9d ec 3d 26 f0 ec 3d
       0.15089868 0.16252898 0.11553477 0.11569242
000250 d6 a5 82 3d 38 4b 6b 3d d7 49 b7 3d f4 90 9d 3c
       0.06379287 0.05744478 0.08949631 0.019234158
000260 fe b5 1a bc 14 53 2b 3d f4 57 23 3c 53 f9 ea 3c
       -0.009442804 0.041827276 0.0099697 0.02868334
000270 3a 8a 3f bc 2e fc 8d bc d0 c8 1c 3d 81 b4 c7 3c
       -0.011690671 -0.017332163 0.038277447 0.024378063
000280 f2 79 0f bd 87 09 45 bd 1a a4 92 bd bd 6e 7b bd
       -0.035028405 -0.04810479 -0.07160206 -0.061384905
000290 5e 71 bb bd c2 33 bd bd 49 4b a7 bc 35 e0 0c 3d
       -0.091524825 -0.09238388 -0.020421641 0.034393508
0002a0 71 48 10 bd e7 dc 50 3c 63 8f 7e 3d b9 b3 e9 3d
       -0.035225336 0.01274798 0.062148463 0.114112325
0002b0 db 29 da 3d ac 79 f9 3d 41 6d d7 3d 20 01 b8 3d
       0.106525145 0.1218141 0.105188854 0.089845896
0002c0 d6 12 98 3d 08 92 b5 ba 0d ff 0a bd 75 b4 3c bb
       0.07425468 -0.0013852725 -0.03393464 -0.0028794084
0002d0 d2 08 19 bd 41 0a 7e bb 83 ba ff 3c 51 86 3a bb
       -0.037361927 -0.0038763436 0.031216865 -0.0028461406
0002e0 9f 67 41 bc 3b cc 6f bc 86 85 61 bd c8 ce 81 bd
       -0.01180449 -0.014636095 -0.05505898 -0.063382685
0002f0 71 da b5 bd 9c 4b d5 bd a0 32 d9 bd 65 37 08 be
       -0.08879555 -0.10414812 -0.10605359 -0.13302381
000300 4e e1 0e be 6f 5c f1 bd f5 5d c6 bd e5 63 05 bd
       -0.13953134 -0.117852084 -0.0968589 -0.03256597
000310 43 32 9d 3c a7 37 84 3d 04 d3 2d 3d 57 57 c4 3d
       0.019189006 0.06455927 0.04243757 0.09586971
000320 b4 6e ed 3d c0 7b 73 3d 12 4e 3a 3c 4f b7 03 3d
       0.115933806 0.05944419 0.0113711525 0.03215724
000330 46 dd bf bc ba 41 20 bd 7d 87 c9 bd 16 77 a1 bd
       -0.023420941 -0.03912518 -0.098402955 -0.07884042
000340 c9 35 00 bd 82 f2 73 3c 8a fa 2a 3d 4e b8 8c 3c
       -0.031301294 0.014889361 0.04174284 0.017177727
000350 79 03 1c 3c 52 94 2a bd fd 6a e7 bd 7e e9 01 be
       0.009522312 -0.041645356 -0.11299703 -0.12686726
000360 20 b4 08 be 9f 10 e0 bd c4 ae 05 be 09 fe 3b be
       -0.13349962 -0.1094067 -0.13054949 -0.18358625
000370 57 78 4c be d0 74 1a be a8 62 95 bd cc f5 3d bb
       -0.19967781 -0.15083623 -0.07294208 -0.0028985618
000380 42 5a dd 3b b4 82 a5 3c 67 a7 15 3d c1 2b d9 3d
       0.0067551443 0.020203926 0.0365366 0.106040485
000390 d6 46 08 3e 6c a5 b9 3c 78 71 ee bb d2 ab 7c bd
       0.13308272 0.022661887 -0.00727671 -0.061687298
0003a0 f3 d5 ca bd 7e 01 02 be ef 5d b6 bd 5d 5a 0c be
       -0.09904089 -0.12695882 -0.08904635 -0.13706346
0003b0 ee e4 98 bd c5 39 c2 bc bf 5f f9 3d 27 ab 97 3d
       -0.0746554 -0.023709187 0.12176465 0.074056916
0003c0 b5 83 38 3d 96 6c 10 3c 4a 54 8d bd 73 2e 05 be
       0.04504748 0.008814951 -0.069008425 -0.13006
0003d0 8f f1 e9 bd 73 b6 52 be ad a1 3e be f4 be 72 be
       -0.11423027 -0.20577411 -0.18616362 -0.23705655
0003e0 6e 4e 5b be 5e 18 57 be b6 ec 26 be cc 23 02 bd
       -0.21416637 -0.21005389 -0.16301236 -0.03177242
0003f0 ec f1 37 bd 4c 1d 37 3d 95 48 b1 bc f5 7e 46 3d
       -0.04490845 0.044705674 -0.021641055 0.04846092

layers.1.bias f4 [32]
000000 8f cd b7 3d 4b 4b 7e 3d ee a1 23 3d 5c f4 a3 3d
       0.08974754 0.062083524 0.03994935 0.08005592
000010 54 55 ef 3d 17 ae 01 3e 9d ed 2d bd 0c 56 c1 3d
       0.11686197 0.12664066 -0.042462934 0.0944024
000020 da e3 2c 3e da 0e da 3d 41 13 82 bc 2b 5b 0f 3d
       0.16883793 0.10647364 -0.015878322 0.034999054
000030 3a 1e a9 3d 8d 7c d6 bb c7 d9 03 bc 00 50 54 3e
       0.082577184 -0.0065456093 -0.008047528 0.20733643
000040 06 a3 ad 3d 3c 58 a0 bc a9 1c ab 3d d3 69 85 ba
       0.0847836 -0.019573323 0.08355076 -0.0010178633
000050 18 7b 07 3e 4b 6b ae 3d 37 20 cb 3d 8d 5f 3d bd
       0.1323055 0.08516558 0.09918254 -0.046233702
000060 dc 9b 85 bd 4f f9 df 3d a7 c1 20 3d a6 1a 89 3d
       -0.065238684 0.10936224 0.03924718 0.06694536
000070 34 04 9e 3c 86 f7 46 bd 96 e4 e4 3d 8e 4e 6b 3d
       0.019289114 -0.0485759 0.11176412 0.057447962

layers.3.weight f4 [32, 32]
000000 82 86 56 bd df 97 20 3d fa 3b 67 3c 04 96 a0 3c
       -0.05237437 0.039207336 0.014113421 0.019602783
000010 28 3e c8 bd 29 54 5d 3e 74 49 80 3e cc 85 3b 3e
       -0.0977748 0.21614136 0.2505604 0.18312758
000020 e8 33 29 3e 81 2e e6 3d db c0 93 bc 72 cb 4e be
       0.16523707 0.11239339 -0.018036297 -0.20194796
000030 06 ed 9e 3e 16 43 3b 3e 87 0a 48 bc 6c f4 92 3d
       0.3104021 0.1828731 -0.012209541 0.07175526
000040 a7 a8 35 3d db ce 3b be f2 84 6a 3e 75 5e 4d bd
       0.044350293 -0.18340628 0.22902277 -0.05013891
000050 14 22 45 3e cf 7b b3 3d d5 41 f5 bd d0 fc 3f be
       0.19251281 0.08763849 -0.11975447 -0.18748784
000060 c7 76 09 bd c3 7a 8d bd c8 cd c5 bd d4 54 c7 bc
       -0.03356054 -0.069081806 -0.0965839 -0.024332441
000070 66 4a 01 3d 16 b4 a7 bd 77 eb 89 3e 2a e6 f2 bd
       0.031565093 -0.081886455 0.26937458 -0.118603066
000080 be 66 bc bd 16 5a 65 bd dd e2 45 be 2a 8c 49 3d
       -0.09199284 -0.055994116 -0.19324823 0.049205936
000090 da c5 65 3e 18 ff 6c be 3f 2e c2 bb 30 17 44 be
       0.22438756 -0.23144186 -0.005925923 -0.1914947
0000a0 69 ae 6a 3e 8a 00 88 3e b7 af 92 3e d9 85 62 3e
       0.22918095 0.2656291 0.28649685 0.22121371
0000b0 22 d5 a3 be 55 f0 b6 bb dc e4 f0 bd 80 7a fe bd
       -0.31998545 -0.005582849 -0.117624015 -0.12425709
0000c0 73 ff 71 3e 7d 66 4d bd 3f 8d 5c be f8 67 b0 bd
       0.23632602 -0.05014657 -0.21538256 -0.086135805
0000d0 49 13 69 3d 7f 40 8e 3e 94 71 19 3e 48 0b d7 3d
       0.056903157 0.27783582 0.14984733 0.105001986
0000e0 a0 31 75 3e 10 2d 8e 3e d3 77 1f be 72 d6 07 3e
       0.23944712 0.27768755 -0.15573053 0.13265398
0000f0 ec 46 15 3e d1 c3 00 3e a8 dd 95 bd 66 20 67 3e
       0.14577836 0.12574698 -0.07317668 0.22570953
000100 3e c8 9b 3d 54 df 8c 3c 83 25 6b 3e 76 80 0f be
       0.076065525 0.017196335 0.22963528 -0.14013848
000110 4f 26 d1 bc 97 1d 9c be a3 79 44 3d 6b 96 a9 bd
       -0.025530962 -0.30491325 0.047967564 -0.08280643
000120 47 f1 22 be d6 98 f4 3b 06 b4 63 3e 7f 94 43 3d
       -0.15912353 0.0074645085 0.22236642 0.04774904
000130 45 fe cb 3d cf f2 2d 3e 9e e8 59 3e cc 29 a3 be
       0.099606074 0.16987155 0.21280143 -0.31867826
000140 71 4c 9d bd 3c 30 6c 3e 38 08 bf 3c e6 46 a3 bd
       -0.07680596 0.23065275 0.023319349 -0.07972507
000150 5f 64 38 3e 99 c3 7c 3e 84 2a e5 3d 17 ad c8 3d
       0.18007039 0.2468399 0.1118975 0.09798639
000160 d0 f5 69 3e a7 82 13 be 03 12 8c 3d 7b e4 56 3c
       0.22847676 -0.14405309 0.06839373 0.013115997
000170 df 46 4b be f9 4b b3 3d f3 5f 58 3d da 8e 85 3e
       -0.19851254 0.08754725 0.05282588 0.2608555
000180 e6 d9 80 3e 12 a0 37 3e 58 25 a8 3e 9d 0f 61 3c
       0.25166243 0.17932156 0.3284099 0.013736633
000190 f0 d5 18 be c8 f3 48 be 00 e3 f1 3c a2 d5 4a be
       -0.1492536 -0.19624245 0.029527187 -0.19808057
0001a0 22 f6 de bd 9e 35 48 3e b1 a0 a8 3d 46 e6 7f be
       -0.1088679 0.19551703 0.082337745 -0.24990186
0001b0 25 53 92 3e 94 6c 99 3e 81 05 79 bd 04 16 25 be
       0.2857906 0.2996565 -0.060796265 -0.1612168
0001c0 72 a9 41 3e 66 4f bf 3d f2 be 9a 3e 62 1a e9 bd
       0.18912295 0.09341316 0.30223805 -0.11381985
0001d0 d3 11 8c 3e 23 d3 74 bd 9a c5 b2 3d c9 ad 51 3e
       0.2735735 -0.05977167 0.08729096 0.2047645
0001e0 00 9e 00 3e d0 83 62 be 12 bb a9 3d fc 0b 5c be
       0.12560272 -0.22120595 0.08287634 -0.21488947
0001f0 54 ba 1c bb eb 2f 9c 3e ee 6e 14 be fd 86 91 3e
       -0.002391477 0.30505309 -0.14495441 0.284233
000200 8b 0f 15 3e c3 2d 59 3e 53 b9 38 3e 76 8f 29 3d
       0.1455671 0.21208863 0.18039446 0.04139658
000210 37 1f f7 3d cc f2 db 3c df 0c ae 3c 28 f5 5a bd
       0.12066501 0.026849173 0.021246372 -0.053456455
000220 90 d0 5e bd fa 1a c8 3d 48 8f 91 be cc a1 8d bd
       -0.05439812 0.0977077 -0.28429627 -0.06915626
000230 7b bc d7 bd 5d d4 ea 3d 1e 38 46 3e 78 6b 6f 3e
       -0.10533997 0.11466286 0.19357345 0.2338084
000240 db 6b aa bd 3d a2 b1 3e 15 9c dd bd c9 79 8f 3d
       -0.08321353 0.3469409 -0.10820786 0.070056506
000250 ea 47 5f bd 1d 23 5d be 20 05 fa 3d 2b 0a 1e 3e
       -0.054511942 -0.21595426 0.12208009 0.15433566
000260 84 34 32 be cf 65 73 3e 64 af db bd c8 07 8f 3c
       -0.17402846 0.23769306 -0.107268125 0.017459765
000270 d1 17 46 bc 23 31 4a 3d cc a6 66 3e 15 0e 23 bd
       -0.012090639 0.049363267 0.22524565 -0.03980835
000280 10 8f 31 3e 9e 7c 8c 3e 78 e2 8a 3e e9 f9 66 3e
       0.1733973 0.27438825 0.27125907 0.2255627
000290 3b 5e 0e 3e b4 3e 80 3d 83 0a f8 3d 55 a0 63 be
       0.13903134 0.0626196 0.1211138 -0.2222913
0002a0 c1 36 45 be b2 05 5a 3e 7d 07 9d bd 53 e6 1a be
       -0.19259168 0.21291235 -0.07667444 -0.15126924
0002b0 f9 da 1f 3e 38 ad 9a bd 51 d7 1b be 55 c9 77 3e
       0.15610875 -0.0755257 -0.15218855 0.24197896
0002c0 41 5a 9e bd 6c 3e 9e 3e 99 ec d9 bc 5c 25 a5 3d
       -0.07732058 0.30907 -0.026602076 0.08063766
0002d0 03 2d e8 bd c6 b5 e2 bd 58 99 83 3e 92 ef 93 bd
       -0.1133671 -0.11069827 0.2570293 -0.07223429
0002e0 6a b5 ba bd ab 20 d3 3d 51 82 1c 3d 71 b4 d5 bd
       -0.09116633 0.10308965 0.038210217 -0.10434807
0002f0 43 80 67 bd 70 bf 7e 3e 57 14 ce bd f4 23 84 bd
       -0.056518804 0.24877715 -0.10062473 -0.0645217
000300 23 87 67 3e d1 6a 2e be b1 1a 8b 3d 0e 54 f5 39
       0.22610144 -0.17032935 0.067922 0.00046792667
000310 5d ed 7b be 66 4c 95 3c c3 9a c3 bd 15 ad c0 3d
       -0.24602266 0.018224906 -0.09551003 0.09408013
000320 9b 9f 6e 3e d7 41 c5 3d 00 7c 31 3e 10 db 0c be
       0.23303072 0.096316986 0.17332458 -0.1375544
000330 05 b0 08 be 2d dc 7d bd 49 ea 88 bd 58 54 b6 3b
       -0.13348396 -0.061977554 -0.06685311 0.005564254
000340 da a4 e7 3d 9d be 48 be 66 7a 25 be e8 09 8d 3d
       0.1131074 -0.19603963 -0.16159973 0.06886655
000350 71 eb 57 3e 11 f9 62 3e a4 df d6 3d eb b2 bc 3c
       0.21085908 0.22165324 0.10491875 0.023034533
000360 3b cd b6 3c fe 97 0d 3d 42 b1 3c 3d 62 21 70 bd
       0.022314658 0.03456878 0.046067484 -0.058625586
000370 d0 6a c6 bd d2 a8 72 be d6 fc 6e bd 01 1a e6 3c
       -0.096883416 -0.23697212 -0.058346592 0.028088572
000380 42 48 47 3e 90 69 c2 bd 65 cb 84 be 1d e1 c2 3d
       0.19461158 -0.09492791 -0.25936428 0.09515593
000390 15 a1 9b bd f2 ca 36 3e 5f 0d 6d be 51 21 4e 3e
       -0.07599083 0.17850855 -0.23149632 0.20129897
0003a0 aa 9c fe 3a 7a 05 b1 3d d1 2c 6a bb b4 d1 b1 3d
       0.0019425352 0.08643623 -0.003573228 0.08682576
0003b0 1b 54 72 3d a7 99 95 3e a7 57 cb 3d 02 b7 15 3e
       0.05916224 0.2921879 0.09928828 0.14620593
0003c0 90 c8 ef 3d 8e 92 e5 bd 67 aa 6d 3e e3 8e 2e 3d
       0.11708176 -0.11209594 0.23209535 0.042616736
0003d0 33 99 69 3e 09 4b 1a be be 4a 85 3d 30 7d 45 3d
       0.22812347 -0.15067686 0.065083966 0.04821509
0003e0 72 c1 80 3e 0d 4b 2b bd 2f 74 89 3d 68 7c 4d 3e
       0.25147587 -0.04181962 0.067116134 0.20066988
0003f0 c9 81 6d be 5b 78 62 3e 1b da 3c 3e 7d 28 6b 3d
       -0.2319404 0.22116224 0.18442576 0.05741166

layers.3.bias f4 [32]
000000 97 3a 7d 3c 70 9b 28 3e 8f 51 10 be 27 1f 15 3e
       0.015455863 0.16465545 -0.14093612 0.14562665
000010 2d e6 2f 3e bd 53 c0 3d dc af eb 3d dd fc 57 3e
       0.17177649 0.09390972 0.11508152 0.21092553
000020 d1 8f 7d 3e fb 9c 2f bc 63 da 09 be 2c 85 2a be
       0.24761893 -0.010718579 -0.13462214 -0.16652364
000030 f4 72 4c bd 6c 09 6b be 88 cb 01 3e b0 37 6f bd
       -0.049914315 -0.22952813 0.12675297 -0.058402717
000040 a7 19 be bd 32 59 e9 bd a8 79 4b 3d 66 96 c2 3b
       -0.092822365 -0.11393966 0.049676567 0.005938339
000050 d3 4c 38 3e a8 00 05 bd 0b c4 42 be 2d b5 22 be
       0.17998056 -0.03247133 -0.19020097 -0.15889426
000060 b1 c1 4c 3e 24 6d a6 bd 75 c0 4b 3e 8c dd 25 3e
       0.19995762 -0.08126286 0.19897635 0.16197795
000070 52 d1 3f bd bd ca 2e 3e ef b9 5f 3e 16 26 ef bd
       -0.046830483 0.17069526 0.21848272 -0.11677186

layers.5.weight f4 [10, 32]
000000 64 2e 31 be 7c 7d 39 3e f4 b3 1a 3e 97 62 83 bc
       -0.17302853 0.18114275 0.15107709 -0.016038222
000010 00 34 13 3e 6c e8 71 3e f2 3b 81 be 74 02 4b be
       0.14375305 0.23623818 -0.25241047 -0.19825155
000020 53 42 77 3e 2b 8d 09 3e 2c 3f 89 be 6e f9 c3 3d
       0.24146394 0.13432758 -0.2680601 0.09569059
000030 a3 4a 85 3e 8e 8e 54 3d 9e e3 7c be 24 81 c1 3d
       0.26033506 0.051893763 -0.24696204 0.0944846
000040 c1 73 49 be 63 a0 d8 3c ff 9f 0b be e4 32 1c 3e
       -0.19673063 0.026443666 -0.13635252 0.15253788
000050 23 c8 5e bd d4 ab ee 3d 92 01 87 3d ad 1b 3b be
       -0.054390084 0.11653867 0.065920964 -0.18272276
000060 d3 cf 25 be 1a e1 75 be c6 7a ba 3d d3 71 d4 bd
       -0.1619256 -0.2401165 0.091054484 -0.10373273
000070 12 08 1f 3e ba 17 ea bd 1c bd 3b be 72 35 6c bd
       0.15530422 -0.11430307 -0.18333858 -0.057668157
000080 28 1c 83 3e 95 01 88 be aa 0e ea 3d a4 98 9a 3e
       0.2560742 -0.26563707 0.11428578 0.3019458
000090 a9 f0 0d be 01 13 fc 3d 18 dd 91 be 50 17 54 3e
       -0.13861336 0.12308312 -0.28488994 0.20712018
0000a0 6e b8 89 be 80 4b 77 be ae e4 a0 3d d9 b2 64 be
       -0.2689852 -0.24149895 0.07856117 -0.2233385
0000b0 e5 62 00 3e de f8 87 be c7 cd 54 bd 18 3a 91 bd
       0.12537725 -0.26557058 -0.051954057 -0.07091159
0000c0 11 ca 49 3e bb d4 6e be a1 94 e4 bd d7 a2 3a be
       0.19705988 -0.23323338 -0.11161161 -0.18226181
0000d0 bb ca 8b 3d 1f 58 b0 3d d5 aa e0 3d d6 2c bc bd
       0.06825777 0.08610558 0.109700836 -0.09188239
0000e0 5f 63 6c 3e f3 5b 07 bc dc f0 7c 3d 34 32 39 be
       0.23084782 -0.0082616685 0.06175314 -0.18085557
0000f0 3b 8f 4b 3d 60 87 bc be 47 3f 90 3e dc 5f a4 3d
       0.049697142 -0.36822033 0.28173277 0.08026096
000100 60 3b f4 bc 02 41 62 3c d0 6e 49 3e d1 20 83 3e
       -0.029813468 0.013809444 0.19671178 0.25610974
000110 d9 91 72 be 92 fb 27 be 5b 62 2c 3e ce ba 32 be
       -0.23688449 -0.1640456 0.16834395 -0.17454073
000120 a9 c5 8a bd 87 88 d4 bb b6 c4 75 3e 3d be 24 be
       -0.06775982 -0.006486002 0.2400082 -0.16088195
000130 2d fb 80 bd 3e 73 4f 3e e7 2b 8f 3e 0d fb 05 3e
       -0.06297908 0.20258805 0.27963182 0.1308405
000140 b4 30 ee 3d c8 d1 8f be 0c 92 0f 3e 65 8b 1b 3e
       0.11630383 -0.28089738 0.14020556 0.15189894
000150 5c d4 8e 3d 4d 2b 0f 3e 1d 76 ff bd 75 b9 bc 3d
       0.06974098 0.13981362 -0.124737 0.092150606
000160 e1 68 7a be 75 4c 0e 3d 7d 36 07 be e9 0c 03 3e
       -0.2445407 0.034740884 -0.1320438 0.12797894
000170 9b 15 65 3e 77 8f 00 bd 30 d6 9a be 72 29 bd bd
       0.22371523 -0.03138682 -0.30241537 -0.09236421
000180 ee f3 d4 bd c7 94 d3 bd 37 8b 3a be 34 5e 71 3d
       -0.103980884 -0.103311114 -0.18217169 0.05892773
000190 49 6e 30 3e 65 4f 20 3e e8 a2 77 bd 24 94 79 bd
       0.1722957 0.15655287 -0.060458094 -0.060932294
0001a0 25 94 95 be 78 a9 95 bd e1 74 10 3e 45 7e ed bd
       -0.29214588 -0.07307714 0.14107086 -0.115963496
0001b0 3a 0d 86 be 66 8b 60 3e aa 72 10 3e f9 c8 33 3d
       -0.26181966 0.21928176 0.14106241 0.043892834
0001c0 31 f3 df 3d be 34 98 3e 9b 14 77 be 2b 96 fb 3d
       0.10935057 0.2972774 -0.24128954 0.12284502
0001d0 71 32 f9 3d a0 63 47 bd 2d 84 ec 3d 35 8e d4 bd
       0.12167824 -0.048678994 0.11548648 -0.10378686
0001e0 11 64 a1 3b 90 4a 50 3e 6b 24 5e 3e c7 be eb 3c
       0.004925259 0.20340943 0.2169358 0.028777493
0001f0 dd 9b d2 bd a3 03 13 bd 52 b9 e5 bd 58 29 9b 3d
       -0.10283635 -0.03589214 -0.11216988 0.07576245
000200 6d 1e 85 3e b1 0f 64 3e 8b ba 1b be b3 f2 a6 be
       0.25999776 0.22271611 -0.15207879 -0.3260704
000210 67 b8 45 be ae ea ae be af ce 26 3e ff 72 9a 3d
       -0.19308625 -0.3416342 0.16289781 0.07541465
000220 e4 9e a2 be 4e 03 a3 3c 88 6f f9 3d ad 8c 97 3e
       -0.3176185 0.019899037 0.12179476 0.29599515
000230 02 96 0f 3e 7b ae 93 be bc 9e 6a be cc fb fd bd
       0.14022067 -0.28844056 -0.22912115 -0.12401542
000240 6d f0 90 be ae 4f 6e be 93 ad 72 be 8e 81 23 3d
       -0.2830843 -0.23272583 -0.23699026 0.039918475
000250 de 91 9f 3c fe 31 07 3e 73 3f 0d 3c 58 25 58 3d
       0.019478735 0.13202664 0.0086210845 0.05276999
000260 1a 13 43 be 13 9c 9b 3d 99 3f 23 be f8 5c 80 3e
       -0.19050255 0.07598128 -0.1594223 0.2507093
000270 43 3c 88 3d d5 45 81 3e 41 91 50 3e 97 77 95 3c
       0.06652119 0.2524859 0.2036791 0.018245501
000280 ec 0c c6 3b 67 aa 90 3e 97 70 af be b7 30 99 be
       0.006044021 0.28255007 -0.34265587 -0.2991998
000290 e8 3f 04 3c 78 45 72 bd 76 ed 49 3e 86 0b 8b bd
       0.008071877 -0.05914828 0.1971949 -0.06789307
0002a0 04 92 50 3e 99 a1 fa 3d 17 20 ac bd d1 72 36 be
       0.203682 0.122378536 -0.08404558 -0.17817236
0002b0 ef 75 ad be da 6c 19 bd 8b 06 80 3e 73 ee 1e be
       -0.3387904 -0.037457325 0.25004992 -0.15520649
0002c0 87 ce 82 3e 2f 28 a5 bd e3 b5 47 be 80 aa ab bd
       0.25548193 -0.08064305 -0.19502978 -0.0838213
0002d0 72 63 78 3e 49 a9 2d bd be 00 1d 3e 10 17 82 be
       0.24256685 -0.04239777 0.15332314 -0.2540822
0002e0 5d 98 bc 3d 7e 69 a6 be 21 a9 16 3e 33 ea 85 3e
       0.092087485 -0.3250236 0.14712955 0.26155242
0002f0 69 2d 15 3c 6d ba 81 bc 5b ee a6 3d 14 d1 2d 3d
       0.009105065 -0.015835965 0.081509314 0.04243572
000300 f2 15 b1 be f0 de 8a 3e e8 4a 76 3e 5e ee f7 3d
       -0.34587055 0.27123213 0.24052012 0.12106012
000310 73 70 4a be e8 e4 4f be 58 56 fd 3d 1f c6 15 3e
       -0.19769458 -0.20302165 0.123699844 0.14626358
000320 12 2c 18 3e 9e 83 72 be b0 f0 98 3d 93 e9 6d 3e
       0.14860561 -0.2368302 0.074677825 0.23233633
000330 ef 74 3f bd f4 88 0b 3e 2b bf 99 be 32 6a b3 3d
       -0.046742376 0.13626462 -0.30028662 0.087604895
000340 11 c1 12 be c9 87 ae bc 38 49 b5 3d 2b ad d0 bc
       -0.14331461 -0.021304982 0.08851856 -0.025473198
000350 42 b0 75 be 48 32 1a be a4 a3 c4 bd f2 50 1d be
       -0.23993018 -0.15058243 -0.096015245 -0.1536291
000360 ab ae 30 3e 2e 49 f7 bd f8 71 71 be c9 b2 e3 3b
       0.1725413 -0.12074505 -0.23578632 0.006948803
000370 57 9f 45 3e 03 b0 8d be 37 36 f1 bc da ad 6c bd
       0.19299065 -0.2767335 -0.029444797 -0.057782985
000380 66 23 88 bd 9d 51 45 be 11 89 ae bd 2c cb 4d be
       -0.06647377 -0.19269414 -0.08522237 -0.20097035
000390 05 b5 48 3e 18 c3 41 3c a3 a2 e2 3c cc 04 7c 3e
       0.19600303 0.011826299 0.027665442 0.24611205
0003a0 af e6 0a 3d 2f e7 0c 3e 4a f9 ff 3c f0 a5 24 be
       0.033911403 0.13760065 0.0312468 -0.16078925
0003b0 41 b6 3d be 60 b9 49 be 0b 67 5f 3e 27 1c c4 3d
       -0.18526556 -0.19699621 0.21816652 0.09575682
0003c0 b8 8c 07 be 46 71 6d be a0 74 4e 3e e8 84 14 3e
       -0.13237274 -0.23187742 0.20161676 0.14503825
0003d0 82 de 88 be c1 5b 1b be 9a d6 16 be c5 83 85 3e
       -0.2673226 -0.1517172 -0.14730301 0.26077095
0003e0 86 10 50 be d8 f7 4e 3e eb 3f 60 3e 6e 29 3a be
       -0.20318803 0.20211732 0.21899383 -0.18179867
0003f0 47 8b ee bd a2 18 33 bd a1 96 54 be e2 2c e6 3d
       -0.11647659 -0.043724664 -0.20760585 0.112390295

layers.5.bias f4 [10]
000000 35 0a 1a 3d e0 30 7b 3e 4e 4c 52 be f5 1d 62 3c
       0.03760739 0.24530363 -0.2053692 0.013801088
000010 cc 83 18 bd e3 95 9a 3d 5f 11 26 be d9 0b 0a 3e
       -0.037235066 0.0754812 -0.16217564 0.13481082
000020 e7 56 5e bd fe 7b 5f bc
       -0.054282095 -0.013640402
