Experiment/benchmark/fnn_small/onnx/mnist-16x4.onnx (onnx, 55370 bytes, 10 tensors)

layers.1.weight f4 [16, 784]
0.025126055 -0.028696695 -0.02180509 0.014173203 0.01359973 0.019693939 -0.0015544452 -0.031991962
-0.016175933 -0.03002403 -0.016700622 -0.010226162 0.015190858 0.0196666 0.02046926 0.007947096
-0.015405909 0.025756612 -0.026435452 -0.0029280188 -0.02240483 -0.014193738 0.019252246 0.008559609
-0.030385487 -0.032600217 -0.023505468 0.033509705 -0.0049174177 0.01222489 0.0140835885 0.01931348
-0.024522763 0.02333832 0.07543038 0.034750428 0.06664706 0.040523548 0.045448113 0.002855673
0.02814613 -0.015788227 0.056195524 0.05505324 -0.012787268 -0.015660051 0.04346475 0.049249854
0.0027440093 0.002242454 0.03315429 0.021193068 -0.025439149 -0.024690382 -0.011075928 0.0071129007
0.00030375613 -0.0031339994 -0.013541443 -0.00527604 0.024401186 0.063977666 0.062225994 0.11647726
0.1568002 0.151179 0.15025543 0.18683346 0.17401488 0.13419212 0.17733073 0.15676597
0.13708729 0.15103427 0.11715802 0.14317988 0.110419825 0.05736241 0.052365206 0.048626717
-0.008493061 -0.0037999684 0.024363363 0.010589055 0.012563171 -0.025622213 -0.0014436457 0.005267699
0.07533421 0.061501656 0.11430078 0.20142914 0.18579781 0.24954784 0.20012037 0.19021441
0.18066011 0.17497912 0.14818224 0.14680919 0.17227066 0.1281649 0.14113447 0.14551573
0.105842404 0.041704834 0.047760915 0.05502604 0.032409508 -0.03660547 -0.020342045 -0.024148962
0.025049524 -0.06637643 -0.011908929 -0.04057163 -0.004024481 0.06969187 0.060531497 0.035725776
0.04910812 0.073411606 0.0704204 0.03613968 0.067187965 0.03612576 0.039003607 0.060407314
0.054800417 0.09048113 0.07337546 0.023470005 -0.014198898 0.011597934 -0.028780071 -0.0032089748
-0.06553984 -0.078714296 -0.07304489 -0.0021538197 -0.007401059 -0.0018405328 0.05653553 -0.042607997
-0.013716152 0.007373458 -8.9388035e-05 0.008017713 0.032936394 0.032435875 0.041105736 0.009814247
0.0016826086 -0.0053311144 0.05942133 0.07906455 0.09991289 0.06665363 0.071207404 0.079242736
0.019505568 0.023884047 0.03846939 0.052912734 -0.0046179257 -0.055178333 -0.01712971 0.0313922
-0.026583148 0.037286844 0.008282051 -0.070437334 0.01517444 -0.017512577 0.032720175 0.031724222
0.042101983 0.046608586 0.014078767 -0.035147578 -0.07139043 -0.104879886 -0.077904165 -0.12366585
-0.10300897 -0.10993926 -0.03384343 0.03240824 0.00034290593 -0.0041693854 0.01460242 0.028065301
0.0736271 0.042688362 0.04426592 0.008807625 -0.023534644 0.0075200596 0.017846253 -0.028445078
-0.006924587 -0.00075135526 0.033629637 0.074490555 0.054144144 0.028524034 -0.003634623 -0.028470272
-0.0982956 -0.14098558 -0.14316532 -0.22115411 -0.16027588 -0.12734438 -0.094005816 -0.043361764
-0.04755054 0.0082346145 0.06386379 -0.00046107284 0.09197651 0.061658617 0.11109619 0.0036289387
-0.06271908 0.017326714 -0.030085687 -0.05173274 -0.014291496 0.025507603 0.03603921 0.071356304
0.06786871 0.048534606 0.04002314 -0.023676096 -0.043203484 -0.10256123 -0.13213864 -0.13840674
-0.16672917 -0.10570801 -0.077710934 -0.06866203 -0.04641993 -0.060424358 0.013145355 0.027308205
0.06669218 0.07806553 0.055121746 -0.0009363407 0.020103546 -0.055420857 -0.0261719 -0.016621392
00000000: 28d5 cd3c 5515 ebbc 97a0 b2bc b936 683c
00000010: 67d1 5e3c 2f55 a13c 87be cbba 010a 03bd
00000020: 6483 84bc f4f4 f5bc becf 88bc a28b 27bc
00000030: 14e3 783c d91b a13c 26af a73c 8934 023c
00000040: 1169 7cbc 88ff d23c 298f d8bc 01e4 3fbb
00000050: 568a b7bc da8c 68bc e3b6 9d3c 9a3d 0c3c
00000060: fcea f8bc ce87 05bd 8a8e c0bc 7941 093d
00000070: 4a22 a1bb e84a 483c dabe 663c 4e37 9e3c
00000080: f6e3 c8bc 0130 bf3c 3e7b 9a3d 7756 0e3d
00000090: 417e 883d 05fc 253d cd27 3a3d 3e26 3b3b
000000a0: b692 e63c 5056 81bc 472d 663d 827f 613d
000000b0: b081 51bc 8249 80bc 1808 323d 37ba 493d
000000c0: d6d4 333b 23f6 123b cbcc 073d 169d ad3c
000000d0: c365 d0bc 7c43 cabc cf77 35bc 5613 e93b
000000e0: 7541 9f39 c963 4dbb eedc 5dbc a2e2 acbb
000000f0: ffe4 c73c b906 833d afe0 7e3d a18b ee3d
00000100: 3b90 203e abce 1a3e 8fdc 193e 4551 3f3e
00000110: f530 323e a969 093e 3096 353e 4287 203e
00000120: 9c60 0c3e baa8 1a3e 8bf0 ef3d bf9d 123e
00000130: ca23 e23d d9f4 6a3d e67c 563d cf2c 473d
00000140: 7b26 0bbc e408 79bb ad95 c73c b77d 2d3c
00000150: c2d5 4d3c ade5 d1bc b638 bdba a99c ac3b
00000160: d348 9a3d 29e9 7b3d 8716 ea3d 7143 4e3e
00000170: c841 3e3e 7889 7f3e 5bec 4c3e 91c7 423e
00000180: f7fe 383e ba2d 333e 16bd 173e 2655 163e
00000190: b867 303e a93d 033e 8e85 103e 1302 153e
000001a0: e7c3 d83d b0d2 2a3d f3a0 433d fc62 613d
000001b0: d5bf 043d 9eef 15bd 5ca4 a6bc 0bd4 c5bc
000001c0: a934 cd3c 5ef0 87bd ab1d 43bc 702e 26bd
000001d0: cbdf 83bb 9cba 8e3d e0ef 773d 3155 123d
000001e0: 9925 493d d358 963d 9238 903d 3307 143d
000001f0: d899 893d 9bf8 133d 3fc2 1f3d a96d 773d
00000200: 6776 603d 2c4e b93d e045 963d 2b44 c03c
00000210: 7fa2 68bc 4305 3e3c 2fc4 ebbc aa4d 52bb
00000220: c039 86bd f634 a1bd 8f98 95bd 1927 0dbb
00000230: 9584 f2bb 083e f1ba cd91 673d b985 2ebd
00000240: b6b9 60bc 0c9d f13b d675 bbb8 ba5c 033c
00000250: 50e8 063d 7bdb 043d 7d5e 283d efcb 203c
00000260: fa8a dc3a a1b0 aebb c863 733d 98ec a13d
00000270: 219f cc3d b381 883d 30d5 913d 044a a23d
00000280: 24ca 9f3c 7aa8 c33c 1492 1d3d 06bb 583d
00000290: f851 97bb ad02 62bd 9b53 8cbc 1c95 003d
000002a0: e7c4 d9bc 17ba 183d 71b1 073c 7341 90bd
000002b0: 379e 783c 8976 8fbc 9705 063d 42f1 013d
000002c0: 2173 2c3d a5e8 3e3d a1aa 663c e8f6 0fbd
000002d0: 2535 92bd 44cb d6bd 388c 9fbd 8544 fdbd
000002e0: 5ef6 d2bd d627 e1bd 699f 0abd 81be 043d
000002f0: 0ec8 b339 579f 88bb fd3e 6f3c 34e9 e53c
00000300: cec9 963d fed9 2e3d 2e50 353d db4d 103c
00000310: bacb c0bc d56a f63b 4e32 923c a705 e9bc
00000320: a5e7 e2bb 99f6 44ba 3bbf 093d 818e 983d
00000330: 40c6 5d3d 3cab e93c db32 6ebb 7d3a e9bc
00000340: 344f c9bd 865e 10be ee99 12be 3976 62be
00000350: 5c1f 24be 9166 02be 1f86 c0bd 1b9c 31bd
00000360: 5bc4 42bd 7aea 063c 05cb 823d 26bc f1b9
00000370: 2e5e bc3d bf8d 7c3d 6686 e33d 7dd3 6d3b
00000380: dc72 80bd c1f0 8d3c 4276 f6bc b6e5 53bd
00000390: e126 6abc 52f5 d03c da9d 133d 4123 923d
000003a0: c0fe 8a3d 39cc 463d 4eef 233d 5ff4 c1bc
000003b0: 23f6 30bd 9f0b d2bd 5a4f 07be 7fba 0dbe
000003c0: 0dbb 2abe 717d d8bd e926 9fbd ae9e 8cbd
000003d0: d322 3ebd 887f 77bd 9d5f 573c 75b5 df3c
000003e0: e995 883d d2e0 9f3d 57c7 613d c374 75ba
000003f0: 31b0 a43c fb00 63bd 7466 d6bc 9629 88bc

layers.1.bias f4 [16]
0.07348098 0.14775579 -0.01618576 0.08810782 0.0739287 0.112187386 0.01876368 -0.12298292
0.13506564 -0.068685845 0.2861584 0.18212034 -0.06737333 0.007814607 -0.0447455 -0.04779949
00000000: 327d 963d 4b4d 173e 0098 84bc df71 b43d
00000010: ee67 973d 80c2 e53d 4ab6 993c 78de fbbd
00000020: a64e 0a3e 2aab 8cbd 5b83 923e c17d 3a3e
00000030: 07fb 89bd d608 003c 0f47 37bd 66c9 43bd

layers.3.weight f4 [16, 16]
-0.330577 0.34124988 0.15125112 0.27245367 0.23505719 0.1341991 -0.09362456 0.11219871
-0.042826194 0.09665068 0.39353183 0.19637443 0.054166503 -0.098584905 -0.27879032 -0.32456818
0.3716986 -0.18219072 -0.23365434 -0.39227122 -0.22914886 0.26522258 0.2210517 0.09620946
-0.33363897 0.42583364 0.32937732 0.23715852 0.33584452 0.051190708 -0.048329197 -0.054800972
0.108964965 -0.14974529 0.10116054 -0.0515601 -0.09117362 -0.10255947 -0.18295258 -0.015250396
0.099023074 -0.19643912 0.32060435 0.36474296 -0.37496635 0.025828108 -0.5299769 0.017327318
-0.22879334 0.13254958 0.04542329 -0.13389266 -0.019191243 0.14872922 -0.05284351 0.411008
-0.40525606 0.021791171 0.1861608 -0.100362614 0.2981526 0.041526202 -0.12919553 -0.16369602
-0.08380418 0.18398237 0.20448524 0.20776065 0.027037159 -0.15979 -0.004583086 0.12942289
-0.039309967 0.39739802 0.08350251 -0.044778574 0.39700305 0.29751778 0.3321016 0.07929136
-0.15898763 0.25792685 0.10761115 0.2092731 0.16223702 0.20608817 0.119946636 -0.33667737
0.2900302 0.07651489 0.35389322 -0.056978196 0.2943572 0.23749906 0.3192911 -0.13417114
0.21328533 0.22440201 0.17680472 -0.25407776 -0.39098644 0.024000341 -0.012450028 0.15195613
0.09328253 0.077888854 0.3417562 0.12550925 0.028204802 0.14014722 0.14408123 0.30404204
0.40686888 -0.057833783 0.20922188 -0.10403284 -0.13328159 -0.049149487 -0.01704579 -0.05327079
0.21328656 -0.110924944 -0.024709208 0.28960198 -0.057067595 0.14872757 -0.1912079 0.089294456
-0.23028591 0.117806576 0.04689366 -0.08687572 -0.12825437 -0.06427679 -0.25103298 0.098282285
-0.3524635 0.21627682 0.32552224 0.06478763 0.13164902 -0.007231743 -0.29743892 -0.47437158
-0.26318187 0.00400185 -0.25293598 0.425467 0.38904652 0.29207757 -0.058035452 0.36809966
0.048904236 0.0812321 -0.2813695 0.33006775 0.2215343 -0.2545573 -0.21767999 0.28302386
-0.17156224 -0.1691074 0.025618423 -0.12622434 0.10411637 0.03111296 -0.24539953 -0.14355443
0.15604423 -0.25053266 -0.18198189 -0.17679937 -0.111975454 0.15173635 0.112664305 -0.08721735
0.018933618 -0.028474407 0.115624525 0.30112773 -0.16501233 0.008095721 0.029741751 0.4357615
0.14552212 0.21825813 -0.13560863 0.24397275 0.3128767 0.23547779 0.33278903 0.41224307
0.2927139 0.2128906 -0.15067478 0.14310604 -0.077365756 0.22809303 -0.10720574 -0.019934459
0.13088918 0.3863891 0.2199273 0.17534119 0.39622042 0.3529077 0.34463343 0.4190922
0.017860882 0.11251086 0.033349913 -0.31064725 -0.016222201 0.3299887 -0.036336333 0.33243045
-0.3728667 -0.18905084 0.100021206 0.3010186 -0.042734757 -0.29159075 -0.509352 -0.3049006
-0.16669554 0.33836818 0.21479483 0.05404109 0.3124488 0.2996247 0.19359311 -0.41787437
-0.03371212 -0.23387185 0.27666235 0.26422492 -0.25899485 -0.275927 -0.39652118 -0.28116637
-0.14538068 0.15285333 -0.24062943 -0.17016894 -0.120248236 0.20228639 0.10914367 0.011445259
-0.412958 0.043253124 -0.050464977 0.11228747 0.28890723 -0.26849893 -0.44953224 -0.4241167
00000000: 6341 a9be 4eb8 ae3e 93e1 1a3e 0c7f 8b3e
00000010: d5b2 703e 7d6b 093e 3cbe bfbd 70c8 e53d
00000020: 856a 2fbd cbf0 c53d 017d c93e 6116 493e
00000030: b2dd 5d3d e2e6 c9bd 9bbd 8ebe cd2d a6be
00000040: 474f be3e 3490 3abe 1543 6fbe c6d7 c8be
00000050: 00a6 6abe 41cb 873e 605b 623e 7709 c53d
00000060: bad2 aabe de06 da3e 25a4 a83e afd9 723e
00000070: d0f3 ab3e 59ad 513d d6f4 45bd fc76 60bd
00000080: 0629 df3d d456 19be 422d cf3d af30 53bd
00000090: 3cb9 babd b30a d2bd ec57 3bbe ccdc 79bc
000000a0: 9ccc ca3d 5627 49be 4126 a43e 97bf ba3e
000000b0: 97fb bfbe 7895 d33c 91ac 07bf 05f2 8d3c
000000c0: cd48 6abe 14bb 073e c60d 3a3d 281b 09be
000000d0: f436 9dbc 794c 183e 7072 58bd a46f d23e
000000e0: b97d cfbe 6683 b23c f0a0 3e3e ea8a cdbd
000000f0: 75a7 983e 6117 2a3d d54b 04be ee9f 27be
00000100: 87a1 abbd e065 3c3e 9464 513e 35bf 543e
00000110: 087d dd3c fd9f 23be b62d 96bb 6f87 043e
00000120: 7d03 21bd c177 cb3e 5d03 ab3d bd69 37bd
00000130: fc43 cb3e 4054 983e 3909 aa3e 8263 a23d
00000140: a7cd 22be fd0e 843e 3c63 dc3d b04b 563e
00000150: 7621 263e c708 533e 95a6 f53d fa60 acbe
00000160: d77e 943e d7b3 9c3d 7e31 b53e f861 69bd
00000170: fdb5 963e f432 733e 207a a33e 2964 09be
00000180: 7867 5a3e a4c9 653e 4c0c 353e 7b16 82be
00000190: 602f c8be 5d9c c43c 34fb 4bbc 639a 1b3e
000001a0: e90a bf3d 3184 9f3d abfa ae3e 7f85 003e
000001b0: c20d e73c c182 0f3e 088a 133e 66ab 9b3e
000001c0: 1e51 d03e 1ee3 6cbd 433e 563e 2b0f d5bd
000001d0: f87a 08be f950 49bd 9da3 8bbc 7932 5abd
000001e0: cb67 5a3e 9e2c e3bd f76a cabc b646 943e
000001f0: b6bf 69bd 0a4c 183e 01cc 43be 03e0 b63d
00000200: 12d0 6bbe 9344 f13d 9113 403d e6eb b1bd
00000210: 1d55 03be 8da3 83bd 6587 80be 3948 c93d
00000220: 1976 b4be ac77 5d3e daaa a63e 61af 843d
00000230: 00cf 063e 42f8 ecbb ea49 98be d5e0 f2be
00000240: c6bf 86be f321 833b d380 81be d0d6 d93e
00000250: 1b31 c73e 318b 953e 95b6 6dbd 8f77 bc3e
00000260: cf4f 483d 045d a63d aa0f 90be a4fe a83e
00000270: e3d9 623e 5655 82be 81e7 5ebe 81e8 903e
00000280: 03ae 2fbe 7e2a 2dbe badd d13c f440 01be
00000290: f73a d53d 9be0 fe3c 044a 7bbe efff 12be
000002a0: 0fca 1f3e d145 80be 7659 3abe e50a 35be
000002b0: 6353 e5bd c660 1b3e 8bbc e63d 039f b2bd
000002c0: ad1a 9b3c 2943 e9bc 8dcc ec3d 6a2d 9a3e
000002d0: fef8 28be eaa3 043c f9a4 f33c 221c df3e
000002e0: c003 153e 0f7f 5f3e fddc 0abe fed3 793e
000002f0: 6031 a03e 1721 713e 5363 aa3e 8611 d33e
00000300: 99de 953e feff 593e 7d4a 1abe 648a 123e
00000310: f071 9ebd 3891 693e af8e dbbd 974d a3bc
00000320: d007 063e cbd4 c53e 9f34 613e a48c 333e
00000330: 67dd ca3e 51b0 b43e cb73 b03e 4193 d63e
00000340: fc50 923c 186c e63d eb99 083d 280d 9fbe
00000350: 6ce4 84bc 47f4 a83e 68d5 14bd 5334 aa3e
00000360: 62e8 bebe 8b96 41be ebd7 cc3d 1c1f 9a3e
00000370: a40a 2fbd 624b 95be e564 02bf ee1b 9cbe
00000380: 3cb2 2abe 983e ad3e 2df3 5b3e 315a 5d3d
00000390: 4af9 9f3e 6968 993e 463d 463e a1f3 d5be
000003a0: b815 0abd 1a7c 6fbe b0a6 8d3e 7d48 873e
000003b0: f99a 84be 4e46 8dbe d304 cbbe 0af5 8fbe
000003c0: acde 14be 9585 1c3e 9067 76be c440 2ebe
000003d0: b544 f6bd 2a24 4f3e b786 df3d e584 3b3c
000003e0: 3b6f d3be 302a 313d 5db4 4ebd f9f6 e53d
000003f0: a6eb 933e b178 89be 1729 e6be d325 d9be

layers.3.bias f4 [16]
-0.05377675 0.059463695 0.12893905 -0.25445667 -0.22175977 0.23337136 -0.15495522 0.4234598
0.15695383 0.10402449 -0.06983048 -0.029215207 0.1260994 -0.028476067 -0.019013213 0.09093048
00000000: 0245 5cbd 3490 733d 9908 043e 2548 82be
00000010: fe14 63be e7f8 6e3e 95ac 1ebe b9cf d83e
00000020: 81b8 203e cb0a d53d 4803 8fbd bb54 efbc
00000030: 3320 013e a446 e9bc 99c1 9bbc c239 ba3d

layers.5.weight f4 [16, 16]
0.21137281 -0.07949613 -0.13215601 0.17421687 0.39496315 0.3755643 -0.15115559 -0.39301798
0.32986075 0.11479803 -0.09358391 0.17466506 0.08112996 -0.04304502 0.25179094 0.26525432
-0.12133136 0.43062723 0.052253053 0.0016876142 0.07804555 -0.11277667 0.12856741 0.120507225
0.10624529 -0.03605808 0.08847814 0.42198712 0.22866485 0.28975308 -0.03816647 -0.16879137
0.22551756 0.09298122 -0.33166617 0.17543368 0.19170229 -0.23146696 -0.082092 -0.13453205
0.032879356 0.12506257 0.18731277 -0.055984013 -0.15155616 0.24250594 0.03855748 0.46959683
0.058179226 0.4370938 -0.22433779 0.44605833 0.113788754 0.27762923 0.21451734 -0.20059569
0.4500479 -0.27545464 -0.14882359 -0.19563413 0.19914901 0.16095571 -0.17008838 0.4852268
0.044542506 -0.20888649 -0.13700145 -0.029181149 -0.118309155 -0.082676426 -0.12699065 0.12783101
-0.046218336 -0.24152884 0.1185759 -0.08323835 -0.070758246 -0.051587082 0.048671477 0.03734985
0.06201571 0.031051015 0.19914989 0.033918325 0.09817054 -0.010030985 -0.02933427 0.14226267
-0.39049202 0.3736709 -0.12645987 -0.04020579 -0.032062624 0.17437392 0.30923906 -0.089609586
0.07788767 0.11299465 -0.299098 0.25575358 0.38007128 0.26254183 0.35716954 0.0258985
0.018607534 0.009640126 0.14280407 0.100049704 0.21585308 -0.36170968 -0.045002736 -0.31698355
-0.040002964 -0.23391849 0.07451784 0.19620615 0.15227032 -0.03675965 -0.23779424 0.1416971
-0.20016657 0.034296487 0.17434084 -0.12389574 -0.020624707 0.13812187 -0.042159636 -0.10814611
0.26742697 0.24637361 0.14918801 -0.1141755 -0.085823335 0.2686664 0.023693398 0.18168363
0.06738856 -0.21369913 -0.21495256 -0.38851556 -0.14904559 0.36932003 0.32725695 0.41614336
0.20692413 -0.2966469 -0.34820083 0.17382719 -0.0073915515 0.19626443 -0.15184233 -0.2256769
-0.16201869 0.39742565 0.016831554 0.21382163 0.07917422 0.13568744 0.06803688 -0.06987533
0.24190448 -0.03693877 -0.1973123 0.17223528 -0.001001748 0.071497425 -0.20966315 -0.30304548
0.18202117 0.26412416 -0.20858134 -0.09523298 -0.09866624 0.37936547 0.21313873 0.27683946
0.05199485 0.003847827 -0.33563492 -0.076035954 0.24058516 0.0796603 -0.14816007 -0.31346682
-0.16017446 0.19071016 0.06546504 0.4167807 0.31825846 0.07883513 -0.3240207 0.02241549
0.037607588 0.3487457 0.25351205 0.2762073 -0.28186783 -0.16684453 0.24766573 0.3429507
0.0012065526 0.30557233 -0.1914867 0.0865781 0.05347716 0.34326878 -0.13718526 0.29068115
0.035089362 0.18432388 -0.26347035 -0.13931991 0.22339675 0.18683226 0.05506837 0.11876583
-0.32898936 -0.15260532 0.034508727 -0.059139036 0.199032 -0.32818705 0.05994439 -0.11365123
0.22375841 -0.2226596 -0.014467384 -0.24283041 -0.022486633 0.40767547 -0.1477122 -0.04961361
-0.38257855 0.092275746 0.03786144 -0.0034304352 0.24961434 -0.060503192 0.00070843555 -0.3864573
0.33371106 -0.11704385 0.24700512 -0.1517836 0.13411652 0.120781526 0.3718609 0.26206455
-0.07843236 0.16784188 -0.13749543 0.12388959 0.22160742 -0.11945122 0.17101614 -0.28130305
00000000: 1d72 583e dece a2bd e853 07be e865 323e
00000010: 9c38 ca3e f749 c03e 88c8 1abe a739 c9be
00000020: 82e3 a83e 3b1b eb3d eca8 bfbd 66db 323e
00000030: 7727 a63d fa4f 30bd beea 803e 6acf 873e
00000040: 937c f8bd 2c7b dc3e 4c07 563d f032 dd3a
00000050: 58d6 9f3d 74f7 e6bd 2da7 033e 7ecc f63d
00000060: 2197 d93d a3b1 13bd 0734 b53d b20e d83e
00000070: 1e27 6a3e 845a 943e 7254 1cbd a5d7 2cbe
00000080: 13ee 663e f06c be3d 26d0 a9be e3a4 333e
00000090: 9b4d 443e ad05 6dbe da1f a8bd c5c2 09be
000000a0: 81ac 063d 6710 003e ebce 3f3e 7e4f 65bd
000000b0: 8a31 1bbe 7a53 783e 73ee 1d3d ff6e f03e
000000c0: 574d 6e3d c2ca df3e ceb8 65be c261 e43e
000000d0: 140a e93d 6b25 8e3e 6faa 5b3e f568 4dbe
000000e0: ae6c e63e 6408 8dbe 3665 18be 5054 48be
000000f0: b8ed 4b3e 93d1 243e a62b 2ebe a66f f83e
00000100: 3472 363d 57e6 55be 1c4a 0cbe 4e0d efbc
00000110: 124c f2bd 4252 a9bd d609 02be 22e6 023e
00000120: 704f 3dbd 5653 77be ecd7 f23d de78 aabd
00000130: b3e9 90bd fa4c 53bd be5b 473d 28fc 183d
00000140: 2f04 7e3d b35e fe3c f3ed 4b3e f1ed 0a3d
00000150: a30d c93d 0059 24bc 6c4e f0bc 4ead 113e
00000160: 92ee c7be cb51 bf3e b27e 01be d4ae 24bd
00000170: 1954 03bd 148f 323e 9554 9e3e 3b85 b7bd
00000180: 9283 9f3d bd69 e73d 6023 99be 22f2 823e
00000190: b498 c23e e26b 863e edde b63e 1729 d43c
000001a0: d46e 983c 9ef1 1d3c 3b3b 123e dce6 cc3d
000001b0: 9708 5d3e 0332 b9be ca54 38bd ab4b a2be
000001c0: 26da 23bd 5488 6fbe cf9c 983d 44ea 483e
000001d0: c0ec 1b3e 4991 16bd 5580 73be 0b19 113e
000001e0: 77f8 4cbe 797a 0c3d 6886 323e 0dbd fdbd
000001f0: 25f5 a8bc d26f 0d3e 95af 2cbd b57b ddbd
00000200: 30ec 883e 5d49 7c3e bec4 183e d8d4 e9bd
00000210: 25c4 afbd a48e 893e a818 c23c 460b 3a3e
00000220: 0303 8a3d f2d3 5abe 861c 5cbe 83eb c6be
00000230: 689f 18be 8417 bd3e 398e a73e be10 d53e
00000240: ebe3 533e 1ae2 97be 6147 b2be c1ff 313e
00000250: d434 f2bb 8bf9 483e 8e7c 1bbe d817 67be
00000260: 3ae8 25be 607b cb3e 54e2 893c 0ff4 5a3e
00000270: 1826 a23d a6f1 0a3e eb56 8b3d cc1a 8fbd
00000280: cfb5 773e 1c4d 17bd 3c0c 4abe 725e 303e
00000290: 164d 83ba 3e6d 923d f0b1 56be c728 9bbe
000002a0: c263 3a3e 483b 873e 5996 55be 8209 c3bd
000002b0: 8711 cabd 313c c23e 0a41 5a3e e7bd 8d3e
000002c0: 8df8 543d d32b 7c3b 57d8 abbe bdb8 9bbd
000002d0: f55b 763e f024 a33d 46b7 17be b97e a0be
000002e0: c604 24be 8649 433e 8912 863d 4864 d53e
000002f0: c6f2 a23e 5074 a13d 0be6 a5be b1a0 b73c
00000300: 6a0a 1a3d cc8e b23e 55cc 813e 0b6b 8d3e
00000310: fb50 90be 4bd9 2abe 169c 7d3e 3c97 af3e
00000320: 3025 9e3a fa73 9c3e 1715 44be dc4f b13d
00000330: de0a 5b3d edc0 af3e 4b7a 0cbe 29d4 943e
00000340: ddb9 0f3d 66bf 3c3e 96e5 86be e1a9 0ebe
00000350: 1ec2 643e f550 3f3e 5f8f 613d 803b f33d
00000360: 4b71 a8be 9244 1cbe 0659 0d3d c63b 72bd
00000370: 0bcf 4b3e 2208 a8be 4088 753d fac1 e8bd
00000380: ed20 653e e100 64be 9b08 6dbc 89a8 78be
00000390: e335 b8bc d7ba d03e de41 17be a437 4bbd
000003a0: 56e1 c3be 11fb bc3d 9914 1b3d 27d1 60bb
000003b0: e79a 7f3e 32d2 77bd 4eb6 393a bbdd c5be
000003c0: 2ddc aa3e b0b4 efbd e9ee 7c3e 296d 1bbe
000003d0: d755 093e 4e5c f73d 8d64 be3e 532d 863e
000003e0: 25a1 a0bd bede 2b3e 9acb 0cbe d3b9 fd3d
000003f0: 0eed 623e d7a2 f4bd db1e 2f3e f406 90be

layers.5.bias f4 [16]
-0.18234186 0.2644091 0.040589508 -0.30407378 -0.008011226 0.2579862 0.14890864 -0.16741443
0.012755941 0.1824223 0.2707523 -0.22864266 -0.09246286 0.2692479 0.39727253 0.0834897
00000000: d3b7 3abe a160 873e 2f41 263d 8faf 9bbe
00000010: 8441 03bc c416 843e 827b 183e b06e 2bbe
00000020: 4bfe 503c e9cc 3a3e 0ca0 8a3e 4d21 6abe
00000030: 2b5d bdbd dcda 893e 4e67 cb3e a6fc aa3d

layers.7.weight f4 [16, 16]
-0.04579167 0.15604022 0.109232254 0.10727476 -0.07463994 0.08201867 -0.17115425 0.15218961
0.028460002 -0.031710804 0.13154334 -0.09293929 -0.22314382 0.20052454 -0.13850369 -0.14638035
-0.024652774 0.20710896 0.22958972 0.05017654 -0.14303532 -0.06563401 0.30409104 -0.18068023
-0.11665774 -0.09521731 -0.13005485 0.4540851 -0.18356866 0.35935465 -0.034575924 0.13262455
-0.1782033 -0.10803643 -0.11396546 -0.35873628 0.010265419 0.2584532 0.05682981 -0.11748776
-0.27627483 0.106246166 0.070591375 0.24939485 0.34881362 -0.19536813 0.003345084 0.32752183
-0.26004753 0.2684516 -0.20575543 -0.18766668 -0.24095134 -0.040485397 0.026465695 -0.025781859
-0.15906778 0.27631417 -0.17573377 0.03461785 0.043048494 -0.04802729 0.13361014 0.021285104
-0.20360336 0.15319845 -0.2300226 -0.18894853 0.20883846 0.09207088 -0.021285823 0.09279302
0.39722762 -0.090959676 -0.098321 -0.11005142 0.15451969 -0.24790253 0.23191145 0.38300636
-0.124271125 -0.043018885 -0.2447101 -0.19297162 -0.13468252 0.24842326 0.24490921 0.042683512
-0.08545136 0.1084627 0.19519012 -0.13204001 -0.24681567 0.24483097 0.13245723 0.37628278
0.25717968 -0.049647063 0.2358331 0.38519618 -0.106971845 -0.1477646 0.05398514 0.049171295
0.18989994 0.111172244 0.102978446 -0.2746135 -0.12251542 0.09306881 0.14761399 0.19737084
0.0069285277 0.4272727 -0.38667628 0.36284557 0.0060611092 -0.008056041 0.20452683 0.08333817
0.1687116 -0.29509744 -0.3601543 -0.020508217 0.30476278 0.39542028 -0.19552839 0.28418565
-0.243519 0.36328867 0.12713079 0.0005899673 0.071323454 0.3845455 -0.03032277 -0.22466747
-0.19810504 -0.12966748 -0.06734884 0.26792672 0.2904633 -0.042043455 -0.15554267 -0.0107290875
0.25715932 -0.12021616 -0.1005292 -0.21305448 -0.19922343 0.24316324 0.21196136 -0.08867376
-0.28833953 0.44836903 0.110740595 0.35937518 0.03586741 0.2781242 0.3602232 0.053189225
-0.05204672 0.12852247 0.03243779 -0.13976239 0.026737846 -0.14518885 0.16686495 -0.2474293
0.11002079 -0.25515023 -0.10643922 -0.02609868 -0.08475111 -0.28975055 0.0018721068 -0.07025719
0.25577328 0.031859864 -0.3713312 0.21586597 0.18018353 -0.25512058 0.26488358 -0.00072013686
-0.36794338 0.0786991 -0.336925 0.29982907 -0.33460894 0.29303384 0.27670822 0.37563783
0.01947821 0.049163774 0.04537584 -0.0026616647 -0.013592855 0.35656142 -0.03340369 -0.109738484
0.39999497 0.2175002 0.25231126 -0.019323867 0.32183465 -0.010528701 -0.018692223 0.20423332
0.35435086 -0.18933527 0.3871799 0.3190459 0.16240734 0.069040194 0.11564722 0.024187284
0.10782184 0.06837091 0.31359342 0.101521865 0.036567457 -0.32473144 -0.2589269 0.101749085
0.3139192 -0.090666406 -0.24470559 -0.29474694 -0.09722921 0.2768411 -0.0063971034 0.011261268
0.2840126 0.32281998 0.19433907 -0.28892875 -0.30661774 0.37131745 0.3322467 0.26161507
-0.17805418 -0.1240092 -0.2051173 0.22889978 -0.11410594 0.24110794 -0.13773897 0.028868569
-0.14124233 -0.15093125 0.0137626715 0.043645795 -0.1886954 -0.034877505 0.019032694 0.10127072
00000000: 0c90 3bbd 02c9 1f3e 29b5 df3d dfb2 db3d
00000010: d3dc 98bd 68f9 a73d 0f43 2fbe 98d7 1b3e
00000020: f324 e93c 30e3 01bd 4cb3 063e f456 bebd
00000030: d07f 64be 4e56 4d3e e9d3 0dbe bbe4 15be
00000040: 9df4 c9bc 5f14 543e 9119 6b3e ea85 4d3d
00000050: da77 12be 206b 86bd d2b1 9b3e 3d04 39be
00000060: 41ea eebd 4b01 c3bd 192d 05be d87d e83e
00000070: 6cf9 3bbe 55fd b73e 7c9f 0dbd bbce 073e
00000080: ed7a 36be 3442 ddbd b966 e9bd 48ac b7be
00000090: 4a30 283c fa53 843e 60c6 683d 6c9d f0bd
000000a0: e573 8dbe 9797 d93d 3692 903d 5d61 7f3e
000000b0: b397 b23e 950e 48be 3239 5b3b f1b0 a73e
000000c0: f324 85be 7d72 893e 8db1 52be b22b 40be
000000d0: f3bb 76be 04d4 25bd 96ce d83c 7a34 d3bc
000000e0: aae2 22be 0d79 8d3e 8ef3 33be 72cb 0d3d
000000f0: 9e53 303d 43b8 44bd 19d1 083e 195e ae3c
00000100: 667d 50be 0ee0 1c3e 0b8b 6bbe b97b 41be
00000110: c0d9 553e a88f bc3d 9b5f aebc 440a be3d
00000120: 6b61 cb3e 1149 babd 855c c9bd a462 e1bd
00000130: 693a 1e3e 29da 7dbe 327a 6d3e 6919 c43e
00000140: dc81 febd 9234 30bd 4995 7abe 5a9a 45be
00000150: 37ea 09be ab62 7e3e 7bc9 7a3e e8d4 2e3d
00000160: 1f01 afbd b121 de3d ebdf 473e 7f35 07be
00000170: 3fbd 7cbe f8b4 7a3e dea2 073e 23a8 c03e
00000180: 0ead 833e b85a 4bbd 3b7e 713e 6f38 c53e
00000190: 0e14 dbbd 9a4f 17be 861f 5d3d d767 493d
000001a0: 2175 423e 46ae e33d 5de6 d23d 249a 8cbe
000001b0: 5de9 fabd dc9a be3d 1f28 173e 951b 4a3e
000001c0: b408 e33b 7dc3 da3e 6ffa c5be e5c6 b93e
000001d0: 459c c63b 7cfd 03bc 7b6f 513e 34ad aa3d
000001e0: bcc2 2c3e 0317 97be 2566 b8be d900 a8bc
000001f0: de09 9c3e 8774 ca3e 9838 48be c880 913e
00000200: 0b5d 79be f900 ba3e 932e 023e 09a8 1a3a
00000210: 0812 923d 26e3 c43e 7567 f8bc 3b0f 66be
00000220: 0cdc 4abe 8dc7 04be 30ee 89bd b12d 893e
00000230: 9bb7 943e c235 2cbd 9446 1fbe 0ec9 2fbc
00000240: 63aa 833e e433 f6bd 41e2 cdbd f42a 5abe
00000250: 3a01 4cbe c9ff 783e 660c 593e 979a b5bd
00000260: 3da1 93be a090 e53e f7cb e23d 0600 b83e
00000270: b5e9 123d 4c66 8e3e 2d6f b83e f2dc 593d
00000280: f12e 55bd 659b 033e 7ddd 043d df1d 0fbe
00000290: 5409 db3c 63ac 14be a5de 2a3e 1b5e 7dbe
000002a0: 9452 e13d 0da3 82be cefc d9bd e6cc d5bc
000002b0: fd91 adbd 2f5a 94be 7b61 f53a 00e3 8fbd
000002c0: b7f4 823e 7d7f 023d 1f1f bebe f80b 5d3e
000002d0: 0882 383e 2a9f 82be d29e 873e 91c7 3cba
000002e0: 1363 bcbe fe2c a13d 6f81 acbe 3283 993e
000002f0: dd51 abbe 8808 963e b3ac 8d3e 9a53 c03e
00000300: c490 9f3c f45f 493d 04dc 393d 536f 2ebb
00000310: 91b4 5ebc 388f b63e 4fd2 08bd 92be e0bd
00000320: 24cc cc3e 5fb8 5e3e f12e 813e 164d 9ebc
00000330: 83c7 a43e 9380 2cbc 6f20 99bc 8a22 513e
00000340: 7a6d b53e 1be1 41be 723c c63e fc59 a33e
00000350: 1c4e 263e f264 8d3d 73d8 ec3d 6924 c63c
00000360: b2d1 dc3d 0c06 8c3d 518f a03e b2ea cf3d
00000370: c2c7 153d 3343 a6be 1192 84be d361 d03d
00000380: 04ba a03e 4faf b9bd 1a94 7abe 12e9 96be
00000390: 1c20 c7bd 1ebe 8d3e cb9e d1bb 2e81 383c
000003a0: 196a 913e a948 a53e d200 473e 78ee 93be
000003b0: 00fd 9cbe 521d be3e 3d1c aa3e 69f2 853e
000003c0: d653 36be 89f8 fdbd 450a 52be b464 6a3e
000003d0: 60b0 e9bd 00e5 763e 720b 0dbe c77d ec3c
000003e0: d4a1 10be b98d 1abe d47c 613c efc5 323d
000003f0: 5e39 41be b7db 0ebd 74ea 9b3c 0667 cf3d

layers.7.bias f4 [16]
-0.24977353 -0.2741818 0.15246409 0.13938797 0.3968141 0.28580663 0.18116729 0.1421534
0.27189407 -0.10262963 -0.24725586 0.1872627 0.051227976 0.047238976 0.2776442 0.09039717
00000000: a2c4 7fbe 8f61 8cbe 8c1f 1c3e b8bb 0e3e
00000010: 382b cb3e 3f55 923e eb83 393e a990 113e
00000020: b335 8b3e 7c2f d2bd a430 7dbe cbc1 3f3e
00000030: 6dd4 513d a87d 413d 6127 8e3e 2722 b93d

layers.9.weight f4 [10, 16]
-0.11500845 0.20078944 -0.1568523 -0.23892425 -0.40844107 -0.3677571 0.17343415 -0.039295316
-0.47244492 -0.03712727 -0.08432802 -0.19095066 0.022989377 0.35712585 -0.24697135 0.14636002
-0.012861563 0.1448685 0.42330265 0.42282724 0.24347803 0.17179166 -0.35104766 0.20308942
0.24731557 -0.07762841 0.1989076 -0.10351887 -0.18110092 -0.21341829 -0.20069042 0.23937741
0.15142795 0.29771373 -0.15641999 -0.1864015 -0.06846374 -0.042746518 -0.22245078 0.30602014
0.17319225 0.18030722 -0.1633177 0.3041494 -0.2287676 -0.13565692 -0.3287149 0.18417512
0.20198517 0.24032165 -0.14876072 -0.38554838 -0.16621955 0.19748053 0.005506166 0.1381821
-0.085650675 0.24472831 -0.07546547 0.3386721 -0.37428376 -0.06874816 -0.0027172975 0.16983865
0.12573019 -0.3949868 0.007164823 -0.28356993 0.42540184 0.2508834 -0.10353795 0.110552214
-0.13102153 -0.17771678 0.120107695 -0.36438233 0.116356835 -0.18246318 0.260701 -0.14457157
0.17057553 0.045807045 -0.38708103 -0.1793031 0.16795675 0.29364607 -0.10097416 0.26423225
-0.3031166 -0.16946971 -0.14361642 0.27839717 -0.21187516 0.040738657 0.1333341 -0.17402112
-0.18642268 0.09764325 -0.37085786 -0.03538041 0.17188969 -0.06880022 0.051735926 0.25858214
0.26616544 -0.46448165 -0.10185318 -0.41949266 0.045551088 -0.029620336 -0.4428899 -0.23031294
0.049220726 0.098069474 -0.077855594 -0.054372665 -0.0066304295 0.17117652 -0.14516157 -0.41676554
0.12571903 0.3745003 0.026869724 0.2257971 -0.13324985 -0.15170592 0.24177122 0.06705372
-0.038584933 0.09499259 -0.13056622 -0.3702456 0.03379926 -0.1973271 -0.1493571 -0.060434733
0.34669995 0.25577492 -0.2285499 -0.061228134 -0.0029903355 0.23443143 -0.2449671 -0.11980827
-0.0039539086 -0.2952795 0.1312423 -0.057386525 0.039310183 0.1637489 0.1242286 -0.39664695
-0.02706665 0.04382526 -0.046732932 -0.33999297 0.022809632 0.21308377 0.26565316 -0.23033428
00000000: 8d89 ebbd bf9b 4d3e e49d 20be 8fa8 74be
00000010: 301f d1be a94a bcbe b998 313e 20f4 20bd
00000020: 4de4 f1be c412 18bd 2bb4 acbd 9288 43be
00000030: 3854 bc3c 33d9 b63e 0fe6 7cbe 67df 153e
00000040: 4eb9 52bc 6858 143e 20bb d83e d07c d83e
00000050: 4e52 793e 27ea 2f3e 85bc b3be acf6 4f3e
00000060: 4b40 7d3e a5fb 9ebd 6fae 4b3e b401 d4bd
00000070: 8572 39be 538a 5abe ca81 4dbe 5a1f 753e
00000080: ee0f 1b3e ef6d 983e 902c 20be 09e0 3ebe
00000090: b836 8cbd f916 2fbd 23ca 63be acae 9c3e
000000a0: 4f59 313e 75a2 383e c13c 27be 78b9 9b3e
000000b0: 0e42 6abe a6e9 0abe 524d a8be 6798 3c3e
000000c0: 33d5 4e3e e116 763e bb54 18be 9966 c5be
000000d0: 7535 2abe 5638 4a3e 116d b43b 9c7f 0d3e
000000e0: 9f69 afbd 0f9a 7a3e a48d 9abd 6e66 ad3e
000000f0: 1fa2 bfbe d6cb 8cbd b014 32bb 2fea 2d3e
00000100: 6abf 003e b63b cabe e4c6 ea3b 1430 91be
00000110: 45ce d93e ca73 803e b40b d4bd 3369 e23d
00000120: 822a 06be 63fb 35be 06fb f53d 5290 babe
00000130: 7e4c ee3d a1d7 3abe 9a7a 853e 920a 14be
00000140: 5aab 2e3e 2ba0 3b3d 7c2f c6be 3b9b 37be
00000150: dbfc 2b3e c758 963e 8acb cebd 7349 873e
00000160: 1932 9bbe 7889 2dbe 2f10 13be 138a 8e3e
00000170: cdf5 58be 94dd 263d bc88 083e 9832 32be
00000180: 96e5 3ebe 2ff9 c73d 15e1 bdbe 0ceb 10bd
00000190: da03 303e 21e7 8cbd 0de9 533d e164 843e
000001a0: d646 883e 8ad0 edbe 6698 d0bd bec7 d6be
000001b0: c793 3a3d 59a6 f2bc 77c2 e2be 28d7 6bbe
000001c0: ac9b 493d a6d8 c83d c172 9fbd dfb5 5ebd
000001d0: 1344 d9bb e648 2f3e 3ca5 14be 4b62 d5be
000001e0: 7dbc 003e 81be bf3e e51d dc3c 5b37 673e
000001f0: a672 08be cc58 1bbe e092 773e 7653 893d
00000200: 3c0b 1ebd 7a8b c23d 27b3 05be d590 bdbe
00000210: 1871 0a3d 1e10 4abe 11f1 18be 698a 77bd
00000220: a882 b13e eef4 823e fc08 6abe 5aca 7abd
00000230: 81f9 43bb cb0e 703e a8d8 7abe 0a5e f5bd
00000240: ca8f 81bb e02e 97be 6264 063e 220e 6bbd
00000250: b703 213d cbad 273e 906b fe3d 4f15 cbbe
00000260: e1ba ddbc 1e82 333d 086b 3fbd 8f13 aebe
00000270: 44db ba3c a232 5a3e b103 883e c0dc 6bbe

layers.9.bias f4 [10]
-0.15000989 0.3039354 -0.20315851 -0.2734844 -0.0627063 0.19490328 0.020078901 -0.086538605
-0.036423404 -0.24096408
00000000: 319c 19be 6c9d 9b3e c908 50be 2606 8cbe
00000010: 296c 80bd ba94 473e 827c a43c 273b b1bd
00000020: b530 15bd 4abf 76be
