Experiment/benchmark/fnn_small/onnx/mnist-64x2.onnx (onnx, 220962 bytes, 6 tensors)

layers.1.weight f4 [64, 784]
-0.017319808 0.006573465 0.007662965 -0.012586225 0.013242942 -0.0043625887 -0.017201297 0.014608669
-0.007880704 0.0067849173 0.025307175 -0.008586963 -0.02538988 -0.048307862 0.0326182 -0.024384461
0.029703736 0.007497192 -0.008722679 -0.03175412 0.024557479 0.034525648 0.004070668 -0.009114318
-0.030340383 -0.035234258 -0.02713855 -0.025550036 0.023781788 -0.012722884 0.0136326095 0.018557668
-0.03264984 0.0049098064 -0.065933205 -0.04682151 -0.03407345 -0.041932642 -0.08079849 -0.063151225
-0.070851564 -0.059089363 -0.0516333 -0.06952898 -0.05063488 -0.068653546 -0.054206185 -0.08781162
-0.10493843 -0.047578506 -0.05558654 -0.04567945 0.002740591 -0.021487162 -0.018110657 0.012697021
0.03254602 -0.01310972 -0.0045564887 -0.005233639 -0.06943022 -0.055217814 -0.06454834 -0.061246015
-0.08494024 -0.15908572 -0.15437067 -0.18502323 -0.09576923 -0.093579754 -0.06100557 -0.0654676
-0.06722603 -0.066002704 -0.097104974 -0.0870981 -0.10081095 -0.05952053 -0.06490346 -0.03688557
-0.014901742 -0.00852389 0.03343641 0.035230566 0.011570856 0.0032894718 -0.005794245 -0.057891387
-0.07590304 -0.0038629875 -0.09561277 -0.15100798 -0.12761721 -0.19169977 -0.15983585 -0.15968497
-0.14310986 -0.14428325 -0.121594414 -0.042070877 -0.06369499 -0.019880457 -0.019032666 -0.022346536
0.009212802 -0.00833597 -0.040381365 -0.044797797 -0.044313043 -0.05492504 -0.046243694 -0.02412417
-0.023914063 -0.0041793752 0.033048134 -0.0017405269 0.036626186 0.021233287 -0.040956367 -0.029444499
-0.076998234 -0.117839746 -0.10628615 -0.051394835 -0.037293587 -0.056013856 -0.07954001 -0.07936293
0.006535727 -0.0004975481 0.028375015 0.015763659 0.01177531 0.06410166 0.08939345 0.047846742
0.045254637 0.009613957 -0.009142533 -0.07899105 0.024648514 0.011950498 0.0010871855 0.06779609
0.016055876 0.08653313 0.077775285 -0.018207774 -0.04980852 -0.008391888 -0.054855242 -0.017850522
0.011628575 -0.041478876 -0.008106689 -0.028878525 -0.036323152 -0.0514899 -0.013239723 0.020426288
0.024725655 0.017039413 0.043036416 0.069900244 0.09176437 -0.051380634 -0.0980107 -0.045945264
0.0010595603 0.021159653 -0.027436582 0.07979479 0.045210864 0.047076214 0.008700613 -0.033103064
0.024288762 0.002327554 0.00353503 0.03110744 0.055099048 0.027722355 0.016556427 -0.02345791
0.017171774 0.05306594 0.017191624 -0.008124964 0.003147509 -0.0003643027 -0.006172041 0.02054552
0.011812103 -0.038984273 -0.010660277 -0.08155496 -0.015754089 0.026167003 0.011446129 0.053654633
0.007596308 -0.010901226 0.024287323 0.008826551 0.0057584764 0.028149297 0.036693826 0.047254413
0.04241802 0.016181884 0.01757493 0.07917725 0.05190774 0.037964385 0.045150798 0.030067561
0.06397448 0.024603898 0.017991863 -0.05404515 -0.102942176 -0.05278409 0.0011057053 -0.05326722
-0.02106652 0.021432113 0.0120629305 0.055948664 0.04128027 -0.035082296 0.01601942 -0.01980182
0.0039614895 -0.034102812 -0.0259199 0.0024388868 -0.022171304 0.00097383716 0.0059451046 0.042962246
0.050461754 0.06764321 0.063988954 0.042091627 0.006465302 0.019290483 -0.02719287 -0.077228926
-0.12668495 -0.08133177 -0.034729194 -0.05282072 -0.016209433 0.0190817 0.006403054 0.009149207
00000000: 45e2 8dbc 3966 d73b 9c19 fb3b 7436 4ebc
00000010: edf8 583c 0cf4 8ebb bce9 8cbc 3359 6f3c
00000020: 111e 01bc 0354 de3b fe50 cf3c 55b0 0cbc
00000030: 70fe cfbc 77de 45bd a99a 053d ecc1 c7bc
00000040: 4055 f33c 01ab f53b 91e9 0ebc 9c10 02bd
00000050: c42c c93c c46a 0d3d 3d63 853b 3854 15bc
00000060: 658c f8bc cc51 10bd aa51 debc 4f4e d1bc
00000070: 06d2 c23c a573 50bc 4f5b 5f3c 4006 983c
00000080: d7bb 05bd 71e2 a03b fd07 87bd e9c7 3fbd
00000090: 9a90 0bbd 90c1 2bbd ae79 a5bd 6e55 81bd
000000a0: a01a 91bd b007 72bd 707d 53bd 3665 8ebd
000000b0: 8566 4fbd 3b9a 8cbd 4e07 5ebd 94d6 b3bd
000000c0: f6e9 d6bd aee1 42bd b6ae 63bd 601a 3bbd
000000d0: 7d9b 333b d805 b0bc cd5c 94bc 2a07 503c
000000e0: fa4e 053d 27ca 56bc 994e 95bb f27e abbb
000000f0: 6e31 8ebd 132c 62bd ec31 84bd 1add 7abd
00000100: 26f5 adbd 5ee7 22be 5813 1ebe bb76 3dbe
00000110: a822 c4bd bea6 bfbd fae0 79bd e113 86bd
00000120: cdad 89bd 6d2c 87bd f9de c6bd 7d60 b2bd
00000130: f975 cebd cdcb 73bd 1bec 84bd 5315 17bd
00000140: 7026 74bc c9a7 0bbc 9ef4 083d ed4d 103d
00000150: b093 3d3c 2e94 573b a6dd bdbb 851f 6dbd
00000160: 0e73 9bbd 2d2a 7dbb a1d0 c3bd d6a1 1abe
00000170: 16ae 02be f24c 44be 02ac 23be 7584 23be
00000180: 648b 12be fdbe 13be 7e06 f9bd 8352 2cbd
00000190: 8572 82bd 57dc a2bc 65ea 9bbc 1510 b7bc
000001a0: 4bf1 163c 9893 08bc ee66 25bd e57d 37bd
000001b0: 9881 35bd 14f9 60bd 076a 3dbd 0da0 c5bc
000001c0: 6de7 c3bc 24f3 88bb 7b5d 073d 6422 e4ba
000001d0: 5705 163d 6ef1 ad3c ddc1 27bd 9735 f1bc
000001e0: 40b1 9dbd f755 f1bd 8eac d9bd 6483 52bd
000001f0: 29c1 18bd c96e 65bd dfe5 a2bd 0889 a2bd
00000200: a729 d63b e36d 02ba b872 e83c ca22 813c
00000210: 3bed 403c bb47 833d ea13 b73d f2fa 433d
00000220: ed5c 393d dc83 1d3c 90ca 15bc 0fc6 a1bd
00000230: aeeb c93c 06cc 433c e47f 8e3a add8 8a3d
00000240: 9d87 833c 4838 b13d a648 9f3d 7828 95bc
00000250: 0504 4cbd 217e 09bc e4af 60bd 423b 92bc
00000260: c785 3e3c c1e5 29bd ebd1 04bc a892 ecbc
00000270: 96c7 14bd 13e7 52bd 6ceb 58bc 0855 a73c
00000280: 758d ca3c 3d96 8b3c f446 303d dc27 8f3d
00000290: f5ee bb3d 8074 52bd d5b9 c8bd 1a31 3cbd
000002a0: f2e0 8a3a 0257 ad3c afc2 e0bc 736b a33d
000002b0: 072f 393d fdd2 403d 048d 0e3c 1497 07bd
000002c0: 3af9 c63c e089 183b f6ab 673b 08d5 fe3c
000002d0: 8aaf 613d fe19 e33c 58a1 873c ce2a c0bc
000002e0: d2ab 8c3c ac5b 593d 73d5 8c3c 921e 05bc
000002f0: 7046 4e3b e1ff beb9 d53e cabb 144f a83c
00000300: 8d87 413c f9ad 1fbd 71a8 2ebc 4906 a7bd
00000310: b80e 81bc 2f5c d63c 8b88 3b3c f6c4 5b3d
00000320: 73ea f83b 0e9b 32bc 35f6 c63c 3d9d 103c
00000330: 9ab1 bc3b 5b99 e63c 444c 163d d88d 413d
00000340: 85be 2d3d df8f 843c 4df9 8f3c af27 a23d
00000350: 369d 543d 8b80 1b3d 0bf0 383d 3f50 f63c
00000360: 0d05 833d 1d8e c93c ac63 933c 725e 5dbd
00000370: 59d3 d2bd 2134 58bd 50ed 903a ba2e 5abd
00000380: b293 acbc 6692 af3c 99a3 453c 6d2a 653d
00000390: 8015 293d 74b2 0fbd 293b 833c 6d37 a2bc
000003a0: 62cf 813b 64af 0bbd f855 d4bc bbd5 1f3b
000003b0: 98a0 b5bc 1b49 7f3a 27cf c23b 2ef9 2f3d
000003c0: fcb0 4e3d 8688 8a3d a40c 833d 4568 2c3d
000003d0: e2da d33b 1307 9e3c 95c3 debc 332a 9ebd
000003e0: b3b9 01be 4591 a6bd 3340 0ebd 8a5a 58bd
000003f0: a5c9 84bc 3a51 9c3c b6d0 d13b 8ee6 153c

layers.1.bias f4 [64]
0.047420174 0.062374044 -0.070741415 0.13327806 0.04857723 0.11628952 -0.026401721 0.091757536
0.038560346 -0.029436272 0.010931623 0.023415374 0.2030203 0.07574042 -0.018059814 0.05454373
-0.044505257 0.06572406 0.009174946 0.09900157 -0.07376089 0.048122924 0.01502658 -0.0010952576
0.07688713 0.00806939 0.017686201 0.027593989 -0.118130006 0.038308784 0.043828722 -0.013896601
0.034985255 0.0015395932 -0.032543346 -0.04013971 0.049971256 -0.026928108 0.010123203 0.14359896
0.06869431 0.004273536 0.055070724 0.0480508 0.14342481 0.05419543 0.028495645 -0.014110069
0.13758488 0.003300361 -0.03640218 0.1225058 0.089415245 0.011598996 0.08678245 0.06933503
0.017697034 0.009974949 -0.0048640883 0.09388189 0.08858082 0.07357953 0.04397262 0.09749887
00000000: a83b 423d ed7b 7f3d e0e0 90bd 0b7a 083e
00000010: ebf8 463d 3329 ee3d 6c48 d8bc 60eb bb3d
00000020: 74f1 1d3d 5624 f1bc 8d1a 333c 99d1 bf3c
00000030: 8ee4 4f3e cb1d 9b3d 2df2 93bc 3f69 5f3d
00000040: 254b 36bd 569a 863d 8352 163c 56c1 ca3d
00000050: f30f 97bd 8b1c 453d 0b32 763c bf8e 8fba
00000060: 0077 9d3d 7a35 043c a7e2 903c ca0c e23c
00000070: 25ee f1bd ace9 1c3d bf85 333d 92ae 63bc
00000080: b34c 0f3d 2dcc c93a 2c4c 05bd 8969 24bd
00000090: a9ae 4c3d 5698 dcbc cadb 253c 9b0b 133e
000000a0: 9aaf 8c3d 0509 8c3b d791 613d ead0 443d
000000b0: f4dd 123e 07fc 5d3d b36f e93c eb2d 67bc
000000c0: 0de3 0c3e df4a 583b 741a 15bd 52e4 fa3d
000000d0: 571f b73d b709 3e3c ffba b13d 86ff 8d3d
000000e0: 5ff9 903c f86d 233c ee62 9fbb 2645 c03d
000000f0: dc69 b53d ddb0 963d a21c 343d 7dad c73d

layers.3.weight f4 [64, 64]
-0.015215114 0.076819174 0.006295158 0.06448947 0.12096833 -0.050573207 0.07019434 -0.0683496
0.026320739 0.01333098 0.0990601 -0.025007205 -0.043597 0.14301772 0.124046534 0.1258427
-0.16911452 0.021769041 -0.050209757 -0.11168495 0.19958928 0.09572911 0.066973485 -0.03452717
0.02158379 0.10955892 -0.01022729 0.05478569 -0.052214246 0.16987088 0.17658776 -0.068844154
0.09690737 0.14123046 -0.10493654 0.12825884 0.0016887785 0.10393655 0.08390861 -0.054474182
0.05328432 -0.026188329 0.12659329 -0.035254195 0.10771548 0.12686309 -0.05596441 -0.060347136
-0.035901297 -0.1794465 -0.1886611 -0.09121363 0.18466559 -0.07247024 -0.018082574 -0.0497081
-0.01259233 -0.047820427 0.10235385 0.061839998 -0.04324588 -0.11646266 0.032042097 -0.13398136
0.028017905 -0.057674006 -0.11649898 -0.10904051 -0.0077772522 0.096486434 -0.038533673 -0.033436358
0.08572858 -0.088554755 0.087613195 0.0058559617 0.028035374 -0.030442547 -0.0012861661 0.0011868346
-0.09122668 -0.06904802 0.043569125 0.004801417 -0.1047544 0.08848286 -0.048276678 0.10926035
-0.056695033 -0.109531544 -0.025571343 -0.08975909 -0.09572613 -0.0092610875 -0.09357434 0.0069485665
-0.03529524 -0.101074286 0.08793872 0.048884653 -0.108006194 3.26766e-05 0.042057313 -0.07714186
-0.10106601 -0.08600556 0.016577782 -0.036042914 -7.23904e-05 -0.008734362 0.037731238 0.06389646
0.05890779 -0.13054736 -0.088888146 0.07981806 -0.058198527 -0.044630274 -0.085303806 -0.11573556
-0.12333733 -0.10127496 -0.104297005 -0.026186172 0.089419715 -0.05001106 -0.006792653 0.07626115
0.10105451 0.00243233 -0.10115672 -0.050213125 -0.22625114 0.078451484 0.111473635 -0.074555844
0.08604442 -0.119638205 0.15686916 -0.030168708 0.13451509 -0.05743284 0.06430148 -0.033774484
0.08240657 -0.00039713658 0.11379561 -0.20718503 0.10449193 0.09768284 0.18436906 -0.015825842
0.11583381 0.11299302 -0.00923106 -0.012695134 0.18196268 0.15679166 0.10399742 0.07130628
0.037696853 -0.09776424 0.122376196 0.10417959 -0.12884791 0.079285845 0.09052672 0.0187965
0.110059835 -0.10305862 0.1318823 -0.20289105 0.1334221 -0.07973625 0.08077373 0.15705197
-0.13781986 0.020543033 0.14900193 -0.07878089 0.028166007 0.012465948 -0.07452543 0.23373573
-0.13894863 -0.022101808 -0.051661886 0.12374326 -0.052055538 -0.12944981 0.1711689 -0.033967216
0.19830388 -0.17520678 0.022817064 -0.08854928 -0.07418764 0.08060775 0.17969522 -0.12505612
-0.1289192 -0.03229455 -0.04943479 -0.11113805 -0.05183684 0.090749264 0.10041311 0.05275228
-0.15275937 0.06463224 -0.017654251 -0.020103386 0.00965346 0.027750961 0.13817304 -0.15298969
0.15504736 -0.039568108 -0.115403965 0.04279359 0.11929125 0.062819585 0.18759938 -0.098149456
0.17538773 0.07867761 -0.011895881 0.13556999 -0.120955504 0.124921046 -0.033883832 -0.084502034
0.17414714 0.060350154 0.17738335 -0.11709252 0.18096283 0.0048341197 -0.15957238 0.10904039
-0.014725477 -0.115358956 -0.13520262 -0.10374638 0.087378584 0.09832292 0.045521833 0.0896425
-0.021681381 0.038797915 -0.015726471 0.13496906 0.07119585 0.068231456 0.13967903 -0.010858307
00000000: d048 79bc 5f53 9d3d 9d47 ce3b 0e13 843d
00000010: 3ebe f73d da25 4fbd 0dc2 8f3d e0fa 8bbd
00000020: 979e d73c 2f6a 5a3c 06e0 ca3d e9db ccbc
00000030: c592 32bd 3d73 123e 1c0c fe3d e9dc 003e
00000040: 5b2c 2dbe fd54 b23c bfa8 4dbd 14bb e4bd
00000050: 2261 4c3e a00d c43d 6529 893d 5d6c 0dbd
00000060: 7dd0 b03c 6d60 e03d 5d90 27bc f666 603d
00000070: 9bde 55bd a2f2 2d3e 6cd3 343e 2afe 8cbd
00000080: 5f77 c63d b89e 103e f8e8 d6bd 4956 033e
00000090: 015a dd3a b0dc d43d 47d8 ab3d 5220 5fbd
000000a0: a940 5a3d e888 d6bc aca1 013e b466 10bd
000000b0: ef99 dc3d 66e8 013e f03a 65bd 8f2e 77bd
000000c0: 3d0d 13bd d3c0 37be 6030 41be 36ce babd
000000d0: fa18 3d3e 476b 94bd e821 94bc b89a 4bbd
000000e0: 0f50 4ebc 5adf 43bd e59e d13d f04b 7d3d
000000f0: 9822 31bd fa83 eebd 933e 033d 6932 09be
00000100: ce85 e53c 943b 6cbd 0497 eebd a250 dfbd
00000110: 52d8 febb ae9a c53d 7cd5 1dbd 90f4 08bd
00000120: 7792 af3d 325c b5bd 8c6e b33d 5ee3 bf3b
00000130: 71aa e53c a662 f9bc 9394 a8ba 908f 9b3a
00000140: 0ed5 babd 0c69 8dbd 8a75 323d 3455 9d3b
00000150: 7a89 d6bd 8036 b53d c4bd 45bd e4c3 df3d
00000160: 0d39 68bd 1352 e0bd fe7a d1bc 9dd3 b7bd
00000170: 100c c4bd d1bb 17bc e7a3 bfbd cdb0 e33b
00000180: be91 10bd 0900 cfbd 3719 b43d 463b 483d
00000190: 5a32 ddbd 3b0e 0938 4a44 2c3d 8dfc 9dbd
000001a0: b2fb cebd af23 b0bd 21ce 873c bca1 13bd
000001b0: 4dd0 97b8 921a 0fbc 128c 1a3d 26dc 823d
000001c0: 4b49 713d 35ae 05be fd0a b6bd a777 a33d
000001d0: 9461 6ebd 3cce 36bd c3b3 aebd c406 edbd
000001e0: 4898 fcbd 3f69 cfbd ab99 d5bd 6284 d6bc
000001f0: af21 b73d 66d8 4cbd e794 debb ce2e 9c3d
00000200: abf5 ce3d ba67 1f3b 412b cfbd 47ac 4dbd
00000210: 61ae 67be 2cab a03d 4a4c e43d bcb0 98bd
00000220: 0f38 b03d e004 f5bd 4fa2 203e 5e24 f7bc
00000230: 53be 093e b33e 6bbd 7fb0 833d 1d57 0abd
00000240: c7c4 a83d c536 d0b9 ac0d e93d 5028 54be
00000250: ddff d53d f10d c83d 3ecb 3c3e 32a5 81bc
00000260: 473a ed3d e268 e73d df3d 17bc 40ff 4fbc
00000270: 6d54 3a3e fe8d 203e 99fc d43d 0709 923d
00000280: 0468 1a3d 9e38 c8bd 5fa0 fa3d 1c5c d53d
00000290: b5f0 03be 9e60 a23d 1366 b93d 1efb 993c
000002a0: 0d67 e13d 6610 d3bd 270c 073e acc2 4fbe
000002b0: ce9f 083e c24c a3bd b36c a53d 3bd2 203e
000002c0: a620 0dbe dd49 a83c f693 183e e057 a1bd
000002d0: 66bc e63c fa3d 4c3c caa0 98bd 6b58 6f3e
000002e0: 8d48 0ebe da0e b5bc 6a9b 53bd 1b6d fd3d
000002f0: 3038 55bd 7e8e 04be e646 2f3e 3521 0bbd
00000300: 2c10 4b3e 6869 33be daea ba3c 5359 b5bd
00000310: b0ef 97bd ad15 a53d 0602 383e b60e 00be
00000320: 6503 04be 4a47 04bd 227c 4abd 599c e3bd
00000330: de52 54bd c0da b93d 63a5 cd3d c612 583d
00000340: f46c 1cbe e85d 843d a69f 90bc dbaf a4bc
00000350: 8c29 1e3c fc55 e33c 3c7d 0d3e 54a9 1cbe
00000360: bcc4 1e3e 2b12 22bd ea58 ecbd 5548 2f3d
00000370: f94e f43d 8ea7 803d 0d1a 403e 9502 c9bd
00000380: d798 333e ba21 a13d f1e6 42bc dcd2 0a3e
00000390: 85b7 f7bd 9bd6 ff3d c6c9 0abd 670f adbd
000003a0: a153 323e b931 773d fba3 353e 34ce efbd
000003b0: 524e 393e 8967 9e3b f166 23be 9150 df3d
000003c0: 2143 71bc 5141 ecbd 8e72 0abe fb78 d4bd
000003d0: 8bf3 b23d 875d c93d 1a75 3a3d 7d96 b73d
000003e0: 279d b1bc 90ea 1e3d cdd4 80bc 5435 0a3e
000003f0: 21cf 913d efbc 8b3d 0508 0f3e 0ae7 31bc

layers.3.bias f4 [64]
0.1148333 -0.03833551 0.06112154 0.023669098 -0.039511416 0.12396 -0.09514386 0.055999346
-0.07885278 0.0060214223 0.17619517 0.06540443 -0.041807 0.16006786 0.0986461 0.11530943
0.09812432 0.17183432 0.007892249 0.04584942 0.13400015 -0.12382699 0.072473325 0.065226324
-0.13380389 -0.07290278 -0.10198189 -0.061124656 -0.045515046 0.11186693 0.13734283 -0.08589136
0.07652472 -0.021488445 -0.019830093 0.014202479 0.089964025 -0.11980892 0.09809047 0.0037500763
0.07700961 -0.0134765785 0.06829232 0.053171903 -0.13408782 0.05413545 -0.0563698 0.13310347
0.15983553 -0.050747916 0.089693956 0.02124722 0.08465749 0.05626701 0.12600459 -0.029245477
-0.07584082 0.16608687 0.08958372 -0.0013653837 0.10745204 0.121037826 0.04928089 0.14670737
00000000: b92d eb3d b205 1dbd 945a 7a3d b2e5 c13c
00000010: b9d6 21bd bede fd3d c9da c2bd 925f 653d
00000020: 917d a1bd 5a4f c53b 826c 343e c2f2 853d
00000030: d13d 2bbd d4e8 233e f706 ca3d 5a27 ec3d
00000040: 67f5 c83d 56f5 2f3e 7e4e 013c 9acc 3b3d
00000050: 5637 093e 0199 fdbd e56c 943d 6195 853d
00000060: e303 09be 0d4e 95bd e2db d0bd d95d 7abd
00000070: fc6d 3abd 7d1a e53d 99a3 0c3e cfe7 afbd
00000080: feb8 9c3d 8908 b0bc b872 a2bc 84b1 683c
00000090: 0f3f b83d 615e f5bd a8e3 c83d d7c3 753b
000000a0: 37b7 9d3d decc 5cbc d8dc 8b3d c8ca 593d
000000b0: 514e 09be 22bd 5d3d 05e4 66bd 474c 083e
000000c0: edab 233e 0cdd 4fbd 77b1 b73d a60e ae3c
000000d0: e860 ad3d 3c78 663d 5907 013e 3694 efbc
000000e0: 6f52 9bbd ad12 2a3e ab77 b73d adf6 b2ba
000000f0: d10f dc3d aee2 f73d c2da 493d 753a 163e

layers.5.weight f4 [10, 64]
-0.09509166 0.0076232776 -0.16336292 -0.2010535 -0.120686635 -0.00037719714 -0.013096137 -0.1483804
-0.062341128 0.050529122 -0.05736217 -0.09069261 -0.0105506675 0.09776981 -0.21504083 0.099546
-0.0075610415 -0.18132176 0.040224396 0.12551798 0.027097337 0.11725774 0.077052005 -0.15103732
0.17620355 -0.09787148 0.17857008 -0.02481644 -0.07437207 -0.10470824 -0.16119166 0.19476178
-0.05361408 -0.16326483 0.09223519 0.06773735 0.04136944 -0.014940014 -0.17989735 0.05920015
-0.054467164 -0.119868204 0.13671616 -0.13992769 -0.010711746 0.13352518 0.18256965 -0.09742824
0.07408054 -0.009560579 0.14071493 0.020979162 0.16760245 0.1569979 -0.2057639 -0.0061733793
0.062583886 -0.11586678 -0.010225721 0.05349333 -0.15649025 -0.17424454 -0.041234974 -0.10416695
-0.11655523 0.08550876 -0.012837642 -0.11883356 0.22006102 0.08119847 -0.03849807 0.16704631
0.041971244 0.19937974 -0.0096064145 -0.150717 -0.10449006 0.17242871 0.14399344 0.06413746
0.070834294 0.012776373 0.025578978 0.038211487 0.14099696 -0.1096224 -0.09598005 0.14023863
-0.14630839 -0.20428264 -0.13270922 -0.2780483 -0.10219195 -0.024433762 0.08204549 -0.016531978
0.16871521 0.05982095 0.095485896 -0.16495931 -0.11470841 -0.105474055 0.19525327 0.12214883
0.04587363 -0.08326592 0.1608052 -0.045362733 0.07310885 -0.06478948 -0.10697021 0.14672942
0.041872304 -0.07821684 -0.13829964 -0.044551823 -0.013911761 -0.1839172 0.03307757 0.10883177
-0.2112118 0.11784173 -0.054700118 -0.2139808 0.14951195 0.18275885 -0.116938956 -0.12797026
-0.10532554 0.00869487 -0.082318865 -0.1177559 -0.18652442 0.1613655 0.004196886 0.15223086
0.0031857188 -0.06808553 -0.17056143 0.15191925 -0.10625373 0.17870812 0.18752272 0.19197361
0.16032098 0.00033541225 -0.030253338 -0.00011723221 0.019845366 0.13193004 0.18087687 -0.026902854
0.12367132 0.010216167 -0.14090341 0.18207316 0.06812128 0.04886454 -0.13974863 -0.062475484
-0.08500159 -0.24549907 -0.056226395 -0.24029678 -0.09697146 0.11200845 0.13665634 -0.15356466
0.059228234 -0.06971424 -0.08203935 -0.034820065 -0.0937967 0.003032319 -0.17638175 -0.14247425
0.059990283 -0.059219282 0.2087096 0.036200844 -0.15893048 -0.09611018 -0.027339263 -0.21574183
-0.113490686 0.092830606 0.012089664 0.03372189 0.10755194 -0.17830034 0.14185 0.15025988
-0.038553063 0.03546478 -0.003911858 0.07511989 0.076812595 -0.009465068 0.03425885 0.14555657
-0.17064047 -0.21375528 0.09707248 0.072885275 -0.010491613 -0.0901764 0.105131105 0.024771927
-0.11749908 -0.097511716 0.19581136 0.022313332 -0.1483095 0.06959551 0.0821266 0.19364686
-0.040960263 0.076695964 0.07593084 0.040451817 -0.09735446 0.061824594 -0.15997824 -0.17834099
-0.2112537 0.04190103 0.20821212 0.1466095 -0.18211494 0.048633896 0.18621974 -0.0054107895
0.028204966 -0.16257563 -0.0037135023 0.019095909 0.064094506 -0.123375684 0.051962122 -0.015709981
-0.1479078 -0.062951796 -0.07823367 -0.08656578 0.16269945 0.027201712 0.15441553 -0.07217983
-0.053219043 0.08013259 0.10388107 -0.15426333 0.17164803 -0.07076212 -0.08426542 0.007312115
00000000: 6bbf c2bd b0cc f93b 9c48 27be f8e0 4dbe
00000010: 8e2a f7bd 8bc2 c5b9 2e91 56bc 08f1 17be
00000020: 6959 7fbd a0f7 4e3d 98f4 6abd 0cbd b9bd
00000030: b5dc 2cbc 8a3b c83d aa33 5cbe c6de cb3d
00000040: 9dc2 f7bb 69ac 39be 56c2 243d c987 003e
00000050: 3cfb dd3c d324 f03d 71cd 9d3d 87a9 1abe
00000060: b46e 343e d870 c8bd 13db 363e d94b cbbc
00000070: 6250 98bd 4671 d6bd 6d0f 25be a26f 473e
00000080: 709a 5bbd e52e 27be cee5 bc3d e1b9 8a3d
00000090: 0073 293d f6c6 74bc 0337 38be db7b 723d
000000a0: f618 5fbd 767d f5bd 52ff 0b3e 3449 0fbe
000000b0: 5280 2fbc d3ba 083e 8af3 3a3e 7588 c7bd
000000c0: 8ab7 973d faa3 1cbc 9317 103e 7edc ab3c
000000d0: fa9f 2b3e 0fc4 203e c6b3 52be 0f4a cabb
000000e0: fb2b 803d 904b edbd c889 27bc d21b 5b3d
000000f0: fb3e 20be 296d 32be 01e6 28bd 7b55 d5bd
00000100: 82b4 eebd 371f af3d f954 52bc 025f f3bd
00000110: ad57 613e 624b a63d 27b0 1dbd 300e 2b3e
00000120: 0aea 2b3d 342a 4c3e 3964 1dbc 8f55 1abe
00000130: e2fe d5bd 2791 303e 0473 133e 805a 833d
00000140: 9211 913d fe53 513c 018b d13c a683 1c3d
00000150: 8261 103e b581 e0bd 3091 c4bd b79a 0f3e
00000160: ded1 15be 782f 51be ede4 07be 595c 8ebe
00000170: 034a d1bd 5029 c8bc 7707 a83d 126e 87bc
00000180: aec3 2c3e d006 753d 1c8e c33d 18eb 28be
00000190: 3eec eabd c802 d8bd 79f0 473e 2a29 fa3d
000001a0: fde5 3b3d 5387 aabd 1eaa 243e 46ce 39bd
000001b0: 18ba 953d 59b0 84bd 3313 dbbd 3d40 163e
000001c0: 4b82 2b3d 2730 a0bd 6c9e 0dbe f97b 36bd
000001d0: 28ee 63bc ca54 3cbe 597c 073d 31e3 de3d
000001e0: e847 58be 0157 f13d 3b0d 60bd c81d 5bbe
000001f0: a919 193e 2325 3b3e b17d efbd a30a 03be
00000200: ebb4 d7bd ee74 0e3c cb96 a8bd 012a f1bd
00000210: 4200 3fbe ff3c 253e 0886 893b 68e2 1b3e
00000220: 7ec7 503b 6d70 8bbd a8a7 2ebe b890 1b3e
00000230: 8e9b d9bd 43ff 363e f505 403e bb94 443e
00000240: 2f2b 243e 45da af39 d9d5 f7bc 90da f5b8
00000250: c092 a23c ab18 073e c937 393e 6063 dcbc
00000260: 6447 fd3d b661 273c fc48 10be 6371 3a3e
00000270: 2b83 8b3d 2f26 483d 441a 0fbe 4be6 7fbd
00000280: 5015 aebd 1c64 7bbe a64d 66bd 5c10 76be
00000290: f998 c6bd b064 e53d a4ef 0b3e 0e40 1dbe
000002a0: 4e99 723d 57c6 8ebd 3f04 a8bd 7c9f 0ebd
000002b0: 7c18 c0bd dfb9 463b 6b9d 34be c5e4 11be
000002c0: 5fb8 753d eb8f 72bd f8b7 553e 5647 143d
000002d0: acbe 22be 6ad5 c4bd 97f6 dfbc 6deb 5cbe
000002e0: ce6d e8bd f91d be3d ba13 463c f71f 0a3d
000002f0: 3144 dc3d 5d94 36be 2041 113e badd 193e
00000300: d1e9 1dbd 8443 113d 0b2f 80bb 75d8 993d
00000310: ec4f 9d3d 5f13 1bbc 0253 0c3d c80c 153e
00000320: 60bc 2ebe aae2 5abe f0cd c63d e044 953d
00000330: 04e5 2bbc 68ae b8bd fa4e d73d 7fee ca3c
00000340: 5ca3 f0bd 39b4 c7bd c682 483e 73ca b63c
00000350: 72de 17be 1788 8e3d fe31 a83d 5d4b 463e
00000360: f3c5 27bd c612 9d3d a181 9b3d ceb0 253d
00000370: c661 c7bd c93b 7d3d 56d1 23be 059f 36be
00000380: e452 58be 6aa0 2b3d 8f35 553e cd20 163e
00000390: 577c 3abe 5634 473d 63b0 3e3e fe4c b1bb
000003a0: 1a0e e73c 3a7a 26be 3b5e 73bb 066f 9c3c
000003b0: fb43 833d 64ac fcbd 3cd6 543d 38b2 80bc
000003c0: 2475 17be dfec 80bd f938 a0bd 6649 b1bd
000003d0: af9a 263e 20d6 de3c 1b1f 1e3e 05d3 93bd
000003e0: 36fc 59bd 8e1c a43d 99bf d43d 35f7 1dbe
000003f0: 80c4 2f3e bbeb 90bd 5993 acbd 779a ef3b

layers.5.bias f4 [10]
-0.052525867 0.07246819 0.044120736 0.021254255 0.005228577 0.01710934 0.032237623 0.009503148
-0.12490035 -0.14453633
00000000: 5d25 57bd 346a 943d f2b7 343d 671d ae3c
00000010: 7c54 ab3b e328 8c3c 990b 043d 17b3 1b3c
00000020: c1cb ffbd 5501 14be
